#loc = loc("/tmp/torchinductor_jovyan/lo/cloq52gtirrn7nptljyh52ce33wttvdswoi2f6zcqyyjjdl4lz3d.py":18:0)
module {
  tt.func public @triton_poi_fused_embedding_0(%arg0: !tt.ptr<i64> {tt.divisibility = 16 : i32} loc("/tmp/torchinductor_jovyan/lo/cloq52gtirrn7nptljyh52ce33wttvdswoi2f6zcqyyjjdl4lz3d.py":18:0), %arg1: !tt.ptr<bf16> {tt.divisibility = 16 : i32} loc("/tmp/torchinductor_jovyan/lo/cloq52gtirrn7nptljyh52ce33wttvdswoi2f6zcqyyjjdl4lz3d.py":18:0), %arg2: !tt.ptr<bf16> {tt.divisibility = 16 : i32} loc("/tmp/torchinductor_jovyan/lo/cloq52gtirrn7nptljyh52ce33wttvdswoi2f6zcqyyjjdl4lz3d.py":18:0), %arg3: i32 {tt.divisibility = 16 : i32} loc("/tmp/torchinductor_jovyan/lo/cloq52gtirrn7nptljyh52ce33wttvdswoi2f6zcqyyjjdl4lz3d.py":18:0)) attributes {noinline = false} {
    %c4096_i32 = arith.constant 4096 : i32 loc(#loc1)
    %0 = tt.get_program_id x : i32 loc(#loc2)
    %c256_i32 = arith.constant 256 : i32 loc(#loc3)
    %c256_i32_0 = arith.constant 256 : i32 loc(#loc3)
    %1 = arith.muli %0, %c256_i32_0 : i32 loc(#loc3)
    %2 = tt.make_range {end = 256 : i32, start = 0 : i32} : tensor<256xi32> loc(#loc4)
    %3 = tt.splat %1 : i32 -> tensor<256xi32> loc(#loc5)
    %4 = arith.addi %3, %2 : tensor<256xi32> loc(#loc5)
    %true = arith.constant true loc(#loc6)
    %cst = arith.constant dense<true> : tensor<256xi1> loc(#loc6)
    %c0_i32 = arith.constant 0 : i32 loc(#loc7)
    %5 = tt.addptr %arg0, %c0_i32 : !tt.ptr<i64>, i32 loc(#loc7)
    %6 = tt.load %5 : !tt.ptr<i64> loc(#loc8)
    %7 = tt.splat %6 : i64 -> tensor<256xi64> loc(#loc9)
    %c128256_i32 = arith.constant 128256 : i32 loc(#loc10)
    %cst_1 = arith.constant dense<128256> : tensor<256xi32> loc(#loc10)
    %8 = arith.extsi %cst_1 : tensor<256xi32> to tensor<256xi64> loc(#loc11)
    %9 = arith.addi %7, %8 : tensor<256xi64> loc(#loc11)
    %c0_i32_2 = arith.constant 0 : i32 loc(#loc12)
    %10 = arith.extsi %c0_i32_2 : i32 to i64 loc(#loc12)
    %11 = tt.splat %10 : i64 -> tensor<256xi64> loc(#loc12)
    %12 = arith.cmpi slt, %7, %11 : tensor<256xi64> loc(#loc12)
    %13 = arith.select %12, %9, %7 : tensor<256xi1>, tensor<256xi64> loc(#loc13)
    %c0_i32_3 = arith.constant 0 : i32 loc(#loc14)
    %14 = arith.extsi %c0_i32_3 : i32 to i64 loc(#loc14)
    %15 = tt.splat %14 : i64 -> tensor<256xi64> loc(#loc14)
    %16 = arith.cmpi sle, %15, %13 : tensor<256xi64> loc(#loc14)
    %c128256_i32_4 = arith.constant 128256 : i32 loc(#loc15)
    %17 = arith.extsi %c128256_i32_4 : i32 to i64 loc(#loc15)
    %18 = tt.splat %17 : i64 -> tensor<256xi64> loc(#loc15)
    %19 = arith.cmpi slt, %13, %18 : tensor<256xi64> loc(#loc15)
    %20 = arith.andi %16, %19 : tensor<256xi1> loc(#loc16)
    tt.assert %20, "index out of bounds: 0 <= tmp5 < 128256" : tensor<256xi1> loc(#loc17)
    %c4096_i32_5 = arith.constant 4096 : i32 loc(#loc18)
    %c4096_i64 = arith.constant 4096 : i64 loc(#loc18)
    %cst_6 = arith.constant dense<4096> : tensor<256xi64> loc(#loc18)
    %21 = arith.muli %cst_6, %13 : tensor<256xi64> loc(#loc18)
    %22 = arith.extsi %4 : tensor<256xi32> to tensor<256xi64> loc(#loc19)
    %23 = arith.addi %22, %21 : tensor<256xi64> loc(#loc19)
    %24 = tt.splat %arg1 : !tt.ptr<bf16> -> tensor<256x!tt.ptr<bf16>> loc(#loc20)
    %25 = tt.addptr %24, %23 : tensor<256x!tt.ptr<bf16>>, tensor<256xi64> loc(#loc20)
    %26 = tt.load %25 : tensor<256x!tt.ptr<bf16>> loc(#loc21)
    %27 = arith.extf %26 : tensor<256xbf16> to tensor<256xf32> loc(#loc22)
    %28 = tt.splat %arg2 : !tt.ptr<bf16> -> tensor<256x!tt.ptr<bf16>> loc(#loc23)
    %29 = tt.addptr %28, %4 : tensor<256x!tt.ptr<bf16>>, tensor<256xi32> loc(#loc23)
    %30 = arith.truncf %27 : tensor<256xf32> to tensor<256xbf16> loc(#loc24)
    tt.store %29, %30 : tensor<256x!tt.ptr<bf16>> loc(#loc24)
    tt.return loc(#loc25)
  } loc(#loc)
} loc(#loc)
#loc1 = loc("/tmp/torchinductor_jovyan/lo/cloq52gtirrn7nptljyh52ce33wttvdswoi2f6zcqyyjjdl4lz3d.py":19:13)
#loc2 = loc("/tmp/torchinductor_jovyan/lo/cloq52gtirrn7nptljyh52ce33wttvdswoi2f6zcqyyjjdl4lz3d.py":20:28)
#loc3 = loc("/tmp/torchinductor_jovyan/lo/cloq52gtirrn7nptljyh52ce33wttvdswoi2f6zcqyyjjdl4lz3d.py":20:33)
#loc4 = loc("/tmp/torchinductor_jovyan/lo/cloq52gtirrn7nptljyh52ce33wttvdswoi2f6zcqyyjjdl4lz3d.py":21:36)
#loc5 = loc("/tmp/torchinductor_jovyan/lo/cloq52gtirrn7nptljyh52ce33wttvdswoi2f6zcqyyjjdl4lz3d.py":21:23)
#loc6 = loc("/tmp/torchinductor_jovyan/lo/cloq52gtirrn7nptljyh52ce33wttvdswoi2f6zcqyyjjdl4lz3d.py":22:36)
#loc7 = loc("/tmp/torchinductor_jovyan/lo/cloq52gtirrn7nptljyh52ce33wttvdswoi2f6zcqyyjjdl4lz3d.py":24:30)
#loc8 = loc("/tmp/torchinductor_jovyan/lo/cloq52gtirrn7nptljyh52ce33wttvdswoi2f6zcqyyjjdl4lz3d.py":24:19)
#loc9 = loc("/tmp/torchinductor_jovyan/lo/cloq52gtirrn7nptljyh52ce33wttvdswoi2f6zcqyyjjdl4lz3d.py":25:33)
#loc10 = loc("/tmp/torchinductor_jovyan/lo/cloq52gtirrn7nptljyh52ce33wttvdswoi2f6zcqyyjjdl4lz3d.py":26:37)
#loc11 = loc("/tmp/torchinductor_jovyan/lo/cloq52gtirrn7nptljyh52ce33wttvdswoi2f6zcqyyjjdl4lz3d.py":27:18)
#loc12 = loc("/tmp/torchinductor_jovyan/lo/cloq52gtirrn7nptljyh52ce33wttvdswoi2f6zcqyyjjdl4lz3d.py":28:18)
#loc13 = loc("/tmp/torchinductor_jovyan/lo/cloq52gtirrn7nptljyh52ce33wttvdswoi2f6zcqyyjjdl4lz3d.py":29:32)
#loc14 = loc("/tmp/torchinductor_jovyan/lo/cloq52gtirrn7nptljyh52ce33wttvdswoi2f6zcqyyjjdl4lz3d.py":30:27)
#loc15 = loc("/tmp/torchinductor_jovyan/lo/cloq52gtirrn7nptljyh52ce33wttvdswoi2f6zcqyyjjdl4lz3d.py":30:43)
#loc16 = loc("/tmp/torchinductor_jovyan/lo/cloq52gtirrn7nptljyh52ce33wttvdswoi2f6zcqyyjjdl4lz3d.py":30:36)
#loc17 = loc("/tmp/torchinductor_jovyan/lo/cloq52gtirrn7nptljyh52ce33wttvdswoi2f6zcqyyjjdl4lz3d.py":30:52)
#loc18 = loc("/tmp/torchinductor_jovyan/lo/cloq52gtirrn7nptljyh52ce33wttvdswoi2f6zcqyyjjdl4lz3d.py":31:40)
#loc19 = loc("/tmp/torchinductor_jovyan/lo/cloq52gtirrn7nptljyh52ce33wttvdswoi2f6zcqyyjjdl4lz3d.py":31:35)
#loc20 = loc("/tmp/torchinductor_jovyan/lo/cloq52gtirrn7nptljyh52ce33wttvdswoi2f6zcqyyjjdl4lz3d.py":31:30)
#loc21 = loc("/tmp/torchinductor_jovyan/lo/cloq52gtirrn7nptljyh52ce33wttvdswoi2f6zcqyyjjdl4lz3d.py":31:47)
#loc22 = loc("/tmp/torchinductor_jovyan/lo/cloq52gtirrn7nptljyh52ce33wttvdswoi2f6zcqyyjjdl4lz3d.py":31:56)
#loc23 = loc("/tmp/torchinductor_jovyan/lo/cloq52gtirrn7nptljyh52ce33wttvdswoi2f6zcqyyjjdl4lz3d.py":32:25)
#loc24 = loc("/tmp/torchinductor_jovyan/lo/cloq52gtirrn7nptljyh52ce33wttvdswoi2f6zcqyyjjdl4lz3d.py":32:36)
#loc25 = loc("/tmp/torchinductor_jovyan/lo/cloq52gtirrn7nptljyh52ce33wttvdswoi2f6zcqyyjjdl4lz3d.py":32:4)
