#loc = loc("/tmp/torchinductor_jovyan/yc/cyc42ufw3xcohs6hc6h4li5dzopx2emnj7gn57xvgzbj44qmyu5e.py":18:0)
module {
  tt.func public @triton_poi_fused_cat_3(%arg0: !tt.ptr<bf16> {tt.divisibility = 16 : i32} loc("/tmp/torchinductor_jovyan/yc/cyc42ufw3xcohs6hc6h4li5dzopx2emnj7gn57xvgzbj44qmyu5e.py":18:0), %arg1: !tt.ptr<bf16> {tt.divisibility = 16 : i32} loc("/tmp/torchinductor_jovyan/yc/cyc42ufw3xcohs6hc6h4li5dzopx2emnj7gn57xvgzbj44qmyu5e.py":18:0), %arg2: !tt.ptr<bf16> {tt.divisibility = 16 : i32} loc("/tmp/torchinductor_jovyan/yc/cyc42ufw3xcohs6hc6h4li5dzopx2emnj7gn57xvgzbj44qmyu5e.py":18:0), %arg3: i64 loc("/tmp/torchinductor_jovyan/yc/cyc42ufw3xcohs6hc6h4li5dzopx2emnj7gn57xvgzbj44qmyu5e.py":18:0), %arg4: i64 loc("/tmp/torchinductor_jovyan/yc/cyc42ufw3xcohs6hc6h4li5dzopx2emnj7gn57xvgzbj44qmyu5e.py":18:0), %arg5: i64 {tt.divisibility = 16 : i32} loc("/tmp/torchinductor_jovyan/yc/cyc42ufw3xcohs6hc6h4li5dzopx2emnj7gn57xvgzbj44qmyu5e.py":18:0), %arg6: i32 {tt.divisibility = 16 : i32} loc("/tmp/torchinductor_jovyan/yc/cyc42ufw3xcohs6hc6h4li5dzopx2emnj7gn57xvgzbj44qmyu5e.py":18:0)) attributes {noinline = false} {
    %cst = arith.constant dense<0.000000e+00> : tensor<1024xbf16> loc(#loc1)
    %cst_0 = arith.constant dense<1024> : tensor<1024xi64> loc(#loc1)
    %cst_1 = arith.constant dense<128> : tensor<1024xi64> loc(#loc1)
    %cst_2 = arith.constant dense<128> : tensor<1024xi32> loc(#loc1)
    %c1024_i32 = arith.constant 1024 : i32 loc(#loc1)
    %0 = tt.get_program_id x : i32 loc(#loc2)
    %1 = arith.muli %0, %c1024_i32 : i32 loc(#loc3)
    %2 = tt.make_range {end = 1024 : i32, start = 0 : i32} : tensor<1024xi32> loc(#loc4)
    %3 = tt.splat %1 : i32 -> tensor<1024xi32> loc(#loc5)
    %4 = arith.addi %3, %2 : tensor<1024xi32> loc(#loc5)
    %5 = tt.splat %arg6 : i32 -> tensor<1024xi32> loc(#loc6)
    %6 = arith.cmpi slt, %4, %5 : tensor<1024xi32> loc(#loc6)
    %7 = arith.divsi %4, %cst_2 : tensor<1024xi32> loc(#loc7)
    %8 = arith.extsi %7 : tensor<1024xi32> to tensor<1024xi64> loc(#loc8)
    %9 = tt.splat %arg3 : i64 -> tensor<1024xi64> loc(#loc8)
    %10 = arith.remsi %8, %9 : tensor<1024xi64> loc(#loc8)
    %11 = arith.remsi %4, %cst_2 : tensor<1024xi32> loc(#loc9)
    %12 = arith.extsi %4 : tensor<1024xi32> to tensor<1024xi64> loc(#loc10)
    %13 = tt.splat %arg5 : i64 -> tensor<1024xi64> loc(#loc10)
    %14 = arith.divsi %12, %13 : tensor<1024xi64> loc(#loc10)
    %15 = tt.splat %arg4 : i64 -> tensor<1024xi64> loc(#loc11)
    %16 = arith.cmpi slt, %10, %15 : tensor<1024xi64> loc(#loc11)
    %17 = arith.muli %14, %cst_1 : tensor<1024xi64> loc(#loc12)
    %18 = arith.extsi %11 : tensor<1024xi32> to tensor<1024xi64> loc(#loc13)
    %19 = arith.addi %18, %17 : tensor<1024xi64> loc(#loc13)
    %20 = arith.muli %10, %cst_0 : tensor<1024xi64> loc(#loc14)
    %21 = arith.addi %19, %20 : tensor<1024xi64> loc(#loc15)
    %22 = tt.splat %arg0 : !tt.ptr<bf16> -> tensor<1024x!tt.ptr<bf16>> loc(#loc16)
    %23 = tt.addptr %22, %21 : tensor<1024x!tt.ptr<bf16>>, tensor<1024xi64> loc(#loc16)
    %24 = arith.andi %16, %6 : tensor<1024xi1> loc(#loc17)
    %25 = tt.load %23, %24, %cst evictionPolicy = evict_last : tensor<1024x!tt.ptr<bf16>> loc(#loc18)
    %26 = arith.extf %25 : tensor<1024xbf16> to tensor<1024xf32> loc(#loc19)
    %27 = arith.cmpi sge, %10, %15 : tensor<1024xi64> loc(#loc20)
    %28 = tt.splat %arg1 : !tt.ptr<bf16> -> tensor<1024x!tt.ptr<bf16>> loc(#loc21)
    %29 = tt.addptr %28, %19 : tensor<1024x!tt.ptr<bf16>>, tensor<1024xi64> loc(#loc21)
    %30 = arith.andi %27, %6 : tensor<1024xi1> loc(#loc22)
    %31 = tt.load %29, %30, %cst evictionPolicy = evict_last : tensor<1024x!tt.ptr<bf16>> loc(#loc23)
    %32 = arith.extf %31 : tensor<1024xbf16> to tensor<1024xf32> loc(#loc24)
    %33 = arith.select %16, %26, %32 : tensor<1024xi1>, tensor<1024xf32> loc(#loc25)
    %34 = tt.splat %arg2 : !tt.ptr<bf16> -> tensor<1024x!tt.ptr<bf16>> loc(#loc26)
    %35 = tt.addptr %34, %4 : tensor<1024x!tt.ptr<bf16>>, tensor<1024xi32> loc(#loc26)
    %36 = arith.truncf %33 : tensor<1024xf32> to tensor<1024xbf16> loc(#loc27)
    tt.store %35, %36, %6 : tensor<1024x!tt.ptr<bf16>> loc(#loc27)
    tt.return loc(#loc28)
  } loc(#loc)
} loc(#loc)
#loc1 = loc(unknown)
#loc2 = loc("/tmp/torchinductor_jovyan/yc/cyc42ufw3xcohs6hc6h4li5dzopx2emnj7gn57xvgzbj44qmyu5e.py":19:28)
#loc3 = loc("/tmp/torchinductor_jovyan/yc/cyc42ufw3xcohs6hc6h4li5dzopx2emnj7gn57xvgzbj44qmyu5e.py":19:33)
#loc4 = loc("/tmp/torchinductor_jovyan/yc/cyc42ufw3xcohs6hc6h4li5dzopx2emnj7gn57xvgzbj44qmyu5e.py":20:36)
#loc5 = loc("/tmp/torchinductor_jovyan/yc/cyc42ufw3xcohs6hc6h4li5dzopx2emnj7gn57xvgzbj44qmyu5e.py":20:23)
#loc6 = loc("/tmp/torchinductor_jovyan/yc/cyc42ufw3xcohs6hc6h4li5dzopx2emnj7gn57xvgzbj44qmyu5e.py":21:21)
#loc7 = loc("/tmp/torchinductor_jovyan/yc/cyc42ufw3xcohs6hc6h4li5dzopx2emnj7gn57xvgzbj44qmyu5e.py":22:21)
#loc8 = loc("/tmp/torchinductor_jovyan/yc/cyc42ufw3xcohs6hc6h4li5dzopx2emnj7gn57xvgzbj44qmyu5e.py":22:28)
#loc9 = loc("/tmp/torchinductor_jovyan/yc/cyc42ufw3xcohs6hc6h4li5dzopx2emnj7gn57xvgzbj44qmyu5e.py":23:19)
#loc10 = loc("/tmp/torchinductor_jovyan/yc/cyc42ufw3xcohs6hc6h4li5dzopx2emnj7gn57xvgzbj44qmyu5e.py":24:19)
#loc11 = loc("/tmp/torchinductor_jovyan/yc/cyc42ufw3xcohs6hc6h4li5dzopx2emnj7gn57xvgzbj44qmyu5e.py":30:18)
#loc12 = loc("/tmp/torchinductor_jovyan/yc/cyc42ufw3xcohs6hc6h4li5dzopx2emnj7gn57xvgzbj44qmyu5e.py":31:39)
#loc13 = loc("/tmp/torchinductor_jovyan/yc/cyc42ufw3xcohs6hc6h4li5dzopx2emnj7gn57xvgzbj44qmyu5e.py":31:35)
#loc14 = loc("/tmp/torchinductor_jovyan/yc/cyc42ufw3xcohs6hc6h4li5dzopx2emnj7gn57xvgzbj44qmyu5e.py":31:50)
#loc15 = loc("/tmp/torchinductor_jovyan/yc/cyc42ufw3xcohs6hc6h4li5dzopx2emnj7gn57xvgzbj44qmyu5e.py":31:44)
#loc16 = loc("/tmp/torchinductor_jovyan/yc/cyc42ufw3xcohs6hc6h4li5dzopx2emnj7gn57xvgzbj44qmyu5e.py":31:30)
#loc17 = loc("/tmp/torchinductor_jovyan/yc/cyc42ufw3xcohs6hc6h4li5dzopx2emnj7gn57xvgzbj44qmyu5e.py":31:63)
#loc18 = loc("/tmp/torchinductor_jovyan/yc/cyc42ufw3xcohs6hc6h4li5dzopx2emnj7gn57xvgzbj44qmyu5e.py":31:56)
#loc19 = loc("/tmp/torchinductor_jovyan/yc/cyc42ufw3xcohs6hc6h4li5dzopx2emnj7gn57xvgzbj44qmyu5e.py":31:114)
#loc20 = loc("/tmp/torchinductor_jovyan/yc/cyc42ufw3xcohs6hc6h4li5dzopx2emnj7gn57xvgzbj44qmyu5e.py":32:19)
#loc21 = loc("/tmp/torchinductor_jovyan/yc/cyc42ufw3xcohs6hc6h4li5dzopx2emnj7gn57xvgzbj44qmyu5e.py":35:30)
#loc22 = loc("/tmp/torchinductor_jovyan/yc/cyc42ufw3xcohs6hc6h4li5dzopx2emnj7gn57xvgzbj44qmyu5e.py":35:51)
#loc23 = loc("/tmp/torchinductor_jovyan/yc/cyc42ufw3xcohs6hc6h4li5dzopx2emnj7gn57xvgzbj44qmyu5e.py":35:44)
#loc24 = loc("/tmp/torchinductor_jovyan/yc/cyc42ufw3xcohs6hc6h4li5dzopx2emnj7gn57xvgzbj44qmyu5e.py":35:102)
#loc25 = loc("/tmp/torchinductor_jovyan/yc/cyc42ufw3xcohs6hc6h4li5dzopx2emnj7gn57xvgzbj44qmyu5e.py":36:33)
#loc26 = loc("/tmp/torchinductor_jovyan/yc/cyc42ufw3xcohs6hc6h4li5dzopx2emnj7gn57xvgzbj44qmyu5e.py":37:25)
#loc27 = loc("/tmp/torchinductor_jovyan/yc/cyc42ufw3xcohs6hc6h4li5dzopx2emnj7gn57xvgzbj44qmyu5e.py":37:37)
#loc28 = loc("/tmp/torchinductor_jovyan/yc/cyc42ufw3xcohs6hc6h4li5dzopx2emnj7gn57xvgzbj44qmyu5e.py":37:4)
