// -----// IR Dump Before Inliner (inline) ('builtin.module' operation) //----- //
#loc = loc("/home/jovyan/intel-xpu-backend-for-triton/python/tutorials/01-vector-add.py":30:0)
#loc14 = loc("x_ptr"(#loc))
#loc15 = loc("y_ptr"(#loc))
#loc16 = loc("output_ptr"(#loc))
#loc17 = loc("n_elements"(#loc))
module {
  tt.func public @add_kernel(%x_ptr: !tt.ptr<f32> {tt.divisibility = 16 : i32} loc("x_ptr"(#loc)), %y_ptr: !tt.ptr<f32> {tt.divisibility = 16 : i32} loc("y_ptr"(#loc)), %output_ptr: !tt.ptr<f32> {tt.divisibility = 16 : i32} loc("output_ptr"(#loc)), %n_elements: i32 {tt.divisibility = 16 : i32} loc("n_elements"(#loc))) attributes {noinline = false} {
    %pid = tt.get_program_id x : i32 loc(#loc18)
    %block_start = arith.constant 1024 : i32 loc(#loc19)
    %block_start_0 = arith.constant 1024 : i32 loc(#loc19)
    %block_start_1 = arith.muli %pid, %block_start_0 : i32 loc(#loc19)
    %offsets = tt.make_range {end = 1024 : i32, start = 0 : i32} : tensor<1024xi32> loc(#loc20)
    %offsets_2 = tt.splat %block_start_1 : i32 -> tensor<1024xi32> loc(#loc21)
    %offsets_3 = arith.addi %offsets_2, %offsets : tensor<1024xi32> loc(#loc21)
    %mask = tt.splat %n_elements : i32 -> tensor<1024xi32> loc(#loc22)
    %mask_4 = arith.cmpi slt, %offsets_3, %mask : tensor<1024xi32> loc(#loc22)
    %x = tt.splat %x_ptr : !tt.ptr<f32> -> tensor<1024x!tt.ptr<f32>> loc(#loc23)
    %x_5 = tt.addptr %x, %offsets_3 : tensor<1024x!tt.ptr<f32>>, tensor<1024xi32> loc(#loc23)
    %x_6 = tt.load %x_5, %mask_4 : tensor<1024x!tt.ptr<f32>> loc(#loc24)
    %y = tt.splat %y_ptr : !tt.ptr<f32> -> tensor<1024x!tt.ptr<f32>> loc(#loc25)
    %y_7 = tt.addptr %y, %offsets_3 : tensor<1024x!tt.ptr<f32>>, tensor<1024xi32> loc(#loc25)
    %y_8 = tt.load %y_7, %mask_4 : tensor<1024x!tt.ptr<f32>> loc(#loc26)
    %output = arith.addf %x_6, %y_8 : tensor<1024xf32> loc(#loc27)
    %0 = tt.splat %output_ptr : !tt.ptr<f32> -> tensor<1024x!tt.ptr<f32>> loc(#loc11)
    %1 = tt.addptr %0, %offsets_3 : tensor<1024x!tt.ptr<f32>>, tensor<1024xi32> loc(#loc11)
    tt.store %1, %output, %mask_4 : tensor<1024x!tt.ptr<f32>> loc(#loc12)
    tt.return loc(#loc13)
  } loc(#loc)
} loc(#loc)
#loc1 = loc("/home/jovyan/intel-xpu-backend-for-triton/python/tutorials/01-vector-add.py":39:24)
#loc2 = loc("/home/jovyan/intel-xpu-backend-for-triton/python/tutorials/01-vector-add.py":44:24)
#loc3 = loc("/home/jovyan/intel-xpu-backend-for-triton/python/tutorials/01-vector-add.py":45:41)
#loc4 = loc("/home/jovyan/intel-xpu-backend-for-triton/python/tutorials/01-vector-add.py":45:28)
#loc5 = loc("/home/jovyan/intel-xpu-backend-for-triton/python/tutorials/01-vector-add.py":47:21)
#loc6 = loc("/home/jovyan/intel-xpu-backend-for-triton/python/tutorials/01-vector-add.py":50:24)
#loc7 = loc("/home/jovyan/intel-xpu-backend-for-triton/python/tutorials/01-vector-add.py":50:16)
#loc8 = loc("/home/jovyan/intel-xpu-backend-for-triton/python/tutorials/01-vector-add.py":51:24)
#loc9 = loc("/home/jovyan/intel-xpu-backend-for-triton/python/tutorials/01-vector-add.py":51:16)
#loc10 = loc("/home/jovyan/intel-xpu-backend-for-triton/python/tutorials/01-vector-add.py":52:17)
#loc11 = loc("/home/jovyan/intel-xpu-backend-for-triton/python/tutorials/01-vector-add.py":54:26)
#loc12 = loc("/home/jovyan/intel-xpu-backend-for-triton/python/tutorials/01-vector-add.py":54:35)
#loc13 = loc("/home/jovyan/intel-xpu-backend-for-triton/python/tutorials/01-vector-add.py":54:4)
#loc18 = loc("pid"(#loc1))
#loc19 = loc("block_start"(#loc2))
#loc20 = loc("offsets"(#loc3))
#loc21 = loc("offsets"(#loc4))
#loc22 = loc("mask"(#loc5))
#loc23 = loc("x"(#loc6))
#loc24 = loc("x"(#loc7))
#loc25 = loc("y"(#loc8))
#loc26 = loc("y"(#loc9))
#loc27 = loc("output"(#loc10))


// -----// IR Dump Before Canonicalizer (canonicalize) ('tt.func' operation: @add_kernel) //----- //
#loc = loc("/home/jovyan/intel-xpu-backend-for-triton/python/tutorials/01-vector-add.py":30:0)
#loc14 = loc("x_ptr"(#loc))
#loc15 = loc("y_ptr"(#loc))
#loc16 = loc("output_ptr"(#loc))
#loc17 = loc("n_elements"(#loc))
module {
  tt.func public @add_kernel(%x_ptr: !tt.ptr<f32> {tt.divisibility = 16 : i32} loc("x_ptr"(#loc)), %y_ptr: !tt.ptr<f32> {tt.divisibility = 16 : i32} loc("y_ptr"(#loc)), %output_ptr: !tt.ptr<f32> {tt.divisibility = 16 : i32} loc("output_ptr"(#loc)), %n_elements: i32 {tt.divisibility = 16 : i32} loc("n_elements"(#loc))) attributes {noinline = false} {
    %pid = tt.get_program_id x : i32 loc(#loc18)
    %block_start = arith.constant 1024 : i32 loc(#loc19)
    %block_start_0 = arith.constant 1024 : i32 loc(#loc19)
    %block_start_1 = arith.muli %pid, %block_start_0 : i32 loc(#loc19)
    %offsets = tt.make_range {end = 1024 : i32, start = 0 : i32} : tensor<1024xi32> loc(#loc20)
    %offsets_2 = tt.splat %block_start_1 : i32 -> tensor<1024xi32> loc(#loc21)
    %offsets_3 = arith.addi %offsets_2, %offsets : tensor<1024xi32> loc(#loc21)
    %mask = tt.splat %n_elements : i32 -> tensor<1024xi32> loc(#loc22)
    %mask_4 = arith.cmpi slt, %offsets_3, %mask : tensor<1024xi32> loc(#loc22)
    %x = tt.splat %x_ptr : !tt.ptr<f32> -> tensor<1024x!tt.ptr<f32>> loc(#loc23)
    %x_5 = tt.addptr %x, %offsets_3 : tensor<1024x!tt.ptr<f32>>, tensor<1024xi32> loc(#loc23)
    %x_6 = tt.load %x_5, %mask_4 : tensor<1024x!tt.ptr<f32>> loc(#loc24)
    %y = tt.splat %y_ptr : !tt.ptr<f32> -> tensor<1024x!tt.ptr<f32>> loc(#loc25)
    %y_7 = tt.addptr %y, %offsets_3 : tensor<1024x!tt.ptr<f32>>, tensor<1024xi32> loc(#loc25)
    %y_8 = tt.load %y_7, %mask_4 : tensor<1024x!tt.ptr<f32>> loc(#loc26)
    %output = arith.addf %x_6, %y_8 : tensor<1024xf32> loc(#loc27)
    %0 = tt.splat %output_ptr : !tt.ptr<f32> -> tensor<1024x!tt.ptr<f32>> loc(#loc11)
    %1 = tt.addptr %0, %offsets_3 : tensor<1024x!tt.ptr<f32>>, tensor<1024xi32> loc(#loc11)
    tt.store %1, %output, %mask_4 : tensor<1024x!tt.ptr<f32>> loc(#loc12)
    tt.return loc(#loc13)
  } loc(#loc)
} loc(#loc)
#loc1 = loc("/home/jovyan/intel-xpu-backend-for-triton/python/tutorials/01-vector-add.py":39:24)
#loc2 = loc("/home/jovyan/intel-xpu-backend-for-triton/python/tutorials/01-vector-add.py":44:24)
#loc3 = loc("/home/jovyan/intel-xpu-backend-for-triton/python/tutorials/01-vector-add.py":45:41)
#loc4 = loc("/home/jovyan/intel-xpu-backend-for-triton/python/tutorials/01-vector-add.py":45:28)
#loc5 = loc("/home/jovyan/intel-xpu-backend-for-triton/python/tutorials/01-vector-add.py":47:21)
#loc6 = loc("/home/jovyan/intel-xpu-backend-for-triton/python/tutorials/01-vector-add.py":50:24)
#loc7 = loc("/home/jovyan/intel-xpu-backend-for-triton/python/tutorials/01-vector-add.py":50:16)
#loc8 = loc("/home/jovyan/intel-xpu-backend-for-triton/python/tutorials/01-vector-add.py":51:24)
#loc9 = loc("/home/jovyan/intel-xpu-backend-for-triton/python/tutorials/01-vector-add.py":51:16)
#loc10 = loc("/home/jovyan/intel-xpu-backend-for-triton/python/tutorials/01-vector-add.py":52:17)
#loc11 = loc("/home/jovyan/intel-xpu-backend-for-triton/python/tutorials/01-vector-add.py":54:26)
#loc12 = loc("/home/jovyan/intel-xpu-backend-for-triton/python/tutorials/01-vector-add.py":54:35)
#loc13 = loc("/home/jovyan/intel-xpu-backend-for-triton/python/tutorials/01-vector-add.py":54:4)
#loc18 = loc("pid"(#loc1))
#loc19 = loc("block_start"(#loc2))
#loc20 = loc("offsets"(#loc3))
#loc21 = loc("offsets"(#loc4))
#loc22 = loc("mask"(#loc5))
#loc23 = loc("x"(#loc6))
#loc24 = loc("x"(#loc7))
#loc25 = loc("y"(#loc8))
#loc26 = loc("y"(#loc9))
#loc27 = loc("output"(#loc10))


// -----// IR Dump Before TritonIntelTensorDescToBlockPointer (triton-intel-tdesc-to-block-pointer) ('builtin.module' operation) //----- //
#loc = loc("/home/jovyan/intel-xpu-backend-for-triton/python/tutorials/01-vector-add.py":30:0)
#loc15 = loc("x_ptr"(#loc))
#loc16 = loc("y_ptr"(#loc))
#loc17 = loc("output_ptr"(#loc))
#loc18 = loc("n_elements"(#loc))
module {
  tt.func public @add_kernel(%x_ptr: !tt.ptr<f32> {tt.divisibility = 16 : i32} loc("x_ptr"(#loc)), %y_ptr: !tt.ptr<f32> {tt.divisibility = 16 : i32} loc("y_ptr"(#loc)), %output_ptr: !tt.ptr<f32> {tt.divisibility = 16 : i32} loc("output_ptr"(#loc)), %n_elements: i32 {tt.divisibility = 16 : i32} loc("n_elements"(#loc))) attributes {noinline = false} {
    %c1024_i32 = arith.constant 1024 : i32 loc(#loc1)
    %pid = tt.get_program_id x : i32 loc(#loc19)
    %block_start = arith.muli %pid, %c1024_i32 : i32 loc(#loc20)
    %offsets = tt.make_range {end = 1024 : i32, start = 0 : i32} : tensor<1024xi32> loc(#loc21)
    %offsets_0 = tt.splat %block_start : i32 -> tensor<1024xi32> loc(#loc22)
    %offsets_1 = arith.addi %offsets_0, %offsets : tensor<1024xi32> loc(#loc22)
    %mask = tt.splat %n_elements : i32 -> tensor<1024xi32> loc(#loc23)
    %mask_2 = arith.cmpi slt, %offsets_1, %mask : tensor<1024xi32> loc(#loc23)
    %x = tt.splat %x_ptr : !tt.ptr<f32> -> tensor<1024x!tt.ptr<f32>> loc(#loc24)
    %x_3 = tt.addptr %x, %offsets_1 : tensor<1024x!tt.ptr<f32>>, tensor<1024xi32> loc(#loc24)
    %x_4 = tt.load %x_3, %mask_2 : tensor<1024x!tt.ptr<f32>> loc(#loc25)
    %y = tt.splat %y_ptr : !tt.ptr<f32> -> tensor<1024x!tt.ptr<f32>> loc(#loc26)
    %y_5 = tt.addptr %y, %offsets_1 : tensor<1024x!tt.ptr<f32>>, tensor<1024xi32> loc(#loc26)
    %y_6 = tt.load %y_5, %mask_2 : tensor<1024x!tt.ptr<f32>> loc(#loc27)
    %output = arith.addf %x_4, %y_6 : tensor<1024xf32> loc(#loc28)
    %0 = tt.splat %output_ptr : !tt.ptr<f32> -> tensor<1024x!tt.ptr<f32>> loc(#loc12)
    %1 = tt.addptr %0, %offsets_1 : tensor<1024x!tt.ptr<f32>>, tensor<1024xi32> loc(#loc12)
    tt.store %1, %output, %mask_2 : tensor<1024x!tt.ptr<f32>> loc(#loc13)
    tt.return loc(#loc14)
  } loc(#loc)
} loc(#loc)
#loc1 = loc(unknown)
#loc2 = loc("/home/jovyan/intel-xpu-backend-for-triton/python/tutorials/01-vector-add.py":39:24)
#loc3 = loc("/home/jovyan/intel-xpu-backend-for-triton/python/tutorials/01-vector-add.py":44:24)
#loc4 = loc("/home/jovyan/intel-xpu-backend-for-triton/python/tutorials/01-vector-add.py":45:41)
#loc5 = loc("/home/jovyan/intel-xpu-backend-for-triton/python/tutorials/01-vector-add.py":45:28)
#loc6 = loc("/home/jovyan/intel-xpu-backend-for-triton/python/tutorials/01-vector-add.py":47:21)
#loc7 = loc("/home/jovyan/intel-xpu-backend-for-triton/python/tutorials/01-vector-add.py":50:24)
#loc8 = loc("/home/jovyan/intel-xpu-backend-for-triton/python/tutorials/01-vector-add.py":50:16)
#loc9 = loc("/home/jovyan/intel-xpu-backend-for-triton/python/tutorials/01-vector-add.py":51:24)
#loc10 = loc("/home/jovyan/intel-xpu-backend-for-triton/python/tutorials/01-vector-add.py":51:16)
#loc11 = loc("/home/jovyan/intel-xpu-backend-for-triton/python/tutorials/01-vector-add.py":52:17)
#loc12 = loc("/home/jovyan/intel-xpu-backend-for-triton/python/tutorials/01-vector-add.py":54:26)
#loc13 = loc("/home/jovyan/intel-xpu-backend-for-triton/python/tutorials/01-vector-add.py":54:35)
#loc14 = loc("/home/jovyan/intel-xpu-backend-for-triton/python/tutorials/01-vector-add.py":54:4)
#loc19 = loc("pid"(#loc2))
#loc20 = loc("block_start"(#loc3))
#loc21 = loc("offsets"(#loc4))
#loc22 = loc("offsets"(#loc5))
#loc23 = loc("mask"(#loc6))
#loc24 = loc("x"(#loc7))
#loc25 = loc("x"(#loc8))
#loc26 = loc("y"(#loc9))
#loc27 = loc("y"(#loc10))
#loc28 = loc("output"(#loc11))


// -----// IR Dump Before TritonRewriteTensorDescriptorToPointer (triton-rewrite-tensor-descriptor-to-pointer) ('builtin.module' operation) //----- //
#loc = loc("/home/jovyan/intel-xpu-backend-for-triton/python/tutorials/01-vector-add.py":30:0)
#loc15 = loc("x_ptr"(#loc))
#loc16 = loc("y_ptr"(#loc))
#loc17 = loc("output_ptr"(#loc))
#loc18 = loc("n_elements"(#loc))
module {
  tt.func public @add_kernel(%x_ptr: !tt.ptr<f32> {tt.divisibility = 16 : i32} loc("x_ptr"(#loc)), %y_ptr: !tt.ptr<f32> {tt.divisibility = 16 : i32} loc("y_ptr"(#loc)), %output_ptr: !tt.ptr<f32> {tt.divisibility = 16 : i32} loc("output_ptr"(#loc)), %n_elements: i32 {tt.divisibility = 16 : i32} loc("n_elements"(#loc))) attributes {noinline = false} {
    %c1024_i32 = arith.constant 1024 : i32 loc(#loc1)
    %pid = tt.get_program_id x : i32 loc(#loc19)
    %block_start = arith.muli %pid, %c1024_i32 : i32 loc(#loc20)
    %offsets = tt.make_range {end = 1024 : i32, start = 0 : i32} : tensor<1024xi32> loc(#loc21)
    %offsets_0 = tt.splat %block_start : i32 -> tensor<1024xi32> loc(#loc22)
    %offsets_1 = arith.addi %offsets_0, %offsets : tensor<1024xi32> loc(#loc22)
    %mask = tt.splat %n_elements : i32 -> tensor<1024xi32> loc(#loc23)
    %mask_2 = arith.cmpi slt, %offsets_1, %mask : tensor<1024xi32> loc(#loc23)
    %x = tt.splat %x_ptr : !tt.ptr<f32> -> tensor<1024x!tt.ptr<f32>> loc(#loc24)
    %x_3 = tt.addptr %x, %offsets_1 : tensor<1024x!tt.ptr<f32>>, tensor<1024xi32> loc(#loc24)
    %x_4 = tt.load %x_3, %mask_2 : tensor<1024x!tt.ptr<f32>> loc(#loc25)
    %y = tt.splat %y_ptr : !tt.ptr<f32> -> tensor<1024x!tt.ptr<f32>> loc(#loc26)
    %y_5 = tt.addptr %y, %offsets_1 : tensor<1024x!tt.ptr<f32>>, tensor<1024xi32> loc(#loc26)
    %y_6 = tt.load %y_5, %mask_2 : tensor<1024x!tt.ptr<f32>> loc(#loc27)
    %output = arith.addf %x_4, %y_6 : tensor<1024xf32> loc(#loc28)
    %0 = tt.splat %output_ptr : !tt.ptr<f32> -> tensor<1024x!tt.ptr<f32>> loc(#loc12)
    %1 = tt.addptr %0, %offsets_1 : tensor<1024x!tt.ptr<f32>>, tensor<1024xi32> loc(#loc12)
    tt.store %1, %output, %mask_2 : tensor<1024x!tt.ptr<f32>> loc(#loc13)
    tt.return loc(#loc14)
  } loc(#loc)
} loc(#loc)
#loc1 = loc(unknown)
#loc2 = loc("/home/jovyan/intel-xpu-backend-for-triton/python/tutorials/01-vector-add.py":39:24)
#loc3 = loc("/home/jovyan/intel-xpu-backend-for-triton/python/tutorials/01-vector-add.py":44:24)
#loc4 = loc("/home/jovyan/intel-xpu-backend-for-triton/python/tutorials/01-vector-add.py":45:41)
#loc5 = loc("/home/jovyan/intel-xpu-backend-for-triton/python/tutorials/01-vector-add.py":45:28)
#loc6 = loc("/home/jovyan/intel-xpu-backend-for-triton/python/tutorials/01-vector-add.py":47:21)
#loc7 = loc("/home/jovyan/intel-xpu-backend-for-triton/python/tutorials/01-vector-add.py":50:24)
#loc8 = loc("/home/jovyan/intel-xpu-backend-for-triton/python/tutorials/01-vector-add.py":50:16)
#loc9 = loc("/home/jovyan/intel-xpu-backend-for-triton/python/tutorials/01-vector-add.py":51:24)
#loc10 = loc("/home/jovyan/intel-xpu-backend-for-triton/python/tutorials/01-vector-add.py":51:16)
#loc11 = loc("/home/jovyan/intel-xpu-backend-for-triton/python/tutorials/01-vector-add.py":52:17)
#loc12 = loc("/home/jovyan/intel-xpu-backend-for-triton/python/tutorials/01-vector-add.py":54:26)
#loc13 = loc("/home/jovyan/intel-xpu-backend-for-triton/python/tutorials/01-vector-add.py":54:35)
#loc14 = loc("/home/jovyan/intel-xpu-backend-for-triton/python/tutorials/01-vector-add.py":54:4)
#loc19 = loc("pid"(#loc2))
#loc20 = loc("block_start"(#loc3))
#loc21 = loc("offsets"(#loc4))
#loc22 = loc("offsets"(#loc5))
#loc23 = loc("mask"(#loc6))
#loc24 = loc("x"(#loc7))
#loc25 = loc("x"(#loc8))
#loc26 = loc("y"(#loc9))
#loc27 = loc("y"(#loc10))
#loc28 = loc("output"(#loc11))


// -----// IR Dump Before CSE (cse) ('builtin.module' operation) //----- //
#loc = loc("/home/jovyan/intel-xpu-backend-for-triton/python/tutorials/01-vector-add.py":30:0)
#loc15 = loc("x_ptr"(#loc))
#loc16 = loc("y_ptr"(#loc))
#loc17 = loc("output_ptr"(#loc))
#loc18 = loc("n_elements"(#loc))
module {
  tt.func public @add_kernel(%x_ptr: !tt.ptr<f32> {tt.divisibility = 16 : i32} loc("x_ptr"(#loc)), %y_ptr: !tt.ptr<f32> {tt.divisibility = 16 : i32} loc("y_ptr"(#loc)), %output_ptr: !tt.ptr<f32> {tt.divisibility = 16 : i32} loc("output_ptr"(#loc)), %n_elements: i32 {tt.divisibility = 16 : i32} loc("n_elements"(#loc))) attributes {noinline = false} {
    %c1024_i32 = arith.constant 1024 : i32 loc(#loc1)
    %pid = tt.get_program_id x : i32 loc(#loc19)
    %block_start = arith.muli %pid, %c1024_i32 : i32 loc(#loc20)
    %offsets = tt.make_range {end = 1024 : i32, start = 0 : i32} : tensor<1024xi32> loc(#loc21)
    %offsets_0 = tt.splat %block_start : i32 -> tensor<1024xi32> loc(#loc22)
    %offsets_1 = arith.addi %offsets_0, %offsets : tensor<1024xi32> loc(#loc22)
    %mask = tt.splat %n_elements : i32 -> tensor<1024xi32> loc(#loc23)
    %mask_2 = arith.cmpi slt, %offsets_1, %mask : tensor<1024xi32> loc(#loc23)
    %x = tt.splat %x_ptr : !tt.ptr<f32> -> tensor<1024x!tt.ptr<f32>> loc(#loc24)
    %x_3 = tt.addptr %x, %offsets_1 : tensor<1024x!tt.ptr<f32>>, tensor<1024xi32> loc(#loc24)
    %x_4 = tt.load %x_3, %mask_2 : tensor<1024x!tt.ptr<f32>> loc(#loc25)
    %y = tt.splat %y_ptr : !tt.ptr<f32> -> tensor<1024x!tt.ptr<f32>> loc(#loc26)
    %y_5 = tt.addptr %y, %offsets_1 : tensor<1024x!tt.ptr<f32>>, tensor<1024xi32> loc(#loc26)
    %y_6 = tt.load %y_5, %mask_2 : tensor<1024x!tt.ptr<f32>> loc(#loc27)
    %output = arith.addf %x_4, %y_6 : tensor<1024xf32> loc(#loc28)
    %0 = tt.splat %output_ptr : !tt.ptr<f32> -> tensor<1024x!tt.ptr<f32>> loc(#loc12)
    %1 = tt.addptr %0, %offsets_1 : tensor<1024x!tt.ptr<f32>>, tensor<1024xi32> loc(#loc12)
    tt.store %1, %output, %mask_2 : tensor<1024x!tt.ptr<f32>> loc(#loc13)
    tt.return loc(#loc14)
  } loc(#loc)
} loc(#loc)
#loc1 = loc(unknown)
#loc2 = loc("/home/jovyan/intel-xpu-backend-for-triton/python/tutorials/01-vector-add.py":39:24)
#loc3 = loc("/home/jovyan/intel-xpu-backend-for-triton/python/tutorials/01-vector-add.py":44:24)
#loc4 = loc("/home/jovyan/intel-xpu-backend-for-triton/python/tutorials/01-vector-add.py":45:41)
#loc5 = loc("/home/jovyan/intel-xpu-backend-for-triton/python/tutorials/01-vector-add.py":45:28)
#loc6 = loc("/home/jovyan/intel-xpu-backend-for-triton/python/tutorials/01-vector-add.py":47:21)
#loc7 = loc("/home/jovyan/intel-xpu-backend-for-triton/python/tutorials/01-vector-add.py":50:24)
#loc8 = loc("/home/jovyan/intel-xpu-backend-for-triton/python/tutorials/01-vector-add.py":50:16)
#loc9 = loc("/home/jovyan/intel-xpu-backend-for-triton/python/tutorials/01-vector-add.py":51:24)
#loc10 = loc("/home/jovyan/intel-xpu-backend-for-triton/python/tutorials/01-vector-add.py":51:16)
#loc11 = loc("/home/jovyan/intel-xpu-backend-for-triton/python/tutorials/01-vector-add.py":52:17)
#loc12 = loc("/home/jovyan/intel-xpu-backend-for-triton/python/tutorials/01-vector-add.py":54:26)
#loc13 = loc("/home/jovyan/intel-xpu-backend-for-triton/python/tutorials/01-vector-add.py":54:35)
#loc14 = loc("/home/jovyan/intel-xpu-backend-for-triton/python/tutorials/01-vector-add.py":54:4)
#loc19 = loc("pid"(#loc2))
#loc20 = loc("block_start"(#loc3))
#loc21 = loc("offsets"(#loc4))
#loc22 = loc("offsets"(#loc5))
#loc23 = loc("mask"(#loc6))
#loc24 = loc("x"(#loc7))
#loc25 = loc("x"(#loc8))
#loc26 = loc("y"(#loc9))
#loc27 = loc("y"(#loc10))
#loc28 = loc("output"(#loc11))


// -----// IR Dump Before LoopInvariantCodeMotion (loop-invariant-code-motion) ('builtin.module' operation) //----- //
#loc = loc("/home/jovyan/intel-xpu-backend-for-triton/python/tutorials/01-vector-add.py":30:0)
#loc15 = loc("x_ptr"(#loc))
#loc16 = loc("y_ptr"(#loc))
#loc17 = loc("output_ptr"(#loc))
#loc18 = loc("n_elements"(#loc))
module {
  tt.func public @add_kernel(%x_ptr: !tt.ptr<f32> {tt.divisibility = 16 : i32} loc("x_ptr"(#loc)), %y_ptr: !tt.ptr<f32> {tt.divisibility = 16 : i32} loc("y_ptr"(#loc)), %output_ptr: !tt.ptr<f32> {tt.divisibility = 16 : i32} loc("output_ptr"(#loc)), %n_elements: i32 {tt.divisibility = 16 : i32} loc("n_elements"(#loc))) attributes {noinline = false} {
    %c1024_i32 = arith.constant 1024 : i32 loc(#loc1)
    %pid = tt.get_program_id x : i32 loc(#loc19)
    %block_start = arith.muli %pid, %c1024_i32 : i32 loc(#loc20)
    %offsets = tt.make_range {end = 1024 : i32, start = 0 : i32} : tensor<1024xi32> loc(#loc21)
    %offsets_0 = tt.splat %block_start : i32 -> tensor<1024xi32> loc(#loc22)
    %offsets_1 = arith.addi %offsets_0, %offsets : tensor<1024xi32> loc(#loc22)
    %mask = tt.splat %n_elements : i32 -> tensor<1024xi32> loc(#loc23)
    %mask_2 = arith.cmpi slt, %offsets_1, %mask : tensor<1024xi32> loc(#loc23)
    %x = tt.splat %x_ptr : !tt.ptr<f32> -> tensor<1024x!tt.ptr<f32>> loc(#loc24)
    %x_3 = tt.addptr %x, %offsets_1 : tensor<1024x!tt.ptr<f32>>, tensor<1024xi32> loc(#loc24)
    %x_4 = tt.load %x_3, %mask_2 : tensor<1024x!tt.ptr<f32>> loc(#loc25)
    %y = tt.splat %y_ptr : !tt.ptr<f32> -> tensor<1024x!tt.ptr<f32>> loc(#loc26)
    %y_5 = tt.addptr %y, %offsets_1 : tensor<1024x!tt.ptr<f32>>, tensor<1024xi32> loc(#loc26)
    %y_6 = tt.load %y_5, %mask_2 : tensor<1024x!tt.ptr<f32>> loc(#loc27)
    %output = arith.addf %x_4, %y_6 : tensor<1024xf32> loc(#loc28)
    %0 = tt.splat %output_ptr : !tt.ptr<f32> -> tensor<1024x!tt.ptr<f32>> loc(#loc12)
    %1 = tt.addptr %0, %offsets_1 : tensor<1024x!tt.ptr<f32>>, tensor<1024xi32> loc(#loc12)
    tt.store %1, %output, %mask_2 : tensor<1024x!tt.ptr<f32>> loc(#loc13)
    tt.return loc(#loc14)
  } loc(#loc)
} loc(#loc)
#loc1 = loc(unknown)
#loc2 = loc("/home/jovyan/intel-xpu-backend-for-triton/python/tutorials/01-vector-add.py":39:24)
#loc3 = loc("/home/jovyan/intel-xpu-backend-for-triton/python/tutorials/01-vector-add.py":44:24)
#loc4 = loc("/home/jovyan/intel-xpu-backend-for-triton/python/tutorials/01-vector-add.py":45:41)
#loc5 = loc("/home/jovyan/intel-xpu-backend-for-triton/python/tutorials/01-vector-add.py":45:28)
#loc6 = loc("/home/jovyan/intel-xpu-backend-for-triton/python/tutorials/01-vector-add.py":47:21)
#loc7 = loc("/home/jovyan/intel-xpu-backend-for-triton/python/tutorials/01-vector-add.py":50:24)
#loc8 = loc("/home/jovyan/intel-xpu-backend-for-triton/python/tutorials/01-vector-add.py":50:16)
#loc9 = loc("/home/jovyan/intel-xpu-backend-for-triton/python/tutorials/01-vector-add.py":51:24)
#loc10 = loc("/home/jovyan/intel-xpu-backend-for-triton/python/tutorials/01-vector-add.py":51:16)
#loc11 = loc("/home/jovyan/intel-xpu-backend-for-triton/python/tutorials/01-vector-add.py":52:17)
#loc12 = loc("/home/jovyan/intel-xpu-backend-for-triton/python/tutorials/01-vector-add.py":54:26)
#loc13 = loc("/home/jovyan/intel-xpu-backend-for-triton/python/tutorials/01-vector-add.py":54:35)
#loc14 = loc("/home/jovyan/intel-xpu-backend-for-triton/python/tutorials/01-vector-add.py":54:4)
#loc19 = loc("pid"(#loc2))
#loc20 = loc("block_start"(#loc3))
#loc21 = loc("offsets"(#loc4))
#loc22 = loc("offsets"(#loc5))
#loc23 = loc("mask"(#loc6))
#loc24 = loc("x"(#loc7))
#loc25 = loc("x"(#loc8))
#loc26 = loc("y"(#loc9))
#loc27 = loc("y"(#loc10))
#loc28 = loc("output"(#loc11))


// -----// IR Dump Before TritonIntelRemoveBoundaryChecks (triton-intel-remove-boundary-checks) ('builtin.module' operation) //----- //
#loc = loc("/home/jovyan/intel-xpu-backend-for-triton/python/tutorials/01-vector-add.py":30:0)
#loc15 = loc("x_ptr"(#loc))
#loc16 = loc("y_ptr"(#loc))
#loc17 = loc("output_ptr"(#loc))
#loc18 = loc("n_elements"(#loc))
module {
  tt.func public @add_kernel(%x_ptr: !tt.ptr<f32> {tt.divisibility = 16 : i32} loc("x_ptr"(#loc)), %y_ptr: !tt.ptr<f32> {tt.divisibility = 16 : i32} loc("y_ptr"(#loc)), %output_ptr: !tt.ptr<f32> {tt.divisibility = 16 : i32} loc("output_ptr"(#loc)), %n_elements: i32 {tt.divisibility = 16 : i32} loc("n_elements"(#loc))) attributes {noinline = false} {
    %c1024_i32 = arith.constant 1024 : i32 loc(#loc1)
    %pid = tt.get_program_id x : i32 loc(#loc19)
    %block_start = arith.muli %pid, %c1024_i32 : i32 loc(#loc20)
    %offsets = tt.make_range {end = 1024 : i32, start = 0 : i32} : tensor<1024xi32> loc(#loc21)
    %offsets_0 = tt.splat %block_start : i32 -> tensor<1024xi32> loc(#loc22)
    %offsets_1 = arith.addi %offsets_0, %offsets : tensor<1024xi32> loc(#loc22)
    %mask = tt.splat %n_elements : i32 -> tensor<1024xi32> loc(#loc23)
    %mask_2 = arith.cmpi slt, %offsets_1, %mask : tensor<1024xi32> loc(#loc23)
    %x = tt.splat %x_ptr : !tt.ptr<f32> -> tensor<1024x!tt.ptr<f32>> loc(#loc24)
    %x_3 = tt.addptr %x, %offsets_1 : tensor<1024x!tt.ptr<f32>>, tensor<1024xi32> loc(#loc24)
    %x_4 = tt.load %x_3, %mask_2 : tensor<1024x!tt.ptr<f32>> loc(#loc25)
    %y = tt.splat %y_ptr : !tt.ptr<f32> -> tensor<1024x!tt.ptr<f32>> loc(#loc26)
    %y_5 = tt.addptr %y, %offsets_1 : tensor<1024x!tt.ptr<f32>>, tensor<1024xi32> loc(#loc26)
    %y_6 = tt.load %y_5, %mask_2 : tensor<1024x!tt.ptr<f32>> loc(#loc27)
    %output = arith.addf %x_4, %y_6 : tensor<1024xf32> loc(#loc28)
    %0 = tt.splat %output_ptr : !tt.ptr<f32> -> tensor<1024x!tt.ptr<f32>> loc(#loc12)
    %1 = tt.addptr %0, %offsets_1 : tensor<1024x!tt.ptr<f32>>, tensor<1024xi32> loc(#loc12)
    tt.store %1, %output, %mask_2 : tensor<1024x!tt.ptr<f32>> loc(#loc13)
    tt.return loc(#loc14)
  } loc(#loc)
} loc(#loc)
#loc1 = loc(unknown)
#loc2 = loc("/home/jovyan/intel-xpu-backend-for-triton/python/tutorials/01-vector-add.py":39:24)
#loc3 = loc("/home/jovyan/intel-xpu-backend-for-triton/python/tutorials/01-vector-add.py":44:24)
#loc4 = loc("/home/jovyan/intel-xpu-backend-for-triton/python/tutorials/01-vector-add.py":45:41)
#loc5 = loc("/home/jovyan/intel-xpu-backend-for-triton/python/tutorials/01-vector-add.py":45:28)
#loc6 = loc("/home/jovyan/intel-xpu-backend-for-triton/python/tutorials/01-vector-add.py":47:21)
#loc7 = loc("/home/jovyan/intel-xpu-backend-for-triton/python/tutorials/01-vector-add.py":50:24)
#loc8 = loc("/home/jovyan/intel-xpu-backend-for-triton/python/tutorials/01-vector-add.py":50:16)
#loc9 = loc("/home/jovyan/intel-xpu-backend-for-triton/python/tutorials/01-vector-add.py":51:24)
#loc10 = loc("/home/jovyan/intel-xpu-backend-for-triton/python/tutorials/01-vector-add.py":51:16)
#loc11 = loc("/home/jovyan/intel-xpu-backend-for-triton/python/tutorials/01-vector-add.py":52:17)
#loc12 = loc("/home/jovyan/intel-xpu-backend-for-triton/python/tutorials/01-vector-add.py":54:26)
#loc13 = loc("/home/jovyan/intel-xpu-backend-for-triton/python/tutorials/01-vector-add.py":54:35)
#loc14 = loc("/home/jovyan/intel-xpu-backend-for-triton/python/tutorials/01-vector-add.py":54:4)
#loc19 = loc("pid"(#loc2))
#loc20 = loc("block_start"(#loc3))
#loc21 = loc("offsets"(#loc4))
#loc22 = loc("offsets"(#loc5))
#loc23 = loc("mask"(#loc6))
#loc24 = loc("x"(#loc7))
#loc25 = loc("x"(#loc8))
#loc26 = loc("y"(#loc9))
#loc27 = loc("y"(#loc10))
#loc28 = loc("output"(#loc11))


// -----// IR Dump Before TritonIntelRemoveMasks (triton-intel-remove-masks) ('builtin.module' operation) //----- //
#loc = loc("/home/jovyan/intel-xpu-backend-for-triton/python/tutorials/01-vector-add.py":30:0)
#loc15 = loc("x_ptr"(#loc))
#loc16 = loc("y_ptr"(#loc))
#loc17 = loc("output_ptr"(#loc))
#loc18 = loc("n_elements"(#loc))
module {
  tt.func public @add_kernel(%x_ptr: !tt.ptr<f32> {tt.divisibility = 16 : i32} loc("x_ptr"(#loc)), %y_ptr: !tt.ptr<f32> {tt.divisibility = 16 : i32} loc("y_ptr"(#loc)), %output_ptr: !tt.ptr<f32> {tt.divisibility = 16 : i32} loc("output_ptr"(#loc)), %n_elements: i32 {tt.divisibility = 16 : i32} loc("n_elements"(#loc))) attributes {noinline = false} {
    %c1024_i32 = arith.constant 1024 : i32 loc(#loc1)
    %pid = tt.get_program_id x : i32 loc(#loc19)
    %block_start = arith.muli %pid, %c1024_i32 : i32 loc(#loc20)
    %offsets = tt.make_range {end = 1024 : i32, start = 0 : i32} : tensor<1024xi32> loc(#loc21)
    %offsets_0 = tt.splat %block_start : i32 -> tensor<1024xi32> loc(#loc22)
    %offsets_1 = arith.addi %offsets_0, %offsets : tensor<1024xi32> loc(#loc22)
    %mask = tt.splat %n_elements : i32 -> tensor<1024xi32> loc(#loc23)
    %mask_2 = arith.cmpi slt, %offsets_1, %mask : tensor<1024xi32> loc(#loc23)
    %x = tt.splat %x_ptr : !tt.ptr<f32> -> tensor<1024x!tt.ptr<f32>> loc(#loc24)
    %x_3 = tt.addptr %x, %offsets_1 : tensor<1024x!tt.ptr<f32>>, tensor<1024xi32> loc(#loc24)
    %x_4 = tt.load %x_3, %mask_2 : tensor<1024x!tt.ptr<f32>> loc(#loc25)
    %y = tt.splat %y_ptr : !tt.ptr<f32> -> tensor<1024x!tt.ptr<f32>> loc(#loc26)
    %y_5 = tt.addptr %y, %offsets_1 : tensor<1024x!tt.ptr<f32>>, tensor<1024xi32> loc(#loc26)
    %y_6 = tt.load %y_5, %mask_2 : tensor<1024x!tt.ptr<f32>> loc(#loc27)
    %output = arith.addf %x_4, %y_6 : tensor<1024xf32> loc(#loc28)
    %0 = tt.splat %output_ptr : !tt.ptr<f32> -> tensor<1024x!tt.ptr<f32>> loc(#loc12)
    %1 = tt.addptr %0, %offsets_1 : tensor<1024x!tt.ptr<f32>>, tensor<1024xi32> loc(#loc12)
    tt.store %1, %output, %mask_2 : tensor<1024x!tt.ptr<f32>> loc(#loc13)
    tt.return loc(#loc14)
  } loc(#loc)
} loc(#loc)
#loc1 = loc(unknown)
#loc2 = loc("/home/jovyan/intel-xpu-backend-for-triton/python/tutorials/01-vector-add.py":39:24)
#loc3 = loc("/home/jovyan/intel-xpu-backend-for-triton/python/tutorials/01-vector-add.py":44:24)
#loc4 = loc("/home/jovyan/intel-xpu-backend-for-triton/python/tutorials/01-vector-add.py":45:41)
#loc5 = loc("/home/jovyan/intel-xpu-backend-for-triton/python/tutorials/01-vector-add.py":45:28)
#loc6 = loc("/home/jovyan/intel-xpu-backend-for-triton/python/tutorials/01-vector-add.py":47:21)
#loc7 = loc("/home/jovyan/intel-xpu-backend-for-triton/python/tutorials/01-vector-add.py":50:24)
#loc8 = loc("/home/jovyan/intel-xpu-backend-for-triton/python/tutorials/01-vector-add.py":50:16)
#loc9 = loc("/home/jovyan/intel-xpu-backend-for-triton/python/tutorials/01-vector-add.py":51:24)
#loc10 = loc("/home/jovyan/intel-xpu-backend-for-triton/python/tutorials/01-vector-add.py":51:16)
#loc11 = loc("/home/jovyan/intel-xpu-backend-for-triton/python/tutorials/01-vector-add.py":52:17)
#loc12 = loc("/home/jovyan/intel-xpu-backend-for-triton/python/tutorials/01-vector-add.py":54:26)
#loc13 = loc("/home/jovyan/intel-xpu-backend-for-triton/python/tutorials/01-vector-add.py":54:35)
#loc14 = loc("/home/jovyan/intel-xpu-backend-for-triton/python/tutorials/01-vector-add.py":54:4)
#loc19 = loc("pid"(#loc2))
#loc20 = loc("block_start"(#loc3))
#loc21 = loc("offsets"(#loc4))
#loc22 = loc("offsets"(#loc5))
#loc23 = loc("mask"(#loc6))
#loc24 = loc("x"(#loc7))
#loc25 = loc("x"(#loc8))
#loc26 = loc("y"(#loc9))
#loc27 = loc("y"(#loc10))
#loc28 = loc("output"(#loc11))


// -----// IR Dump Before TritonIntelStrideVersioning (triton-intel-stride-versioning) ('builtin.module' operation) //----- //
#loc = loc("/home/jovyan/intel-xpu-backend-for-triton/python/tutorials/01-vector-add.py":30:0)
#loc15 = loc("x_ptr"(#loc))
#loc16 = loc("y_ptr"(#loc))
#loc17 = loc("output_ptr"(#loc))
#loc18 = loc("n_elements"(#loc))
module {
  tt.func public @add_kernel(%x_ptr: !tt.ptr<f32> {tt.divisibility = 16 : i32} loc("x_ptr"(#loc)), %y_ptr: !tt.ptr<f32> {tt.divisibility = 16 : i32} loc("y_ptr"(#loc)), %output_ptr: !tt.ptr<f32> {tt.divisibility = 16 : i32} loc("output_ptr"(#loc)), %n_elements: i32 {tt.divisibility = 16 : i32} loc("n_elements"(#loc))) attributes {noinline = false} {
    %c1024_i32 = arith.constant 1024 : i32 loc(#loc1)
    %pid = tt.get_program_id x : i32 loc(#loc19)
    %block_start = arith.muli %pid, %c1024_i32 : i32 loc(#loc20)
    %offsets = tt.make_range {end = 1024 : i32, start = 0 : i32} : tensor<1024xi32> loc(#loc21)
    %offsets_0 = tt.splat %block_start : i32 -> tensor<1024xi32> loc(#loc22)
    %offsets_1 = arith.addi %offsets_0, %offsets : tensor<1024xi32> loc(#loc22)
    %mask = tt.splat %n_elements : i32 -> tensor<1024xi32> loc(#loc23)
    %mask_2 = arith.cmpi slt, %offsets_1, %mask : tensor<1024xi32> loc(#loc23)
    %x = tt.splat %x_ptr : !tt.ptr<f32> -> tensor<1024x!tt.ptr<f32>> loc(#loc24)
    %x_3 = tt.addptr %x, %offsets_1 : tensor<1024x!tt.ptr<f32>>, tensor<1024xi32> loc(#loc24)
    %x_4 = tt.load %x_3, %mask_2 : tensor<1024x!tt.ptr<f32>> loc(#loc25)
    %y = tt.splat %y_ptr : !tt.ptr<f32> -> tensor<1024x!tt.ptr<f32>> loc(#loc26)
    %y_5 = tt.addptr %y, %offsets_1 : tensor<1024x!tt.ptr<f32>>, tensor<1024xi32> loc(#loc26)
    %y_6 = tt.load %y_5, %mask_2 : tensor<1024x!tt.ptr<f32>> loc(#loc27)
    %output = arith.addf %x_4, %y_6 : tensor<1024xf32> loc(#loc28)
    %0 = tt.splat %output_ptr : !tt.ptr<f32> -> tensor<1024x!tt.ptr<f32>> loc(#loc12)
    %1 = tt.addptr %0, %offsets_1 : tensor<1024x!tt.ptr<f32>>, tensor<1024xi32> loc(#loc12)
    tt.store %1, %output, %mask_2 : tensor<1024x!tt.ptr<f32>> loc(#loc13)
    tt.return loc(#loc14)
  } loc(#loc)
} loc(#loc)
#loc1 = loc(unknown)
#loc2 = loc("/home/jovyan/intel-xpu-backend-for-triton/python/tutorials/01-vector-add.py":39:24)
#loc3 = loc("/home/jovyan/intel-xpu-backend-for-triton/python/tutorials/01-vector-add.py":44:24)
#loc4 = loc("/home/jovyan/intel-xpu-backend-for-triton/python/tutorials/01-vector-add.py":45:41)
#loc5 = loc("/home/jovyan/intel-xpu-backend-for-triton/python/tutorials/01-vector-add.py":45:28)
#loc6 = loc("/home/jovyan/intel-xpu-backend-for-triton/python/tutorials/01-vector-add.py":47:21)
#loc7 = loc("/home/jovyan/intel-xpu-backend-for-triton/python/tutorials/01-vector-add.py":50:24)
#loc8 = loc("/home/jovyan/intel-xpu-backend-for-triton/python/tutorials/01-vector-add.py":50:16)
#loc9 = loc("/home/jovyan/intel-xpu-backend-for-triton/python/tutorials/01-vector-add.py":51:24)
#loc10 = loc("/home/jovyan/intel-xpu-backend-for-triton/python/tutorials/01-vector-add.py":51:16)
#loc11 = loc("/home/jovyan/intel-xpu-backend-for-triton/python/tutorials/01-vector-add.py":52:17)
#loc12 = loc("/home/jovyan/intel-xpu-backend-for-triton/python/tutorials/01-vector-add.py":54:26)
#loc13 = loc("/home/jovyan/intel-xpu-backend-for-triton/python/tutorials/01-vector-add.py":54:35)
#loc14 = loc("/home/jovyan/intel-xpu-backend-for-triton/python/tutorials/01-vector-add.py":54:4)
#loc19 = loc("pid"(#loc2))
#loc20 = loc("block_start"(#loc3))
#loc21 = loc("offsets"(#loc4))
#loc22 = loc("offsets"(#loc5))
#loc23 = loc("mask"(#loc6))
#loc24 = loc("x"(#loc7))
#loc25 = loc("x"(#loc8))
#loc26 = loc("y"(#loc9))
#loc27 = loc("y"(#loc10))
#loc28 = loc("output"(#loc11))


// -----// IR Dump Before TritonIntelFuseReshape (triton-intel-fuse-reshape) ('builtin.module' operation) //----- //
#loc = loc("/home/jovyan/intel-xpu-backend-for-triton/python/tutorials/01-vector-add.py":30:0)
#loc15 = loc("x_ptr"(#loc))
#loc16 = loc("y_ptr"(#loc))
#loc17 = loc("output_ptr"(#loc))
#loc18 = loc("n_elements"(#loc))
module {
  tt.func public @add_kernel(%x_ptr: !tt.ptr<f32> {tt.divisibility = 16 : i32} loc("x_ptr"(#loc)), %y_ptr: !tt.ptr<f32> {tt.divisibility = 16 : i32} loc("y_ptr"(#loc)), %output_ptr: !tt.ptr<f32> {tt.divisibility = 16 : i32} loc("output_ptr"(#loc)), %n_elements: i32 {tt.divisibility = 16 : i32} loc("n_elements"(#loc))) attributes {noinline = false} {
    %c1024_i32 = arith.constant 1024 : i32 loc(#loc1)
    %pid = tt.get_program_id x : i32 loc(#loc19)
    %block_start = arith.muli %pid, %c1024_i32 : i32 loc(#loc20)
    %offsets = tt.make_range {end = 1024 : i32, start = 0 : i32} : tensor<1024xi32> loc(#loc21)
    %offsets_0 = tt.splat %block_start : i32 -> tensor<1024xi32> loc(#loc22)
    %offsets_1 = arith.addi %offsets_0, %offsets : tensor<1024xi32> loc(#loc22)
    %mask = tt.splat %n_elements : i32 -> tensor<1024xi32> loc(#loc23)
    %mask_2 = arith.cmpi slt, %offsets_1, %mask : tensor<1024xi32> loc(#loc23)
    %x = tt.splat %x_ptr : !tt.ptr<f32> -> tensor<1024x!tt.ptr<f32>> loc(#loc24)
    %x_3 = tt.addptr %x, %offsets_1 : tensor<1024x!tt.ptr<f32>>, tensor<1024xi32> loc(#loc24)
    %x_4 = tt.load %x_3, %mask_2 : tensor<1024x!tt.ptr<f32>> loc(#loc25)
    %y = tt.splat %y_ptr : !tt.ptr<f32> -> tensor<1024x!tt.ptr<f32>> loc(#loc26)
    %y_5 = tt.addptr %y, %offsets_1 : tensor<1024x!tt.ptr<f32>>, tensor<1024xi32> loc(#loc26)
    %y_6 = tt.load %y_5, %mask_2 : tensor<1024x!tt.ptr<f32>> loc(#loc27)
    %output = arith.addf %x_4, %y_6 : tensor<1024xf32> loc(#loc28)
    %0 = tt.splat %output_ptr : !tt.ptr<f32> -> tensor<1024x!tt.ptr<f32>> loc(#loc12)
    %1 = tt.addptr %0, %offsets_1 : tensor<1024x!tt.ptr<f32>>, tensor<1024xi32> loc(#loc12)
    tt.store %1, %output, %mask_2 : tensor<1024x!tt.ptr<f32>> loc(#loc13)
    tt.return loc(#loc14)
  } loc(#loc)
} loc(#loc)
#loc1 = loc(unknown)
#loc2 = loc("/home/jovyan/intel-xpu-backend-for-triton/python/tutorials/01-vector-add.py":39:24)
#loc3 = loc("/home/jovyan/intel-xpu-backend-for-triton/python/tutorials/01-vector-add.py":44:24)
#loc4 = loc("/home/jovyan/intel-xpu-backend-for-triton/python/tutorials/01-vector-add.py":45:41)
#loc5 = loc("/home/jovyan/intel-xpu-backend-for-triton/python/tutorials/01-vector-add.py":45:28)
#loc6 = loc("/home/jovyan/intel-xpu-backend-for-triton/python/tutorials/01-vector-add.py":47:21)
#loc7 = loc("/home/jovyan/intel-xpu-backend-for-triton/python/tutorials/01-vector-add.py":50:24)
#loc8 = loc("/home/jovyan/intel-xpu-backend-for-triton/python/tutorials/01-vector-add.py":50:16)
#loc9 = loc("/home/jovyan/intel-xpu-backend-for-triton/python/tutorials/01-vector-add.py":51:24)
#loc10 = loc("/home/jovyan/intel-xpu-backend-for-triton/python/tutorials/01-vector-add.py":51:16)
#loc11 = loc("/home/jovyan/intel-xpu-backend-for-triton/python/tutorials/01-vector-add.py":52:17)
#loc12 = loc("/home/jovyan/intel-xpu-backend-for-triton/python/tutorials/01-vector-add.py":54:26)
#loc13 = loc("/home/jovyan/intel-xpu-backend-for-triton/python/tutorials/01-vector-add.py":54:35)
#loc14 = loc("/home/jovyan/intel-xpu-backend-for-triton/python/tutorials/01-vector-add.py":54:4)
#loc19 = loc("pid"(#loc2))
#loc20 = loc("block_start"(#loc3))
#loc21 = loc("offsets"(#loc4))
#loc22 = loc("offsets"(#loc5))
#loc23 = loc("mask"(#loc6))
#loc24 = loc("x"(#loc7))
#loc25 = loc("x"(#loc8))
#loc26 = loc("y"(#loc9))
#loc27 = loc("y"(#loc10))
#loc28 = loc("output"(#loc11))


// -----// IR Dump Before Canonicalizer (canonicalize) ('builtin.module' operation) //----- //
#loc = loc("/home/jovyan/intel-xpu-backend-for-triton/python/tutorials/01-vector-add.py":30:0)
#loc15 = loc("x_ptr"(#loc))
#loc16 = loc("y_ptr"(#loc))
#loc17 = loc("output_ptr"(#loc))
#loc18 = loc("n_elements"(#loc))
module {
  tt.func public @add_kernel(%x_ptr: !tt.ptr<f32> {tt.divisibility = 16 : i32} loc("x_ptr"(#loc)), %y_ptr: !tt.ptr<f32> {tt.divisibility = 16 : i32} loc("y_ptr"(#loc)), %output_ptr: !tt.ptr<f32> {tt.divisibility = 16 : i32} loc("output_ptr"(#loc)), %n_elements: i32 {tt.divisibility = 16 : i32} loc("n_elements"(#loc))) attributes {noinline = false} {
    %c1024_i32 = arith.constant 1024 : i32 loc(#loc1)
    %pid = tt.get_program_id x : i32 loc(#loc19)
    %block_start = arith.muli %pid, %c1024_i32 : i32 loc(#loc20)
    %offsets = tt.make_range {end = 1024 : i32, start = 0 : i32} : tensor<1024xi32> loc(#loc21)
    %offsets_0 = tt.splat %block_start : i32 -> tensor<1024xi32> loc(#loc22)
    %offsets_1 = arith.addi %offsets_0, %offsets : tensor<1024xi32> loc(#loc22)
    %mask = tt.splat %n_elements : i32 -> tensor<1024xi32> loc(#loc23)
    %mask_2 = arith.cmpi slt, %offsets_1, %mask : tensor<1024xi32> loc(#loc23)
    %x = tt.splat %x_ptr : !tt.ptr<f32> -> tensor<1024x!tt.ptr<f32>> loc(#loc24)
    %x_3 = tt.addptr %x, %offsets_1 : tensor<1024x!tt.ptr<f32>>, tensor<1024xi32> loc(#loc24)
    %x_4 = tt.load %x_3, %mask_2 : tensor<1024x!tt.ptr<f32>> loc(#loc25)
    %y = tt.splat %y_ptr : !tt.ptr<f32> -> tensor<1024x!tt.ptr<f32>> loc(#loc26)
    %y_5 = tt.addptr %y, %offsets_1 : tensor<1024x!tt.ptr<f32>>, tensor<1024xi32> loc(#loc26)
    %y_6 = tt.load %y_5, %mask_2 : tensor<1024x!tt.ptr<f32>> loc(#loc27)
    %output = arith.addf %x_4, %y_6 : tensor<1024xf32> loc(#loc28)
    %0 = tt.splat %output_ptr : !tt.ptr<f32> -> tensor<1024x!tt.ptr<f32>> loc(#loc12)
    %1 = tt.addptr %0, %offsets_1 : tensor<1024x!tt.ptr<f32>>, tensor<1024xi32> loc(#loc12)
    tt.store %1, %output, %mask_2 : tensor<1024x!tt.ptr<f32>> loc(#loc13)
    tt.return loc(#loc14)
  } loc(#loc)
} loc(#loc)
#loc1 = loc(unknown)
#loc2 = loc("/home/jovyan/intel-xpu-backend-for-triton/python/tutorials/01-vector-add.py":39:24)
#loc3 = loc("/home/jovyan/intel-xpu-backend-for-triton/python/tutorials/01-vector-add.py":44:24)
#loc4 = loc("/home/jovyan/intel-xpu-backend-for-triton/python/tutorials/01-vector-add.py":45:41)
#loc5 = loc("/home/jovyan/intel-xpu-backend-for-triton/python/tutorials/01-vector-add.py":45:28)
#loc6 = loc("/home/jovyan/intel-xpu-backend-for-triton/python/tutorials/01-vector-add.py":47:21)
#loc7 = loc("/home/jovyan/intel-xpu-backend-for-triton/python/tutorials/01-vector-add.py":50:24)
#loc8 = loc("/home/jovyan/intel-xpu-backend-for-triton/python/tutorials/01-vector-add.py":50:16)
#loc9 = loc("/home/jovyan/intel-xpu-backend-for-triton/python/tutorials/01-vector-add.py":51:24)
#loc10 = loc("/home/jovyan/intel-xpu-backend-for-triton/python/tutorials/01-vector-add.py":51:16)
#loc11 = loc("/home/jovyan/intel-xpu-backend-for-triton/python/tutorials/01-vector-add.py":52:17)
#loc12 = loc("/home/jovyan/intel-xpu-backend-for-triton/python/tutorials/01-vector-add.py":54:26)
#loc13 = loc("/home/jovyan/intel-xpu-backend-for-triton/python/tutorials/01-vector-add.py":54:35)
#loc14 = loc("/home/jovyan/intel-xpu-backend-for-triton/python/tutorials/01-vector-add.py":54:4)
#loc19 = loc("pid"(#loc2))
#loc20 = loc("block_start"(#loc3))
#loc21 = loc("offsets"(#loc4))
#loc22 = loc("offsets"(#loc5))
#loc23 = loc("mask"(#loc6))
#loc24 = loc("x"(#loc7))
#loc25 = loc("x"(#loc8))
#loc26 = loc("y"(#loc9))
#loc27 = loc("y"(#loc10))
#loc28 = loc("output"(#loc11))


// -----// IR Dump Before TritonCombineOps (triton-combine) ('builtin.module' operation) //----- //
#loc = loc("/home/jovyan/intel-xpu-backend-for-triton/python/tutorials/01-vector-add.py":30:0)
#loc15 = loc("x_ptr"(#loc))
#loc16 = loc("y_ptr"(#loc))
#loc17 = loc("output_ptr"(#loc))
#loc18 = loc("n_elements"(#loc))
module {
  tt.func public @add_kernel(%x_ptr: !tt.ptr<f32> {tt.divisibility = 16 : i32} loc("x_ptr"(#loc)), %y_ptr: !tt.ptr<f32> {tt.divisibility = 16 : i32} loc("y_ptr"(#loc)), %output_ptr: !tt.ptr<f32> {tt.divisibility = 16 : i32} loc("output_ptr"(#loc)), %n_elements: i32 {tt.divisibility = 16 : i32} loc("n_elements"(#loc))) attributes {noinline = false} {
    %c1024_i32 = arith.constant 1024 : i32 loc(#loc1)
    %pid = tt.get_program_id x : i32 loc(#loc19)
    %block_start = arith.muli %pid, %c1024_i32 : i32 loc(#loc20)
    %offsets = tt.make_range {end = 1024 : i32, start = 0 : i32} : tensor<1024xi32> loc(#loc21)
    %offsets_0 = tt.splat %block_start : i32 -> tensor<1024xi32> loc(#loc22)
    %offsets_1 = arith.addi %offsets_0, %offsets : tensor<1024xi32> loc(#loc22)
    %mask = tt.splat %n_elements : i32 -> tensor<1024xi32> loc(#loc23)
    %mask_2 = arith.cmpi slt, %offsets_1, %mask : tensor<1024xi32> loc(#loc23)
    %x = tt.splat %x_ptr : !tt.ptr<f32> -> tensor<1024x!tt.ptr<f32>> loc(#loc24)
    %x_3 = tt.addptr %x, %offsets_1 : tensor<1024x!tt.ptr<f32>>, tensor<1024xi32> loc(#loc24)
    %x_4 = tt.load %x_3, %mask_2 : tensor<1024x!tt.ptr<f32>> loc(#loc25)
    %y = tt.splat %y_ptr : !tt.ptr<f32> -> tensor<1024x!tt.ptr<f32>> loc(#loc26)
    %y_5 = tt.addptr %y, %offsets_1 : tensor<1024x!tt.ptr<f32>>, tensor<1024xi32> loc(#loc26)
    %y_6 = tt.load %y_5, %mask_2 : tensor<1024x!tt.ptr<f32>> loc(#loc27)
    %output = arith.addf %x_4, %y_6 : tensor<1024xf32> loc(#loc28)
    %0 = tt.splat %output_ptr : !tt.ptr<f32> -> tensor<1024x!tt.ptr<f32>> loc(#loc12)
    %1 = tt.addptr %0, %offsets_1 : tensor<1024x!tt.ptr<f32>>, tensor<1024xi32> loc(#loc12)
    tt.store %1, %output, %mask_2 : tensor<1024x!tt.ptr<f32>> loc(#loc13)
    tt.return loc(#loc14)
  } loc(#loc)
} loc(#loc)
#loc1 = loc(unknown)
#loc2 = loc("/home/jovyan/intel-xpu-backend-for-triton/python/tutorials/01-vector-add.py":39:24)
#loc3 = loc("/home/jovyan/intel-xpu-backend-for-triton/python/tutorials/01-vector-add.py":44:24)
#loc4 = loc("/home/jovyan/intel-xpu-backend-for-triton/python/tutorials/01-vector-add.py":45:41)
#loc5 = loc("/home/jovyan/intel-xpu-backend-for-triton/python/tutorials/01-vector-add.py":45:28)
#loc6 = loc("/home/jovyan/intel-xpu-backend-for-triton/python/tutorials/01-vector-add.py":47:21)
#loc7 = loc("/home/jovyan/intel-xpu-backend-for-triton/python/tutorials/01-vector-add.py":50:24)
#loc8 = loc("/home/jovyan/intel-xpu-backend-for-triton/python/tutorials/01-vector-add.py":50:16)
#loc9 = loc("/home/jovyan/intel-xpu-backend-for-triton/python/tutorials/01-vector-add.py":51:24)
#loc10 = loc("/home/jovyan/intel-xpu-backend-for-triton/python/tutorials/01-vector-add.py":51:16)
#loc11 = loc("/home/jovyan/intel-xpu-backend-for-triton/python/tutorials/01-vector-add.py":52:17)
#loc12 = loc("/home/jovyan/intel-xpu-backend-for-triton/python/tutorials/01-vector-add.py":54:26)
#loc13 = loc("/home/jovyan/intel-xpu-backend-for-triton/python/tutorials/01-vector-add.py":54:35)
#loc14 = loc("/home/jovyan/intel-xpu-backend-for-triton/python/tutorials/01-vector-add.py":54:4)
#loc19 = loc("pid"(#loc2))
#loc20 = loc("block_start"(#loc3))
#loc21 = loc("offsets"(#loc4))
#loc22 = loc("offsets"(#loc5))
#loc23 = loc("mask"(#loc6))
#loc24 = loc("x"(#loc7))
#loc25 = loc("x"(#loc8))
#loc26 = loc("y"(#loc9))
#loc27 = loc("y"(#loc10))
#loc28 = loc("output"(#loc11))


// -----// IR Dump Before TritonReorderBroadcast (triton-reorder-broadcast) ('builtin.module' operation) //----- //
#loc = loc("/home/jovyan/intel-xpu-backend-for-triton/python/tutorials/01-vector-add.py":30:0)
#loc15 = loc("x_ptr"(#loc))
#loc16 = loc("y_ptr"(#loc))
#loc17 = loc("output_ptr"(#loc))
#loc18 = loc("n_elements"(#loc))
module {
  tt.func public @add_kernel(%x_ptr: !tt.ptr<f32> {tt.divisibility = 16 : i32} loc("x_ptr"(#loc)), %y_ptr: !tt.ptr<f32> {tt.divisibility = 16 : i32} loc("y_ptr"(#loc)), %output_ptr: !tt.ptr<f32> {tt.divisibility = 16 : i32} loc("output_ptr"(#loc)), %n_elements: i32 {tt.divisibility = 16 : i32} loc("n_elements"(#loc))) attributes {noinline = false} {
    %c1024_i32 = arith.constant 1024 : i32 loc(#loc1)
    %pid = tt.get_program_id x : i32 loc(#loc19)
    %block_start = arith.muli %pid, %c1024_i32 : i32 loc(#loc20)
    %offsets = tt.make_range {end = 1024 : i32, start = 0 : i32} : tensor<1024xi32> loc(#loc21)
    %offsets_0 = tt.splat %block_start : i32 -> tensor<1024xi32> loc(#loc22)
    %offsets_1 = arith.addi %offsets_0, %offsets : tensor<1024xi32> loc(#loc22)
    %mask = tt.splat %n_elements : i32 -> tensor<1024xi32> loc(#loc23)
    %mask_2 = arith.cmpi slt, %offsets_1, %mask : tensor<1024xi32> loc(#loc23)
    %x = tt.splat %x_ptr : !tt.ptr<f32> -> tensor<1024x!tt.ptr<f32>> loc(#loc24)
    %x_3 = tt.addptr %x, %offsets_1 : tensor<1024x!tt.ptr<f32>>, tensor<1024xi32> loc(#loc24)
    %x_4 = tt.load %x_3, %mask_2 : tensor<1024x!tt.ptr<f32>> loc(#loc25)
    %y = tt.splat %y_ptr : !tt.ptr<f32> -> tensor<1024x!tt.ptr<f32>> loc(#loc26)
    %y_5 = tt.addptr %y, %offsets_1 : tensor<1024x!tt.ptr<f32>>, tensor<1024xi32> loc(#loc26)
    %y_6 = tt.load %y_5, %mask_2 : tensor<1024x!tt.ptr<f32>> loc(#loc27)
    %output = arith.addf %x_4, %y_6 : tensor<1024xf32> loc(#loc28)
    %0 = tt.splat %output_ptr : !tt.ptr<f32> -> tensor<1024x!tt.ptr<f32>> loc(#loc12)
    %1 = tt.addptr %0, %offsets_1 : tensor<1024x!tt.ptr<f32>>, tensor<1024xi32> loc(#loc12)
    tt.store %1, %output, %mask_2 : tensor<1024x!tt.ptr<f32>> loc(#loc13)
    tt.return loc(#loc14)
  } loc(#loc)
} loc(#loc)
#loc1 = loc(unknown)
#loc2 = loc("/home/jovyan/intel-xpu-backend-for-triton/python/tutorials/01-vector-add.py":39:24)
#loc3 = loc("/home/jovyan/intel-xpu-backend-for-triton/python/tutorials/01-vector-add.py":44:24)
#loc4 = loc("/home/jovyan/intel-xpu-backend-for-triton/python/tutorials/01-vector-add.py":45:41)
#loc5 = loc("/home/jovyan/intel-xpu-backend-for-triton/python/tutorials/01-vector-add.py":45:28)
#loc6 = loc("/home/jovyan/intel-xpu-backend-for-triton/python/tutorials/01-vector-add.py":47:21)
#loc7 = loc("/home/jovyan/intel-xpu-backend-for-triton/python/tutorials/01-vector-add.py":50:24)
#loc8 = loc("/home/jovyan/intel-xpu-backend-for-triton/python/tutorials/01-vector-add.py":50:16)
#loc9 = loc("/home/jovyan/intel-xpu-backend-for-triton/python/tutorials/01-vector-add.py":51:24)
#loc10 = loc("/home/jovyan/intel-xpu-backend-for-triton/python/tutorials/01-vector-add.py":51:16)
#loc11 = loc("/home/jovyan/intel-xpu-backend-for-triton/python/tutorials/01-vector-add.py":52:17)
#loc12 = loc("/home/jovyan/intel-xpu-backend-for-triton/python/tutorials/01-vector-add.py":54:26)
#loc13 = loc("/home/jovyan/intel-xpu-backend-for-triton/python/tutorials/01-vector-add.py":54:35)
#loc14 = loc("/home/jovyan/intel-xpu-backend-for-triton/python/tutorials/01-vector-add.py":54:4)
#loc19 = loc("pid"(#loc2))
#loc20 = loc("block_start"(#loc3))
#loc21 = loc("offsets"(#loc4))
#loc22 = loc("offsets"(#loc5))
#loc23 = loc("mask"(#loc6))
#loc24 = loc("x"(#loc7))
#loc25 = loc("x"(#loc8))
#loc26 = loc("y"(#loc9))
#loc27 = loc("y"(#loc10))
#loc28 = loc("output"(#loc11))


// -----// IR Dump Before CSE (cse) ('builtin.module' operation) //----- //
#loc = loc("/home/jovyan/intel-xpu-backend-for-triton/python/tutorials/01-vector-add.py":30:0)
#loc15 = loc("x_ptr"(#loc))
#loc16 = loc("y_ptr"(#loc))
#loc17 = loc("output_ptr"(#loc))
#loc18 = loc("n_elements"(#loc))
module {
  tt.func public @add_kernel(%x_ptr: !tt.ptr<f32> {tt.divisibility = 16 : i32} loc("x_ptr"(#loc)), %y_ptr: !tt.ptr<f32> {tt.divisibility = 16 : i32} loc("y_ptr"(#loc)), %output_ptr: !tt.ptr<f32> {tt.divisibility = 16 : i32} loc("output_ptr"(#loc)), %n_elements: i32 {tt.divisibility = 16 : i32} loc("n_elements"(#loc))) attributes {noinline = false} {
    %c1024_i32 = arith.constant 1024 : i32 loc(#loc1)
    %pid = tt.get_program_id x : i32 loc(#loc19)
    %block_start = arith.muli %pid, %c1024_i32 : i32 loc(#loc20)
    %offsets = tt.make_range {end = 1024 : i32, start = 0 : i32} : tensor<1024xi32> loc(#loc21)
    %offsets_0 = tt.splat %block_start : i32 -> tensor<1024xi32> loc(#loc22)
    %offsets_1 = arith.addi %offsets_0, %offsets : tensor<1024xi32> loc(#loc22)
    %mask = tt.splat %n_elements : i32 -> tensor<1024xi32> loc(#loc23)
    %mask_2 = arith.cmpi slt, %offsets_1, %mask : tensor<1024xi32> loc(#loc23)
    %x = tt.splat %x_ptr : !tt.ptr<f32> -> tensor<1024x!tt.ptr<f32>> loc(#loc24)
    %x_3 = tt.addptr %x, %offsets_1 : tensor<1024x!tt.ptr<f32>>, tensor<1024xi32> loc(#loc24)
    %x_4 = tt.load %x_3, %mask_2 : tensor<1024x!tt.ptr<f32>> loc(#loc25)
    %y = tt.splat %y_ptr : !tt.ptr<f32> -> tensor<1024x!tt.ptr<f32>> loc(#loc26)
    %y_5 = tt.addptr %y, %offsets_1 : tensor<1024x!tt.ptr<f32>>, tensor<1024xi32> loc(#loc26)
    %y_6 = tt.load %y_5, %mask_2 : tensor<1024x!tt.ptr<f32>> loc(#loc27)
    %output = arith.addf %x_4, %y_6 : tensor<1024xf32> loc(#loc28)
    %0 = tt.splat %output_ptr : !tt.ptr<f32> -> tensor<1024x!tt.ptr<f32>> loc(#loc12)
    %1 = tt.addptr %0, %offsets_1 : tensor<1024x!tt.ptr<f32>>, tensor<1024xi32> loc(#loc12)
    tt.store %1, %output, %mask_2 : tensor<1024x!tt.ptr<f32>> loc(#loc13)
    tt.return loc(#loc14)
  } loc(#loc)
} loc(#loc)
#loc1 = loc(unknown)
#loc2 = loc("/home/jovyan/intel-xpu-backend-for-triton/python/tutorials/01-vector-add.py":39:24)
#loc3 = loc("/home/jovyan/intel-xpu-backend-for-triton/python/tutorials/01-vector-add.py":44:24)
#loc4 = loc("/home/jovyan/intel-xpu-backend-for-triton/python/tutorials/01-vector-add.py":45:41)
#loc5 = loc("/home/jovyan/intel-xpu-backend-for-triton/python/tutorials/01-vector-add.py":45:28)
#loc6 = loc("/home/jovyan/intel-xpu-backend-for-triton/python/tutorials/01-vector-add.py":47:21)
#loc7 = loc("/home/jovyan/intel-xpu-backend-for-triton/python/tutorials/01-vector-add.py":50:24)
#loc8 = loc("/home/jovyan/intel-xpu-backend-for-triton/python/tutorials/01-vector-add.py":50:16)
#loc9 = loc("/home/jovyan/intel-xpu-backend-for-triton/python/tutorials/01-vector-add.py":51:24)
#loc10 = loc("/home/jovyan/intel-xpu-backend-for-triton/python/tutorials/01-vector-add.py":51:16)
#loc11 = loc("/home/jovyan/intel-xpu-backend-for-triton/python/tutorials/01-vector-add.py":52:17)
#loc12 = loc("/home/jovyan/intel-xpu-backend-for-triton/python/tutorials/01-vector-add.py":54:26)
#loc13 = loc("/home/jovyan/intel-xpu-backend-for-triton/python/tutorials/01-vector-add.py":54:35)
#loc14 = loc("/home/jovyan/intel-xpu-backend-for-triton/python/tutorials/01-vector-add.py":54:4)
#loc19 = loc("pid"(#loc2))
#loc20 = loc("block_start"(#loc3))
#loc21 = loc("offsets"(#loc4))
#loc22 = loc("offsets"(#loc5))
#loc23 = loc("mask"(#loc6))
#loc24 = loc("x"(#loc7))
#loc25 = loc("x"(#loc8))
#loc26 = loc("y"(#loc9))
#loc27 = loc("y"(#loc10))
#loc28 = loc("output"(#loc11))


// -----// IR Dump Before SymbolDCE (symbol-dce) ('builtin.module' operation) //----- //
#loc = loc("/home/jovyan/intel-xpu-backend-for-triton/python/tutorials/01-vector-add.py":30:0)
#loc15 = loc("x_ptr"(#loc))
#loc16 = loc("y_ptr"(#loc))
#loc17 = loc("output_ptr"(#loc))
#loc18 = loc("n_elements"(#loc))
module {
  tt.func public @add_kernel(%x_ptr: !tt.ptr<f32> {tt.divisibility = 16 : i32} loc("x_ptr"(#loc)), %y_ptr: !tt.ptr<f32> {tt.divisibility = 16 : i32} loc("y_ptr"(#loc)), %output_ptr: !tt.ptr<f32> {tt.divisibility = 16 : i32} loc("output_ptr"(#loc)), %n_elements: i32 {tt.divisibility = 16 : i32} loc("n_elements"(#loc))) attributes {noinline = false} {
    %c1024_i32 = arith.constant 1024 : i32 loc(#loc1)
    %pid = tt.get_program_id x : i32 loc(#loc19)
    %block_start = arith.muli %pid, %c1024_i32 : i32 loc(#loc20)
    %offsets = tt.make_range {end = 1024 : i32, start = 0 : i32} : tensor<1024xi32> loc(#loc21)
    %offsets_0 = tt.splat %block_start : i32 -> tensor<1024xi32> loc(#loc22)
    %offsets_1 = arith.addi %offsets_0, %offsets : tensor<1024xi32> loc(#loc22)
    %mask = tt.splat %n_elements : i32 -> tensor<1024xi32> loc(#loc23)
    %mask_2 = arith.cmpi slt, %offsets_1, %mask : tensor<1024xi32> loc(#loc23)
    %x = tt.splat %x_ptr : !tt.ptr<f32> -> tensor<1024x!tt.ptr<f32>> loc(#loc24)
    %x_3 = tt.addptr %x, %offsets_1 : tensor<1024x!tt.ptr<f32>>, tensor<1024xi32> loc(#loc24)
    %x_4 = tt.load %x_3, %mask_2 : tensor<1024x!tt.ptr<f32>> loc(#loc25)
    %y = tt.splat %y_ptr : !tt.ptr<f32> -> tensor<1024x!tt.ptr<f32>> loc(#loc26)
    %y_5 = tt.addptr %y, %offsets_1 : tensor<1024x!tt.ptr<f32>>, tensor<1024xi32> loc(#loc26)
    %y_6 = tt.load %y_5, %mask_2 : tensor<1024x!tt.ptr<f32>> loc(#loc27)
    %output = arith.addf %x_4, %y_6 : tensor<1024xf32> loc(#loc28)
    %0 = tt.splat %output_ptr : !tt.ptr<f32> -> tensor<1024x!tt.ptr<f32>> loc(#loc12)
    %1 = tt.addptr %0, %offsets_1 : tensor<1024x!tt.ptr<f32>>, tensor<1024xi32> loc(#loc12)
    tt.store %1, %output, %mask_2 : tensor<1024x!tt.ptr<f32>> loc(#loc13)
    tt.return loc(#loc14)
  } loc(#loc)
} loc(#loc)
#loc1 = loc(unknown)
#loc2 = loc("/home/jovyan/intel-xpu-backend-for-triton/python/tutorials/01-vector-add.py":39:24)
#loc3 = loc("/home/jovyan/intel-xpu-backend-for-triton/python/tutorials/01-vector-add.py":44:24)
#loc4 = loc("/home/jovyan/intel-xpu-backend-for-triton/python/tutorials/01-vector-add.py":45:41)
#loc5 = loc("/home/jovyan/intel-xpu-backend-for-triton/python/tutorials/01-vector-add.py":45:28)
#loc6 = loc("/home/jovyan/intel-xpu-backend-for-triton/python/tutorials/01-vector-add.py":47:21)
#loc7 = loc("/home/jovyan/intel-xpu-backend-for-triton/python/tutorials/01-vector-add.py":50:24)
#loc8 = loc("/home/jovyan/intel-xpu-backend-for-triton/python/tutorials/01-vector-add.py":50:16)
#loc9 = loc("/home/jovyan/intel-xpu-backend-for-triton/python/tutorials/01-vector-add.py":51:24)
#loc10 = loc("/home/jovyan/intel-xpu-backend-for-triton/python/tutorials/01-vector-add.py":51:16)
#loc11 = loc("/home/jovyan/intel-xpu-backend-for-triton/python/tutorials/01-vector-add.py":52:17)
#loc12 = loc("/home/jovyan/intel-xpu-backend-for-triton/python/tutorials/01-vector-add.py":54:26)
#loc13 = loc("/home/jovyan/intel-xpu-backend-for-triton/python/tutorials/01-vector-add.py":54:35)
#loc14 = loc("/home/jovyan/intel-xpu-backend-for-triton/python/tutorials/01-vector-add.py":54:4)
#loc19 = loc("pid"(#loc2))
#loc20 = loc("block_start"(#loc3))
#loc21 = loc("offsets"(#loc4))
#loc22 = loc("offsets"(#loc5))
#loc23 = loc("mask"(#loc6))
#loc24 = loc("x"(#loc7))
#loc25 = loc("x"(#loc8))
#loc26 = loc("y"(#loc9))
#loc27 = loc("y"(#loc10))
#loc28 = loc("output"(#loc11))


// -----// IR Dump Before TritonLoopUnroll (triton-loop-unroll) ('builtin.module' operation) //----- //
#loc = loc("/home/jovyan/intel-xpu-backend-for-triton/python/tutorials/01-vector-add.py":30:0)
#loc15 = loc("x_ptr"(#loc))
#loc16 = loc("y_ptr"(#loc))
#loc17 = loc("output_ptr"(#loc))
#loc18 = loc("n_elements"(#loc))
module {
  tt.func public @add_kernel(%x_ptr: !tt.ptr<f32> {tt.divisibility = 16 : i32} loc("x_ptr"(#loc)), %y_ptr: !tt.ptr<f32> {tt.divisibility = 16 : i32} loc("y_ptr"(#loc)), %output_ptr: !tt.ptr<f32> {tt.divisibility = 16 : i32} loc("output_ptr"(#loc)), %n_elements: i32 {tt.divisibility = 16 : i32} loc("n_elements"(#loc))) attributes {noinline = false} {
    %c1024_i32 = arith.constant 1024 : i32 loc(#loc1)
    %pid = tt.get_program_id x : i32 loc(#loc19)
    %block_start = arith.muli %pid, %c1024_i32 : i32 loc(#loc20)
    %offsets = tt.make_range {end = 1024 : i32, start = 0 : i32} : tensor<1024xi32> loc(#loc21)
    %offsets_0 = tt.splat %block_start : i32 -> tensor<1024xi32> loc(#loc22)
    %offsets_1 = arith.addi %offsets_0, %offsets : tensor<1024xi32> loc(#loc22)
    %mask = tt.splat %n_elements : i32 -> tensor<1024xi32> loc(#loc23)
    %mask_2 = arith.cmpi slt, %offsets_1, %mask : tensor<1024xi32> loc(#loc23)
    %x = tt.splat %x_ptr : !tt.ptr<f32> -> tensor<1024x!tt.ptr<f32>> loc(#loc24)
    %x_3 = tt.addptr %x, %offsets_1 : tensor<1024x!tt.ptr<f32>>, tensor<1024xi32> loc(#loc24)
    %x_4 = tt.load %x_3, %mask_2 : tensor<1024x!tt.ptr<f32>> loc(#loc25)
    %y = tt.splat %y_ptr : !tt.ptr<f32> -> tensor<1024x!tt.ptr<f32>> loc(#loc26)
    %y_5 = tt.addptr %y, %offsets_1 : tensor<1024x!tt.ptr<f32>>, tensor<1024xi32> loc(#loc26)
    %y_6 = tt.load %y_5, %mask_2 : tensor<1024x!tt.ptr<f32>> loc(#loc27)
    %output = arith.addf %x_4, %y_6 : tensor<1024xf32> loc(#loc28)
    %0 = tt.splat %output_ptr : !tt.ptr<f32> -> tensor<1024x!tt.ptr<f32>> loc(#loc12)
    %1 = tt.addptr %0, %offsets_1 : tensor<1024x!tt.ptr<f32>>, tensor<1024xi32> loc(#loc12)
    tt.store %1, %output, %mask_2 : tensor<1024x!tt.ptr<f32>> loc(#loc13)
    tt.return loc(#loc14)
  } loc(#loc)
} loc(#loc)
#loc1 = loc(unknown)
#loc2 = loc("/home/jovyan/intel-xpu-backend-for-triton/python/tutorials/01-vector-add.py":39:24)
#loc3 = loc("/home/jovyan/intel-xpu-backend-for-triton/python/tutorials/01-vector-add.py":44:24)
#loc4 = loc("/home/jovyan/intel-xpu-backend-for-triton/python/tutorials/01-vector-add.py":45:41)
#loc5 = loc("/home/jovyan/intel-xpu-backend-for-triton/python/tutorials/01-vector-add.py":45:28)
#loc6 = loc("/home/jovyan/intel-xpu-backend-for-triton/python/tutorials/01-vector-add.py":47:21)
#loc7 = loc("/home/jovyan/intel-xpu-backend-for-triton/python/tutorials/01-vector-add.py":50:24)
#loc8 = loc("/home/jovyan/intel-xpu-backend-for-triton/python/tutorials/01-vector-add.py":50:16)
#loc9 = loc("/home/jovyan/intel-xpu-backend-for-triton/python/tutorials/01-vector-add.py":51:24)
#loc10 = loc("/home/jovyan/intel-xpu-backend-for-triton/python/tutorials/01-vector-add.py":51:16)
#loc11 = loc("/home/jovyan/intel-xpu-backend-for-triton/python/tutorials/01-vector-add.py":52:17)
#loc12 = loc("/home/jovyan/intel-xpu-backend-for-triton/python/tutorials/01-vector-add.py":54:26)
#loc13 = loc("/home/jovyan/intel-xpu-backend-for-triton/python/tutorials/01-vector-add.py":54:35)
#loc14 = loc("/home/jovyan/intel-xpu-backend-for-triton/python/tutorials/01-vector-add.py":54:4)
#loc19 = loc("pid"(#loc2))
#loc20 = loc("block_start"(#loc3))
#loc21 = loc("offsets"(#loc4))
#loc22 = loc("offsets"(#loc5))
#loc23 = loc("mask"(#loc6))
#loc24 = loc("x"(#loc7))
#loc25 = loc("x"(#loc8))
#loc26 = loc("y"(#loc9))
#loc27 = loc("y"(#loc10))
#loc28 = loc("output"(#loc11))


// -----// IR Dump Before TritonAnnotateModule (triton-annotate-module) ('builtin.module' operation) //----- //
#loc = loc("/home/jovyan/intel-xpu-backend-for-triton/python/tutorials/01-vector-add.py":30:0)
#loc15 = loc("x_ptr"(#loc))
#loc16 = loc("y_ptr"(#loc))
#loc17 = loc("output_ptr"(#loc))
#loc18 = loc("n_elements"(#loc))
module {
  tt.func public @add_kernel(%x_ptr: !tt.ptr<f32> {tt.divisibility = 16 : i32} loc("x_ptr"(#loc)), %y_ptr: !tt.ptr<f32> {tt.divisibility = 16 : i32} loc("y_ptr"(#loc)), %output_ptr: !tt.ptr<f32> {tt.divisibility = 16 : i32} loc("output_ptr"(#loc)), %n_elements: i32 {tt.divisibility = 16 : i32} loc("n_elements"(#loc))) attributes {noinline = false} {
    %c1024_i32 = arith.constant 1024 : i32 loc(#loc1)
    %pid = tt.get_program_id x : i32 loc(#loc19)
    %block_start = arith.muli %pid, %c1024_i32 : i32 loc(#loc20)
    %offsets = tt.make_range {end = 1024 : i32, start = 0 : i32} : tensor<1024xi32> loc(#loc21)
    %offsets_0 = tt.splat %block_start : i32 -> tensor<1024xi32> loc(#loc22)
    %offsets_1 = arith.addi %offsets_0, %offsets : tensor<1024xi32> loc(#loc22)
    %mask = tt.splat %n_elements : i32 -> tensor<1024xi32> loc(#loc23)
    %mask_2 = arith.cmpi slt, %offsets_1, %mask : tensor<1024xi32> loc(#loc23)
    %x = tt.splat %x_ptr : !tt.ptr<f32> -> tensor<1024x!tt.ptr<f32>> loc(#loc24)
    %x_3 = tt.addptr %x, %offsets_1 : tensor<1024x!tt.ptr<f32>>, tensor<1024xi32> loc(#loc24)
    %x_4 = tt.load %x_3, %mask_2 : tensor<1024x!tt.ptr<f32>> loc(#loc25)
    %y = tt.splat %y_ptr : !tt.ptr<f32> -> tensor<1024x!tt.ptr<f32>> loc(#loc26)
    %y_5 = tt.addptr %y, %offsets_1 : tensor<1024x!tt.ptr<f32>>, tensor<1024xi32> loc(#loc26)
    %y_6 = tt.load %y_5, %mask_2 : tensor<1024x!tt.ptr<f32>> loc(#loc27)
    %output = arith.addf %x_4, %y_6 : tensor<1024xf32> loc(#loc28)
    %0 = tt.splat %output_ptr : !tt.ptr<f32> -> tensor<1024x!tt.ptr<f32>> loc(#loc12)
    %1 = tt.addptr %0, %offsets_1 : tensor<1024x!tt.ptr<f32>>, tensor<1024xi32> loc(#loc12)
    tt.store %1, %output, %mask_2 : tensor<1024x!tt.ptr<f32>> loc(#loc13)
    tt.return loc(#loc14)
  } loc(#loc)
} loc(#loc)
#loc1 = loc(unknown)
#loc2 = loc("/home/jovyan/intel-xpu-backend-for-triton/python/tutorials/01-vector-add.py":39:24)
#loc3 = loc("/home/jovyan/intel-xpu-backend-for-triton/python/tutorials/01-vector-add.py":44:24)
#loc4 = loc("/home/jovyan/intel-xpu-backend-for-triton/python/tutorials/01-vector-add.py":45:41)
#loc5 = loc("/home/jovyan/intel-xpu-backend-for-triton/python/tutorials/01-vector-add.py":45:28)
#loc6 = loc("/home/jovyan/intel-xpu-backend-for-triton/python/tutorials/01-vector-add.py":47:21)
#loc7 = loc("/home/jovyan/intel-xpu-backend-for-triton/python/tutorials/01-vector-add.py":50:24)
#loc8 = loc("/home/jovyan/intel-xpu-backend-for-triton/python/tutorials/01-vector-add.py":50:16)
#loc9 = loc("/home/jovyan/intel-xpu-backend-for-triton/python/tutorials/01-vector-add.py":51:24)
#loc10 = loc("/home/jovyan/intel-xpu-backend-for-triton/python/tutorials/01-vector-add.py":51:16)
#loc11 = loc("/home/jovyan/intel-xpu-backend-for-triton/python/tutorials/01-vector-add.py":52:17)
#loc12 = loc("/home/jovyan/intel-xpu-backend-for-triton/python/tutorials/01-vector-add.py":54:26)
#loc13 = loc("/home/jovyan/intel-xpu-backend-for-triton/python/tutorials/01-vector-add.py":54:35)
#loc14 = loc("/home/jovyan/intel-xpu-backend-for-triton/python/tutorials/01-vector-add.py":54:4)
#loc19 = loc("pid"(#loc2))
#loc20 = loc("block_start"(#loc3))
#loc21 = loc("offsets"(#loc4))
#loc22 = loc("offsets"(#loc5))
#loc23 = loc("mask"(#loc6))
#loc24 = loc("x"(#loc7))
#loc25 = loc("x"(#loc8))
#loc26 = loc("y"(#loc9))
#loc27 = loc("y"(#loc10))
#loc28 = loc("output"(#loc11))


// -----// IR Dump Before ConvertTritonToTritonGPU (convert-triton-to-tritongpu) ('builtin.module' operation) //----- //
#loc = loc("/home/jovyan/intel-xpu-backend-for-triton/python/tutorials/01-vector-add.py":30:0)
#loc15 = loc("x_ptr"(#loc))
#loc16 = loc("y_ptr"(#loc))
#loc17 = loc("output_ptr"(#loc))
#loc18 = loc("n_elements"(#loc))
module attributes {"ttg.threads-per-warp" = 32 : i32, ttig.min_sg_size = 16 : i32, ttig.support_2d_block_io, ttig.support_bfloat16_conversion, ttig.support_subgroup_matrix_multiply_accumulate, ttig.target_arch = "spir64"} {
  tt.func public @add_kernel(%x_ptr: !tt.ptr<f32> {tt.divisibility = 16 : i32} loc("x_ptr"(#loc)), %y_ptr: !tt.ptr<f32> {tt.divisibility = 16 : i32} loc("y_ptr"(#loc)), %output_ptr: !tt.ptr<f32> {tt.divisibility = 16 : i32} loc("output_ptr"(#loc)), %n_elements: i32 {tt.divisibility = 16 : i32} loc("n_elements"(#loc))) attributes {noinline = false} {
    %c1024_i32 = arith.constant 1024 : i32 loc(#loc1)
    %pid = tt.get_program_id x : i32 loc(#loc19)
    %block_start = arith.muli %pid, %c1024_i32 : i32 loc(#loc20)
    %offsets = tt.make_range {end = 1024 : i32, start = 0 : i32} : tensor<1024xi32> loc(#loc21)
    %offsets_0 = tt.splat %block_start : i32 -> tensor<1024xi32> loc(#loc22)
    %offsets_1 = arith.addi %offsets_0, %offsets : tensor<1024xi32> loc(#loc22)
    %mask = tt.splat %n_elements : i32 -> tensor<1024xi32> loc(#loc23)
    %mask_2 = arith.cmpi slt, %offsets_1, %mask : tensor<1024xi32> loc(#loc23)
    %x = tt.splat %x_ptr : !tt.ptr<f32> -> tensor<1024x!tt.ptr<f32>> loc(#loc24)
    %x_3 = tt.addptr %x, %offsets_1 : tensor<1024x!tt.ptr<f32>>, tensor<1024xi32> loc(#loc24)
    %x_4 = tt.load %x_3, %mask_2 : tensor<1024x!tt.ptr<f32>> loc(#loc25)
    %y = tt.splat %y_ptr : !tt.ptr<f32> -> tensor<1024x!tt.ptr<f32>> loc(#loc26)
    %y_5 = tt.addptr %y, %offsets_1 : tensor<1024x!tt.ptr<f32>>, tensor<1024xi32> loc(#loc26)
    %y_6 = tt.load %y_5, %mask_2 : tensor<1024x!tt.ptr<f32>> loc(#loc27)
    %output = arith.addf %x_4, %y_6 : tensor<1024xf32> loc(#loc28)
    %0 = tt.splat %output_ptr : !tt.ptr<f32> -> tensor<1024x!tt.ptr<f32>> loc(#loc12)
    %1 = tt.addptr %0, %offsets_1 : tensor<1024x!tt.ptr<f32>>, tensor<1024xi32> loc(#loc12)
    tt.store %1, %output, %mask_2 : tensor<1024x!tt.ptr<f32>> loc(#loc13)
    tt.return loc(#loc14)
  } loc(#loc)
} loc(#loc)
#loc1 = loc(unknown)
#loc2 = loc("/home/jovyan/intel-xpu-backend-for-triton/python/tutorials/01-vector-add.py":39:24)
#loc3 = loc("/home/jovyan/intel-xpu-backend-for-triton/python/tutorials/01-vector-add.py":44:24)
#loc4 = loc("/home/jovyan/intel-xpu-backend-for-triton/python/tutorials/01-vector-add.py":45:41)
#loc5 = loc("/home/jovyan/intel-xpu-backend-for-triton/python/tutorials/01-vector-add.py":45:28)
#loc6 = loc("/home/jovyan/intel-xpu-backend-for-triton/python/tutorials/01-vector-add.py":47:21)
#loc7 = loc("/home/jovyan/intel-xpu-backend-for-triton/python/tutorials/01-vector-add.py":50:24)
#loc8 = loc("/home/jovyan/intel-xpu-backend-for-triton/python/tutorials/01-vector-add.py":50:16)
#loc9 = loc("/home/jovyan/intel-xpu-backend-for-triton/python/tutorials/01-vector-add.py":51:24)
#loc10 = loc("/home/jovyan/intel-xpu-backend-for-triton/python/tutorials/01-vector-add.py":51:16)
#loc11 = loc("/home/jovyan/intel-xpu-backend-for-triton/python/tutorials/01-vector-add.py":52:17)
#loc12 = loc("/home/jovyan/intel-xpu-backend-for-triton/python/tutorials/01-vector-add.py":54:26)
#loc13 = loc("/home/jovyan/intel-xpu-backend-for-triton/python/tutorials/01-vector-add.py":54:35)
#loc14 = loc("/home/jovyan/intel-xpu-backend-for-triton/python/tutorials/01-vector-add.py":54:4)
#loc19 = loc("pid"(#loc2))
#loc20 = loc("block_start"(#loc3))
#loc21 = loc("offsets"(#loc4))
#loc22 = loc("offsets"(#loc5))
#loc23 = loc("mask"(#loc6))
#loc24 = loc("x"(#loc7))
#loc25 = loc("x"(#loc8))
#loc26 = loc("y"(#loc9))
#loc27 = loc("y"(#loc10))
#loc28 = loc("output"(#loc11))


// -----// IR Dump Before TritonIntelGPUCoalesce (tritonintelgpu-coalesce) ('builtin.module' operation) //----- //
#blocked = #ttg.blocked<{sizePerThread = [1], threadsPerWarp = [32], warpsPerCTA = [4], order = [0]}>
#loc = loc("/home/jovyan/intel-xpu-backend-for-triton/python/tutorials/01-vector-add.py":30:0)
#loc15 = loc("x_ptr"(#loc))
#loc16 = loc("y_ptr"(#loc))
#loc17 = loc("output_ptr"(#loc))
#loc18 = loc("n_elements"(#loc))
module attributes {"ttg.num-ctas" = 1 : i32, "ttg.num-warps" = 4 : i32, ttg.target = "xpu", "ttg.threads-per-warp" = 32 : i32, ttig.min_sg_size = 16 : i32, ttig.support_2d_block_io, ttig.support_bfloat16_conversion, ttig.support_subgroup_matrix_multiply_accumulate, ttig.target_arch = "spir64"} {
  tt.func public @add_kernel(%x_ptr: !tt.ptr<f32> {tt.divisibility = 16 : i32} loc("x_ptr"(#loc)), %y_ptr: !tt.ptr<f32> {tt.divisibility = 16 : i32} loc("y_ptr"(#loc)), %output_ptr: !tt.ptr<f32> {tt.divisibility = 16 : i32} loc("output_ptr"(#loc)), %n_elements: i32 {tt.divisibility = 16 : i32} loc("n_elements"(#loc))) attributes {noinline = false} {
    %c1024_i32 = arith.constant 1024 : i32 loc(#loc1)
    %pid = tt.get_program_id x : i32 loc(#loc19)
    %block_start = arith.muli %pid, %c1024_i32 : i32 loc(#loc20)
    %offsets = tt.make_range {end = 1024 : i32, start = 0 : i32} : tensor<1024xi32, #blocked> loc(#loc21)
    %offsets_0 = tt.splat %block_start : i32 -> tensor<1024xi32, #blocked> loc(#loc22)
    %offsets_1 = arith.addi %offsets_0, %offsets : tensor<1024xi32, #blocked> loc(#loc22)
    %mask = tt.splat %n_elements : i32 -> tensor<1024xi32, #blocked> loc(#loc23)
    %mask_2 = arith.cmpi slt, %offsets_1, %mask : tensor<1024xi32, #blocked> loc(#loc23)
    %x = tt.splat %x_ptr : !tt.ptr<f32> -> tensor<1024x!tt.ptr<f32>, #blocked> loc(#loc24)
    %x_3 = tt.addptr %x, %offsets_1 : tensor<1024x!tt.ptr<f32>, #blocked>, tensor<1024xi32, #blocked> loc(#loc24)
    %x_4 = tt.load %x_3, %mask_2 : tensor<1024x!tt.ptr<f32>, #blocked> loc(#loc25)
    %y = tt.splat %y_ptr : !tt.ptr<f32> -> tensor<1024x!tt.ptr<f32>, #blocked> loc(#loc26)
    %y_5 = tt.addptr %y, %offsets_1 : tensor<1024x!tt.ptr<f32>, #blocked>, tensor<1024xi32, #blocked> loc(#loc26)
    %y_6 = tt.load %y_5, %mask_2 : tensor<1024x!tt.ptr<f32>, #blocked> loc(#loc27)
    %output = arith.addf %x_4, %y_6 : tensor<1024xf32, #blocked> loc(#loc28)
    %0 = tt.splat %output_ptr : !tt.ptr<f32> -> tensor<1024x!tt.ptr<f32>, #blocked> loc(#loc12)
    %1 = tt.addptr %0, %offsets_1 : tensor<1024x!tt.ptr<f32>, #blocked>, tensor<1024xi32, #blocked> loc(#loc12)
    tt.store %1, %output, %mask_2 : tensor<1024x!tt.ptr<f32>, #blocked> loc(#loc13)
    tt.return loc(#loc14)
  } loc(#loc)
} loc(#loc)
#loc1 = loc(unknown)
#loc2 = loc("/home/jovyan/intel-xpu-backend-for-triton/python/tutorials/01-vector-add.py":39:24)
#loc3 = loc("/home/jovyan/intel-xpu-backend-for-triton/python/tutorials/01-vector-add.py":44:24)
#loc4 = loc("/home/jovyan/intel-xpu-backend-for-triton/python/tutorials/01-vector-add.py":45:41)
#loc5 = loc("/home/jovyan/intel-xpu-backend-for-triton/python/tutorials/01-vector-add.py":45:28)
#loc6 = loc("/home/jovyan/intel-xpu-backend-for-triton/python/tutorials/01-vector-add.py":47:21)
#loc7 = loc("/home/jovyan/intel-xpu-backend-for-triton/python/tutorials/01-vector-add.py":50:24)
#loc8 = loc("/home/jovyan/intel-xpu-backend-for-triton/python/tutorials/01-vector-add.py":50:16)
#loc9 = loc("/home/jovyan/intel-xpu-backend-for-triton/python/tutorials/01-vector-add.py":51:24)
#loc10 = loc("/home/jovyan/intel-xpu-backend-for-triton/python/tutorials/01-vector-add.py":51:16)
#loc11 = loc("/home/jovyan/intel-xpu-backend-for-triton/python/tutorials/01-vector-add.py":52:17)
#loc12 = loc("/home/jovyan/intel-xpu-backend-for-triton/python/tutorials/01-vector-add.py":54:26)
#loc13 = loc("/home/jovyan/intel-xpu-backend-for-triton/python/tutorials/01-vector-add.py":54:35)
#loc14 = loc("/home/jovyan/intel-xpu-backend-for-triton/python/tutorials/01-vector-add.py":54:4)
#loc19 = loc("pid"(#loc2))
#loc20 = loc("block_start"(#loc3))
#loc21 = loc("offsets"(#loc4))
#loc22 = loc("offsets"(#loc5))
#loc23 = loc("mask"(#loc6))
#loc24 = loc("x"(#loc7))
#loc25 = loc("x"(#loc8))
#loc26 = loc("y"(#loc9))
#loc27 = loc("y"(#loc10))
#loc28 = loc("output"(#loc11))


// -----// IR Dump Before TritonIntelGPURemoveLayoutConversions (tritonintelgpu-remove-layout-conversions) ('builtin.module' operation) //----- //
#blocked = #ttg.blocked<{sizePerThread = [1], threadsPerWarp = [32], warpsPerCTA = [4], order = [0]}>
#blocked1 = #ttg.blocked<{sizePerThread = [4], threadsPerWarp = [32], warpsPerCTA = [4], order = [0]}>
#loc = loc("/home/jovyan/intel-xpu-backend-for-triton/python/tutorials/01-vector-add.py":30:0)
#loc15 = loc("x_ptr"(#loc))
#loc16 = loc("y_ptr"(#loc))
#loc17 = loc("output_ptr"(#loc))
#loc18 = loc("n_elements"(#loc))
module attributes {"ttg.num-ctas" = 1 : i32, "ttg.num-warps" = 4 : i32, ttg.target = "xpu", "ttg.threads-per-warp" = 32 : i32, ttig.min_sg_size = 16 : i32, ttig.support_2d_block_io, ttig.support_bfloat16_conversion, ttig.support_subgroup_matrix_multiply_accumulate, ttig.target_arch = "spir64"} {
  tt.func public @add_kernel(%x_ptr: !tt.ptr<f32> {tt.divisibility = 16 : i32} loc("x_ptr"(#loc)), %y_ptr: !tt.ptr<f32> {tt.divisibility = 16 : i32} loc("y_ptr"(#loc)), %output_ptr: !tt.ptr<f32> {tt.divisibility = 16 : i32} loc("output_ptr"(#loc)), %n_elements: i32 {tt.divisibility = 16 : i32} loc("n_elements"(#loc))) attributes {noinline = false} {
    %c1024_i32 = arith.constant 1024 : i32 loc(#loc1)
    %pid = tt.get_program_id x : i32 loc(#loc19)
    %block_start = arith.muli %pid, %c1024_i32 : i32 loc(#loc20)
    %offsets = tt.make_range {end = 1024 : i32, start = 0 : i32} : tensor<1024xi32, #blocked> loc(#loc21)
    %offsets_0 = tt.splat %block_start : i32 -> tensor<1024xi32, #blocked> loc(#loc22)
    %offsets_1 = arith.addi %offsets_0, %offsets : tensor<1024xi32, #blocked> loc(#loc22)
    %mask = tt.splat %n_elements : i32 -> tensor<1024xi32, #blocked> loc(#loc23)
    %mask_2 = arith.cmpi slt, %offsets_1, %mask : tensor<1024xi32, #blocked> loc(#loc23)
    %x = tt.splat %x_ptr : !tt.ptr<f32> -> tensor<1024x!tt.ptr<f32>, #blocked> loc(#loc24)
    %x_3 = tt.addptr %x, %offsets_1 : tensor<1024x!tt.ptr<f32>, #blocked>, tensor<1024xi32, #blocked> loc(#loc24)
    %x_4 = ttg.convert_layout %x_3 : tensor<1024x!tt.ptr<f32>, #blocked> -> tensor<1024x!tt.ptr<f32>, #blocked1> loc(#loc25)
    %x_5 = ttg.convert_layout %mask_2 : tensor<1024xi1, #blocked> -> tensor<1024xi1, #blocked1> loc(#loc25)
    %x_6 = tt.load %x_4, %x_5 : tensor<1024x!tt.ptr<f32>, #blocked1> loc(#loc25)
    %x_7 = ttg.convert_layout %x_6 : tensor<1024xf32, #blocked1> -> tensor<1024xf32, #blocked> loc(#loc25)
    %y = tt.splat %y_ptr : !tt.ptr<f32> -> tensor<1024x!tt.ptr<f32>, #blocked> loc(#loc26)
    %y_8 = tt.addptr %y, %offsets_1 : tensor<1024x!tt.ptr<f32>, #blocked>, tensor<1024xi32, #blocked> loc(#loc26)
    %y_9 = ttg.convert_layout %y_8 : tensor<1024x!tt.ptr<f32>, #blocked> -> tensor<1024x!tt.ptr<f32>, #blocked1> loc(#loc27)
    %y_10 = ttg.convert_layout %mask_2 : tensor<1024xi1, #blocked> -> tensor<1024xi1, #blocked1> loc(#loc27)
    %y_11 = tt.load %y_9, %y_10 : tensor<1024x!tt.ptr<f32>, #blocked1> loc(#loc27)
    %y_12 = ttg.convert_layout %y_11 : tensor<1024xf32, #blocked1> -> tensor<1024xf32, #blocked> loc(#loc27)
    %output = arith.addf %x_7, %y_12 : tensor<1024xf32, #blocked> loc(#loc28)
    %0 = tt.splat %output_ptr : !tt.ptr<f32> -> tensor<1024x!tt.ptr<f32>, #blocked> loc(#loc12)
    %1 = tt.addptr %0, %offsets_1 : tensor<1024x!tt.ptr<f32>, #blocked>, tensor<1024xi32, #blocked> loc(#loc12)
    %2 = ttg.convert_layout %1 : tensor<1024x!tt.ptr<f32>, #blocked> -> tensor<1024x!tt.ptr<f32>, #blocked1> loc(#loc13)
    %3 = ttg.convert_layout %output : tensor<1024xf32, #blocked> -> tensor<1024xf32, #blocked1> loc(#loc13)
    %4 = ttg.convert_layout %mask_2 : tensor<1024xi1, #blocked> -> tensor<1024xi1, #blocked1> loc(#loc13)
    tt.store %2, %3, %4 : tensor<1024x!tt.ptr<f32>, #blocked1> loc(#loc13)
    tt.return loc(#loc14)
  } loc(#loc)
} loc(#loc)
#loc1 = loc(unknown)
#loc2 = loc("/home/jovyan/intel-xpu-backend-for-triton/python/tutorials/01-vector-add.py":39:24)
#loc3 = loc("/home/jovyan/intel-xpu-backend-for-triton/python/tutorials/01-vector-add.py":44:24)
#loc4 = loc("/home/jovyan/intel-xpu-backend-for-triton/python/tutorials/01-vector-add.py":45:41)
#loc5 = loc("/home/jovyan/intel-xpu-backend-for-triton/python/tutorials/01-vector-add.py":45:28)
#loc6 = loc("/home/jovyan/intel-xpu-backend-for-triton/python/tutorials/01-vector-add.py":47:21)
#loc7 = loc("/home/jovyan/intel-xpu-backend-for-triton/python/tutorials/01-vector-add.py":50:24)
#loc8 = loc("/home/jovyan/intel-xpu-backend-for-triton/python/tutorials/01-vector-add.py":50:16)
#loc9 = loc("/home/jovyan/intel-xpu-backend-for-triton/python/tutorials/01-vector-add.py":51:24)
#loc10 = loc("/home/jovyan/intel-xpu-backend-for-triton/python/tutorials/01-vector-add.py":51:16)
#loc11 = loc("/home/jovyan/intel-xpu-backend-for-triton/python/tutorials/01-vector-add.py":52:17)
#loc12 = loc("/home/jovyan/intel-xpu-backend-for-triton/python/tutorials/01-vector-add.py":54:26)
#loc13 = loc("/home/jovyan/intel-xpu-backend-for-triton/python/tutorials/01-vector-add.py":54:35)
#loc14 = loc("/home/jovyan/intel-xpu-backend-for-triton/python/tutorials/01-vector-add.py":54:4)
#loc19 = loc("pid"(#loc2))
#loc20 = loc("block_start"(#loc3))
#loc21 = loc("offsets"(#loc4))
#loc22 = loc("offsets"(#loc5))
#loc23 = loc("mask"(#loc6))
#loc24 = loc("x"(#loc7))
#loc25 = loc("x"(#loc8))
#loc26 = loc("y"(#loc9))
#loc27 = loc("y"(#loc10))
#loc28 = loc("output"(#loc11))


// -----// IR Dump Before TritonIntelGPUAccelerateMatmul (tritonintelgpu-accelerate-matmul) ('builtin.module' operation) //----- //
#blocked = #ttg.blocked<{sizePerThread = [4], threadsPerWarp = [32], warpsPerCTA = [4], order = [0]}>
#loc = loc("/home/jovyan/intel-xpu-backend-for-triton/python/tutorials/01-vector-add.py":30:0)
#loc15 = loc("x_ptr"(#loc))
#loc16 = loc("y_ptr"(#loc))
#loc17 = loc("output_ptr"(#loc))
#loc18 = loc("n_elements"(#loc))
module attributes {"ttg.num-ctas" = 1 : i32, "ttg.num-warps" = 4 : i32, ttg.target = "xpu", "ttg.threads-per-warp" = 32 : i32, ttig.min_sg_size = 16 : i32, ttig.support_2d_block_io, ttig.support_bfloat16_conversion, ttig.support_subgroup_matrix_multiply_accumulate, ttig.target_arch = "spir64"} {
  tt.func public @add_kernel(%x_ptr: !tt.ptr<f32> {tt.divisibility = 16 : i32} loc("x_ptr"(#loc)), %y_ptr: !tt.ptr<f32> {tt.divisibility = 16 : i32} loc("y_ptr"(#loc)), %output_ptr: !tt.ptr<f32> {tt.divisibility = 16 : i32} loc("output_ptr"(#loc)), %n_elements: i32 {tt.divisibility = 16 : i32} loc("n_elements"(#loc))) attributes {noinline = false} {
    %c1024_i32 = arith.constant 1024 : i32 loc(#loc1)
    %pid = tt.get_program_id x : i32 loc(#loc19)
    %block_start = arith.muli %pid, %c1024_i32 : i32 loc(#loc20)
    %offsets = tt.make_range {end = 1024 : i32, start = 0 : i32} : tensor<1024xi32, #blocked> loc(#loc21)
    %offsets_0 = tt.splat %block_start : i32 -> tensor<1024xi32, #blocked> loc(#loc22)
    %offsets_1 = arith.addi %offsets_0, %offsets : tensor<1024xi32, #blocked> loc(#loc22)
    %mask = tt.splat %n_elements : i32 -> tensor<1024xi32, #blocked> loc(#loc23)
    %mask_2 = arith.cmpi slt, %offsets_1, %mask : tensor<1024xi32, #blocked> loc(#loc23)
    %x = tt.splat %x_ptr : !tt.ptr<f32> -> tensor<1024x!tt.ptr<f32>, #blocked> loc(#loc24)
    %x_3 = tt.addptr %x, %offsets_1 : tensor<1024x!tt.ptr<f32>, #blocked>, tensor<1024xi32, #blocked> loc(#loc24)
    %x_4 = tt.load %x_3, %mask_2 : tensor<1024x!tt.ptr<f32>, #blocked> loc(#loc25)
    %y = tt.splat %y_ptr : !tt.ptr<f32> -> tensor<1024x!tt.ptr<f32>, #blocked> loc(#loc26)
    %y_5 = tt.addptr %y, %offsets_1 : tensor<1024x!tt.ptr<f32>, #blocked>, tensor<1024xi32, #blocked> loc(#loc26)
    %y_6 = tt.load %y_5, %mask_2 : tensor<1024x!tt.ptr<f32>, #blocked> loc(#loc27)
    %output = arith.addf %x_4, %y_6 : tensor<1024xf32, #blocked> loc(#loc28)
    %0 = tt.splat %output_ptr : !tt.ptr<f32> -> tensor<1024x!tt.ptr<f32>, #blocked> loc(#loc12)
    %1 = tt.addptr %0, %offsets_1 : tensor<1024x!tt.ptr<f32>, #blocked>, tensor<1024xi32, #blocked> loc(#loc12)
    tt.store %1, %output, %mask_2 : tensor<1024x!tt.ptr<f32>, #blocked> loc(#loc13)
    tt.return loc(#loc14)
  } loc(#loc)
} loc(#loc)
#loc1 = loc(unknown)
#loc2 = loc("/home/jovyan/intel-xpu-backend-for-triton/python/tutorials/01-vector-add.py":39:24)
#loc3 = loc("/home/jovyan/intel-xpu-backend-for-triton/python/tutorials/01-vector-add.py":44:24)
#loc4 = loc("/home/jovyan/intel-xpu-backend-for-triton/python/tutorials/01-vector-add.py":45:41)
#loc5 = loc("/home/jovyan/intel-xpu-backend-for-triton/python/tutorials/01-vector-add.py":45:28)
#loc6 = loc("/home/jovyan/intel-xpu-backend-for-triton/python/tutorials/01-vector-add.py":47:21)
#loc7 = loc("/home/jovyan/intel-xpu-backend-for-triton/python/tutorials/01-vector-add.py":50:24)
#loc8 = loc("/home/jovyan/intel-xpu-backend-for-triton/python/tutorials/01-vector-add.py":50:16)
#loc9 = loc("/home/jovyan/intel-xpu-backend-for-triton/python/tutorials/01-vector-add.py":51:24)
#loc10 = loc("/home/jovyan/intel-xpu-backend-for-triton/python/tutorials/01-vector-add.py":51:16)
#loc11 = loc("/home/jovyan/intel-xpu-backend-for-triton/python/tutorials/01-vector-add.py":52:17)
#loc12 = loc("/home/jovyan/intel-xpu-backend-for-triton/python/tutorials/01-vector-add.py":54:26)
#loc13 = loc("/home/jovyan/intel-xpu-backend-for-triton/python/tutorials/01-vector-add.py":54:35)
#loc14 = loc("/home/jovyan/intel-xpu-backend-for-triton/python/tutorials/01-vector-add.py":54:4)
#loc19 = loc("pid"(#loc2))
#loc20 = loc("block_start"(#loc3))
#loc21 = loc("offsets"(#loc4))
#loc22 = loc("offsets"(#loc5))
#loc23 = loc("mask"(#loc6))
#loc24 = loc("x"(#loc7))
#loc25 = loc("x"(#loc8))
#loc26 = loc("y"(#loc9))
#loc27 = loc("y"(#loc10))
#loc28 = loc("output"(#loc11))


// -----// IR Dump Before TritonIntelGPUMaterializeBlockPointer (tritonintelgpu-materialize-block-pointer) ('builtin.module' operation) //----- //
#blocked = #ttg.blocked<{sizePerThread = [4], threadsPerWarp = [32], warpsPerCTA = [4], order = [0]}>
#loc = loc("/home/jovyan/intel-xpu-backend-for-triton/python/tutorials/01-vector-add.py":30:0)
#loc15 = loc("x_ptr"(#loc))
#loc16 = loc("y_ptr"(#loc))
#loc17 = loc("output_ptr"(#loc))
#loc18 = loc("n_elements"(#loc))
module attributes {"ttg.num-ctas" = 1 : i32, "ttg.num-warps" = 4 : i32, ttg.target = "xpu", "ttg.threads-per-warp" = 32 : i32, ttig.min_sg_size = 16 : i32, ttig.support_2d_block_io, ttig.support_bfloat16_conversion, ttig.support_subgroup_matrix_multiply_accumulate, ttig.target_arch = "spir64"} {
  tt.func public @add_kernel(%x_ptr: !tt.ptr<f32> {tt.divisibility = 16 : i32} loc("x_ptr"(#loc)), %y_ptr: !tt.ptr<f32> {tt.divisibility = 16 : i32} loc("y_ptr"(#loc)), %output_ptr: !tt.ptr<f32> {tt.divisibility = 16 : i32} loc("output_ptr"(#loc)), %n_elements: i32 {tt.divisibility = 16 : i32} loc("n_elements"(#loc))) attributes {noinline = false} {
    %c1024_i32 = arith.constant 1024 : i32 loc(#loc1)
    %pid = tt.get_program_id x : i32 loc(#loc19)
    %block_start = arith.muli %pid, %c1024_i32 : i32 loc(#loc20)
    %offsets = tt.make_range {end = 1024 : i32, start = 0 : i32} : tensor<1024xi32, #blocked> loc(#loc21)
    %offsets_0 = tt.splat %block_start : i32 -> tensor<1024xi32, #blocked> loc(#loc22)
    %offsets_1 = arith.addi %offsets_0, %offsets : tensor<1024xi32, #blocked> loc(#loc22)
    %mask = tt.splat %n_elements : i32 -> tensor<1024xi32, #blocked> loc(#loc23)
    %mask_2 = arith.cmpi slt, %offsets_1, %mask : tensor<1024xi32, #blocked> loc(#loc23)
    %x = tt.splat %x_ptr : !tt.ptr<f32> -> tensor<1024x!tt.ptr<f32>, #blocked> loc(#loc24)
    %x_3 = tt.addptr %x, %offsets_1 : tensor<1024x!tt.ptr<f32>, #blocked>, tensor<1024xi32, #blocked> loc(#loc24)
    %x_4 = tt.load %x_3, %mask_2 : tensor<1024x!tt.ptr<f32>, #blocked> loc(#loc25)
    %y = tt.splat %y_ptr : !tt.ptr<f32> -> tensor<1024x!tt.ptr<f32>, #blocked> loc(#loc26)
    %y_5 = tt.addptr %y, %offsets_1 : tensor<1024x!tt.ptr<f32>, #blocked>, tensor<1024xi32, #blocked> loc(#loc26)
    %y_6 = tt.load %y_5, %mask_2 : tensor<1024x!tt.ptr<f32>, #blocked> loc(#loc27)
    %output = arith.addf %x_4, %y_6 : tensor<1024xf32, #blocked> loc(#loc28)
    %0 = tt.splat %output_ptr : !tt.ptr<f32> -> tensor<1024x!tt.ptr<f32>, #blocked> loc(#loc12)
    %1 = tt.addptr %0, %offsets_1 : tensor<1024x!tt.ptr<f32>, #blocked>, tensor<1024xi32, #blocked> loc(#loc12)
    tt.store %1, %output, %mask_2 : tensor<1024x!tt.ptr<f32>, #blocked> loc(#loc13)
    tt.return loc(#loc14)
  } loc(#loc)
} loc(#loc)
#loc1 = loc(unknown)
#loc2 = loc("/home/jovyan/intel-xpu-backend-for-triton/python/tutorials/01-vector-add.py":39:24)
#loc3 = loc("/home/jovyan/intel-xpu-backend-for-triton/python/tutorials/01-vector-add.py":44:24)
#loc4 = loc("/home/jovyan/intel-xpu-backend-for-triton/python/tutorials/01-vector-add.py":45:41)
#loc5 = loc("/home/jovyan/intel-xpu-backend-for-triton/python/tutorials/01-vector-add.py":45:28)
#loc6 = loc("/home/jovyan/intel-xpu-backend-for-triton/python/tutorials/01-vector-add.py":47:21)
#loc7 = loc("/home/jovyan/intel-xpu-backend-for-triton/python/tutorials/01-vector-add.py":50:24)
#loc8 = loc("/home/jovyan/intel-xpu-backend-for-triton/python/tutorials/01-vector-add.py":50:16)
#loc9 = loc("/home/jovyan/intel-xpu-backend-for-triton/python/tutorials/01-vector-add.py":51:24)
#loc10 = loc("/home/jovyan/intel-xpu-backend-for-triton/python/tutorials/01-vector-add.py":51:16)
#loc11 = loc("/home/jovyan/intel-xpu-backend-for-triton/python/tutorials/01-vector-add.py":52:17)
#loc12 = loc("/home/jovyan/intel-xpu-backend-for-triton/python/tutorials/01-vector-add.py":54:26)
#loc13 = loc("/home/jovyan/intel-xpu-backend-for-triton/python/tutorials/01-vector-add.py":54:35)
#loc14 = loc("/home/jovyan/intel-xpu-backend-for-triton/python/tutorials/01-vector-add.py":54:4)
#loc19 = loc("pid"(#loc2))
#loc20 = loc("block_start"(#loc3))
#loc21 = loc("offsets"(#loc4))
#loc22 = loc("offsets"(#loc5))
#loc23 = loc("mask"(#loc6))
#loc24 = loc("x"(#loc7))
#loc25 = loc("x"(#loc8))
#loc26 = loc("y"(#loc9))
#loc27 = loc("y"(#loc10))
#loc28 = loc("output"(#loc11))


// -----// IR Dump Before TritonIntelGPURemoveLayoutConversions (tritonintelgpu-remove-layout-conversions) ('builtin.module' operation) //----- //
#blocked = #ttg.blocked<{sizePerThread = [4], threadsPerWarp = [32], warpsPerCTA = [4], order = [0]}>
#loc = loc("/home/jovyan/intel-xpu-backend-for-triton/python/tutorials/01-vector-add.py":30:0)
#loc15 = loc("x_ptr"(#loc))
#loc16 = loc("y_ptr"(#loc))
#loc17 = loc("output_ptr"(#loc))
#loc18 = loc("n_elements"(#loc))
module attributes {"ttg.num-ctas" = 1 : i32, "ttg.num-warps" = 4 : i32, ttg.target = "xpu", "ttg.threads-per-warp" = 32 : i32, ttig.min_sg_size = 16 : i32, ttig.support_2d_block_io, ttig.support_bfloat16_conversion, ttig.support_subgroup_matrix_multiply_accumulate, ttig.target_arch = "spir64"} {
  tt.func public @add_kernel(%x_ptr: !tt.ptr<f32> {tt.divisibility = 16 : i32} loc("x_ptr"(#loc)), %y_ptr: !tt.ptr<f32> {tt.divisibility = 16 : i32} loc("y_ptr"(#loc)), %output_ptr: !tt.ptr<f32> {tt.divisibility = 16 : i32} loc("output_ptr"(#loc)), %n_elements: i32 {tt.divisibility = 16 : i32} loc("n_elements"(#loc))) attributes {noinline = false} {
    %c1024_i32 = arith.constant 1024 : i32 loc(#loc1)
    %pid = tt.get_program_id x : i32 loc(#loc19)
    %block_start = arith.muli %pid, %c1024_i32 : i32 loc(#loc20)
    %offsets = tt.make_range {end = 1024 : i32, start = 0 : i32} : tensor<1024xi32, #blocked> loc(#loc21)
    %offsets_0 = tt.splat %block_start : i32 -> tensor<1024xi32, #blocked> loc(#loc22)
    %offsets_1 = arith.addi %offsets_0, %offsets : tensor<1024xi32, #blocked> loc(#loc22)
    %mask = tt.splat %n_elements : i32 -> tensor<1024xi32, #blocked> loc(#loc23)
    %mask_2 = arith.cmpi slt, %offsets_1, %mask : tensor<1024xi32, #blocked> loc(#loc23)
    %x = tt.splat %x_ptr : !tt.ptr<f32> -> tensor<1024x!tt.ptr<f32>, #blocked> loc(#loc24)
    %x_3 = tt.addptr %x, %offsets_1 : tensor<1024x!tt.ptr<f32>, #blocked>, tensor<1024xi32, #blocked> loc(#loc24)
    %x_4 = tt.load %x_3, %mask_2 : tensor<1024x!tt.ptr<f32>, #blocked> loc(#loc25)
    %y = tt.splat %y_ptr : !tt.ptr<f32> -> tensor<1024x!tt.ptr<f32>, #blocked> loc(#loc26)
    %y_5 = tt.addptr %y, %offsets_1 : tensor<1024x!tt.ptr<f32>, #blocked>, tensor<1024xi32, #blocked> loc(#loc26)
    %y_6 = tt.load %y_5, %mask_2 : tensor<1024x!tt.ptr<f32>, #blocked> loc(#loc27)
    %output = arith.addf %x_4, %y_6 : tensor<1024xf32, #blocked> loc(#loc28)
    %0 = tt.splat %output_ptr : !tt.ptr<f32> -> tensor<1024x!tt.ptr<f32>, #blocked> loc(#loc12)
    %1 = tt.addptr %0, %offsets_1 : tensor<1024x!tt.ptr<f32>, #blocked>, tensor<1024xi32, #blocked> loc(#loc12)
    tt.store %1, %output, %mask_2 : tensor<1024x!tt.ptr<f32>, #blocked> loc(#loc13)
    tt.return loc(#loc14)
  } loc(#loc)
} loc(#loc)
#loc1 = loc(unknown)
#loc2 = loc("/home/jovyan/intel-xpu-backend-for-triton/python/tutorials/01-vector-add.py":39:24)
#loc3 = loc("/home/jovyan/intel-xpu-backend-for-triton/python/tutorials/01-vector-add.py":44:24)
#loc4 = loc("/home/jovyan/intel-xpu-backend-for-triton/python/tutorials/01-vector-add.py":45:41)
#loc5 = loc("/home/jovyan/intel-xpu-backend-for-triton/python/tutorials/01-vector-add.py":45:28)
#loc6 = loc("/home/jovyan/intel-xpu-backend-for-triton/python/tutorials/01-vector-add.py":47:21)
#loc7 = loc("/home/jovyan/intel-xpu-backend-for-triton/python/tutorials/01-vector-add.py":50:24)
#loc8 = loc("/home/jovyan/intel-xpu-backend-for-triton/python/tutorials/01-vector-add.py":50:16)
#loc9 = loc("/home/jovyan/intel-xpu-backend-for-triton/python/tutorials/01-vector-add.py":51:24)
#loc10 = loc("/home/jovyan/intel-xpu-backend-for-triton/python/tutorials/01-vector-add.py":51:16)
#loc11 = loc("/home/jovyan/intel-xpu-backend-for-triton/python/tutorials/01-vector-add.py":52:17)
#loc12 = loc("/home/jovyan/intel-xpu-backend-for-triton/python/tutorials/01-vector-add.py":54:26)
#loc13 = loc("/home/jovyan/intel-xpu-backend-for-triton/python/tutorials/01-vector-add.py":54:35)
#loc14 = loc("/home/jovyan/intel-xpu-backend-for-triton/python/tutorials/01-vector-add.py":54:4)
#loc19 = loc("pid"(#loc2))
#loc20 = loc("block_start"(#loc3))
#loc21 = loc("offsets"(#loc4))
#loc22 = loc("offsets"(#loc5))
#loc23 = loc("mask"(#loc6))
#loc24 = loc("x"(#loc7))
#loc25 = loc("x"(#loc8))
#loc26 = loc("y"(#loc9))
#loc27 = loc("y"(#loc10))
#loc28 = loc("output"(#loc11))


// -----// IR Dump Before TritonIntelGPUOptimizeDotOperands (tritonintelgpu-optimize-dot-operands) ('builtin.module' operation) //----- //
#blocked = #ttg.blocked<{sizePerThread = [4], threadsPerWarp = [32], warpsPerCTA = [4], order = [0]}>
#loc = loc("/home/jovyan/intel-xpu-backend-for-triton/python/tutorials/01-vector-add.py":30:0)
#loc15 = loc("x_ptr"(#loc))
#loc16 = loc("y_ptr"(#loc))
#loc17 = loc("output_ptr"(#loc))
#loc18 = loc("n_elements"(#loc))
module attributes {"ttg.num-ctas" = 1 : i32, "ttg.num-warps" = 4 : i32, ttg.target = "xpu", "ttg.threads-per-warp" = 32 : i32, ttig.min_sg_size = 16 : i32, ttig.support_2d_block_io, ttig.support_bfloat16_conversion, ttig.support_subgroup_matrix_multiply_accumulate, ttig.target_arch = "spir64"} {
  tt.func public @add_kernel(%x_ptr: !tt.ptr<f32> {tt.divisibility = 16 : i32} loc("x_ptr"(#loc)), %y_ptr: !tt.ptr<f32> {tt.divisibility = 16 : i32} loc("y_ptr"(#loc)), %output_ptr: !tt.ptr<f32> {tt.divisibility = 16 : i32} loc("output_ptr"(#loc)), %n_elements: i32 {tt.divisibility = 16 : i32} loc("n_elements"(#loc))) attributes {noinline = false} {
    %c1024_i32 = arith.constant 1024 : i32 loc(#loc1)
    %pid = tt.get_program_id x : i32 loc(#loc19)
    %block_start = arith.muli %pid, %c1024_i32 : i32 loc(#loc20)
    %offsets = tt.make_range {end = 1024 : i32, start = 0 : i32} : tensor<1024xi32, #blocked> loc(#loc21)
    %offsets_0 = tt.splat %block_start : i32 -> tensor<1024xi32, #blocked> loc(#loc22)
    %offsets_1 = arith.addi %offsets_0, %offsets : tensor<1024xi32, #blocked> loc(#loc22)
    %mask = tt.splat %n_elements : i32 -> tensor<1024xi32, #blocked> loc(#loc23)
    %mask_2 = arith.cmpi slt, %offsets_1, %mask : tensor<1024xi32, #blocked> loc(#loc23)
    %x = tt.splat %x_ptr : !tt.ptr<f32> -> tensor<1024x!tt.ptr<f32>, #blocked> loc(#loc24)
    %x_3 = tt.addptr %x, %offsets_1 : tensor<1024x!tt.ptr<f32>, #blocked>, tensor<1024xi32, #blocked> loc(#loc24)
    %x_4 = tt.load %x_3, %mask_2 : tensor<1024x!tt.ptr<f32>, #blocked> loc(#loc25)
    %y = tt.splat %y_ptr : !tt.ptr<f32> -> tensor<1024x!tt.ptr<f32>, #blocked> loc(#loc26)
    %y_5 = tt.addptr %y, %offsets_1 : tensor<1024x!tt.ptr<f32>, #blocked>, tensor<1024xi32, #blocked> loc(#loc26)
    %y_6 = tt.load %y_5, %mask_2 : tensor<1024x!tt.ptr<f32>, #blocked> loc(#loc27)
    %output = arith.addf %x_4, %y_6 : tensor<1024xf32, #blocked> loc(#loc28)
    %0 = tt.splat %output_ptr : !tt.ptr<f32> -> tensor<1024x!tt.ptr<f32>, #blocked> loc(#loc12)
    %1 = tt.addptr %0, %offsets_1 : tensor<1024x!tt.ptr<f32>, #blocked>, tensor<1024xi32, #blocked> loc(#loc12)
    tt.store %1, %output, %mask_2 : tensor<1024x!tt.ptr<f32>, #blocked> loc(#loc13)
    tt.return loc(#loc14)
  } loc(#loc)
} loc(#loc)
#loc1 = loc(unknown)
#loc2 = loc("/home/jovyan/intel-xpu-backend-for-triton/python/tutorials/01-vector-add.py":39:24)
#loc3 = loc("/home/jovyan/intel-xpu-backend-for-triton/python/tutorials/01-vector-add.py":44:24)
#loc4 = loc("/home/jovyan/intel-xpu-backend-for-triton/python/tutorials/01-vector-add.py":45:41)
#loc5 = loc("/home/jovyan/intel-xpu-backend-for-triton/python/tutorials/01-vector-add.py":45:28)
#loc6 = loc("/home/jovyan/intel-xpu-backend-for-triton/python/tutorials/01-vector-add.py":47:21)
#loc7 = loc("/home/jovyan/intel-xpu-backend-for-triton/python/tutorials/01-vector-add.py":50:24)
#loc8 = loc("/home/jovyan/intel-xpu-backend-for-triton/python/tutorials/01-vector-add.py":50:16)
#loc9 = loc("/home/jovyan/intel-xpu-backend-for-triton/python/tutorials/01-vector-add.py":51:24)
#loc10 = loc("/home/jovyan/intel-xpu-backend-for-triton/python/tutorials/01-vector-add.py":51:16)
#loc11 = loc("/home/jovyan/intel-xpu-backend-for-triton/python/tutorials/01-vector-add.py":52:17)
#loc12 = loc("/home/jovyan/intel-xpu-backend-for-triton/python/tutorials/01-vector-add.py":54:26)
#loc13 = loc("/home/jovyan/intel-xpu-backend-for-triton/python/tutorials/01-vector-add.py":54:35)
#loc14 = loc("/home/jovyan/intel-xpu-backend-for-triton/python/tutorials/01-vector-add.py":54:4)
#loc19 = loc("pid"(#loc2))
#loc20 = loc("block_start"(#loc3))
#loc21 = loc("offsets"(#loc4))
#loc22 = loc("offsets"(#loc5))
#loc23 = loc("mask"(#loc6))
#loc24 = loc("x"(#loc7))
#loc25 = loc("x"(#loc8))
#loc26 = loc("y"(#loc9))
#loc27 = loc("y"(#loc10))
#loc28 = loc("output"(#loc11))


// -----// IR Dump Before TritonIntelGPUPipeline (tritonintelgpu-pipeline) ('builtin.module' operation) //----- //
#blocked = #ttg.blocked<{sizePerThread = [4], threadsPerWarp = [32], warpsPerCTA = [4], order = [0]}>
#loc = loc("/home/jovyan/intel-xpu-backend-for-triton/python/tutorials/01-vector-add.py":30:0)
#loc15 = loc("x_ptr"(#loc))
#loc16 = loc("y_ptr"(#loc))
#loc17 = loc("output_ptr"(#loc))
#loc18 = loc("n_elements"(#loc))
module attributes {"ttg.num-ctas" = 1 : i32, "ttg.num-warps" = 4 : i32, ttg.target = "xpu", "ttg.threads-per-warp" = 32 : i32, ttig.min_sg_size = 16 : i32, ttig.support_2d_block_io, ttig.support_bfloat16_conversion, ttig.support_subgroup_matrix_multiply_accumulate, ttig.target_arch = "spir64"} {
  tt.func public @add_kernel(%x_ptr: !tt.ptr<f32> {tt.divisibility = 16 : i32} loc("x_ptr"(#loc)), %y_ptr: !tt.ptr<f32> {tt.divisibility = 16 : i32} loc("y_ptr"(#loc)), %output_ptr: !tt.ptr<f32> {tt.divisibility = 16 : i32} loc("output_ptr"(#loc)), %n_elements: i32 {tt.divisibility = 16 : i32} loc("n_elements"(#loc))) attributes {noinline = false} {
    %c1024_i32 = arith.constant 1024 : i32 loc(#loc1)
    %pid = tt.get_program_id x : i32 loc(#loc19)
    %block_start = arith.muli %pid, %c1024_i32 : i32 loc(#loc20)
    %offsets = tt.make_range {end = 1024 : i32, start = 0 : i32} : tensor<1024xi32, #blocked> loc(#loc21)
    %offsets_0 = tt.splat %block_start : i32 -> tensor<1024xi32, #blocked> loc(#loc22)
    %offsets_1 = arith.addi %offsets_0, %offsets : tensor<1024xi32, #blocked> loc(#loc22)
    %mask = tt.splat %n_elements : i32 -> tensor<1024xi32, #blocked> loc(#loc23)
    %mask_2 = arith.cmpi slt, %offsets_1, %mask : tensor<1024xi32, #blocked> loc(#loc23)
    %x = tt.splat %x_ptr : !tt.ptr<f32> -> tensor<1024x!tt.ptr<f32>, #blocked> loc(#loc24)
    %x_3 = tt.addptr %x, %offsets_1 : tensor<1024x!tt.ptr<f32>, #blocked>, tensor<1024xi32, #blocked> loc(#loc24)
    %x_4 = tt.load %x_3, %mask_2 : tensor<1024x!tt.ptr<f32>, #blocked> loc(#loc25)
    %y = tt.splat %y_ptr : !tt.ptr<f32> -> tensor<1024x!tt.ptr<f32>, #blocked> loc(#loc26)
    %y_5 = tt.addptr %y, %offsets_1 : tensor<1024x!tt.ptr<f32>, #blocked>, tensor<1024xi32, #blocked> loc(#loc26)
    %y_6 = tt.load %y_5, %mask_2 : tensor<1024x!tt.ptr<f32>, #blocked> loc(#loc27)
    %output = arith.addf %x_4, %y_6 : tensor<1024xf32, #blocked> loc(#loc28)
    %0 = tt.splat %output_ptr : !tt.ptr<f32> -> tensor<1024x!tt.ptr<f32>, #blocked> loc(#loc12)
    %1 = tt.addptr %0, %offsets_1 : tensor<1024x!tt.ptr<f32>, #blocked>, tensor<1024xi32, #blocked> loc(#loc12)
    tt.store %1, %output, %mask_2 : tensor<1024x!tt.ptr<f32>, #blocked> loc(#loc13)
    tt.return loc(#loc14)
  } loc(#loc)
} loc(#loc)
#loc1 = loc(unknown)
#loc2 = loc("/home/jovyan/intel-xpu-backend-for-triton/python/tutorials/01-vector-add.py":39:24)
#loc3 = loc("/home/jovyan/intel-xpu-backend-for-triton/python/tutorials/01-vector-add.py":44:24)
#loc4 = loc("/home/jovyan/intel-xpu-backend-for-triton/python/tutorials/01-vector-add.py":45:41)
#loc5 = loc("/home/jovyan/intel-xpu-backend-for-triton/python/tutorials/01-vector-add.py":45:28)
#loc6 = loc("/home/jovyan/intel-xpu-backend-for-triton/python/tutorials/01-vector-add.py":47:21)
#loc7 = loc("/home/jovyan/intel-xpu-backend-for-triton/python/tutorials/01-vector-add.py":50:24)
#loc8 = loc("/home/jovyan/intel-xpu-backend-for-triton/python/tutorials/01-vector-add.py":50:16)
#loc9 = loc("/home/jovyan/intel-xpu-backend-for-triton/python/tutorials/01-vector-add.py":51:24)
#loc10 = loc("/home/jovyan/intel-xpu-backend-for-triton/python/tutorials/01-vector-add.py":51:16)
#loc11 = loc("/home/jovyan/intel-xpu-backend-for-triton/python/tutorials/01-vector-add.py":52:17)
#loc12 = loc("/home/jovyan/intel-xpu-backend-for-triton/python/tutorials/01-vector-add.py":54:26)
#loc13 = loc("/home/jovyan/intel-xpu-backend-for-triton/python/tutorials/01-vector-add.py":54:35)
#loc14 = loc("/home/jovyan/intel-xpu-backend-for-triton/python/tutorials/01-vector-add.py":54:4)
#loc19 = loc("pid"(#loc2))
#loc20 = loc("block_start"(#loc3))
#loc21 = loc("offsets"(#loc4))
#loc22 = loc("offsets"(#loc5))
#loc23 = loc("mask"(#loc6))
#loc24 = loc("x"(#loc7))
#loc25 = loc("x"(#loc8))
#loc26 = loc("y"(#loc9))
#loc27 = loc("y"(#loc10))
#loc28 = loc("output"(#loc11))


// -----// IR Dump Before TritonIntelGPUReduceVariableLiveness (tritonintelgpu-reduce-variable-liveness) ('builtin.module' operation) //----- //
#blocked = #ttg.blocked<{sizePerThread = [4], threadsPerWarp = [32], warpsPerCTA = [4], order = [0]}>
#loc = loc("/home/jovyan/intel-xpu-backend-for-triton/python/tutorials/01-vector-add.py":30:0)
#loc15 = loc("x_ptr"(#loc))
#loc16 = loc("y_ptr"(#loc))
#loc17 = loc("output_ptr"(#loc))
#loc18 = loc("n_elements"(#loc))
module attributes {"ttg.num-ctas" = 1 : i32, "ttg.num-warps" = 4 : i32, ttg.target = "xpu", "ttg.threads-per-warp" = 32 : i32, ttig.min_sg_size = 16 : i32, ttig.support_2d_block_io, ttig.support_bfloat16_conversion, ttig.support_subgroup_matrix_multiply_accumulate, ttig.target_arch = "spir64"} {
  tt.func public @add_kernel(%x_ptr: !tt.ptr<f32> {tt.divisibility = 16 : i32} loc("x_ptr"(#loc)), %y_ptr: !tt.ptr<f32> {tt.divisibility = 16 : i32} loc("y_ptr"(#loc)), %output_ptr: !tt.ptr<f32> {tt.divisibility = 16 : i32} loc("output_ptr"(#loc)), %n_elements: i32 {tt.divisibility = 16 : i32} loc("n_elements"(#loc))) attributes {noinline = false} {
    %c1024_i32 = arith.constant 1024 : i32 loc(#loc1)
    %pid = tt.get_program_id x : i32 loc(#loc19)
    %block_start = arith.muli %pid, %c1024_i32 : i32 loc(#loc20)
    %offsets = tt.make_range {end = 1024 : i32, start = 0 : i32} : tensor<1024xi32, #blocked> loc(#loc21)
    %offsets_0 = tt.splat %block_start : i32 -> tensor<1024xi32, #blocked> loc(#loc22)
    %offsets_1 = arith.addi %offsets_0, %offsets : tensor<1024xi32, #blocked> loc(#loc22)
    %mask = tt.splat %n_elements : i32 -> tensor<1024xi32, #blocked> loc(#loc23)
    %mask_2 = arith.cmpi slt, %offsets_1, %mask : tensor<1024xi32, #blocked> loc(#loc23)
    %x = tt.splat %x_ptr : !tt.ptr<f32> -> tensor<1024x!tt.ptr<f32>, #blocked> loc(#loc24)
    %x_3 = tt.addptr %x, %offsets_1 : tensor<1024x!tt.ptr<f32>, #blocked>, tensor<1024xi32, #blocked> loc(#loc24)
    %x_4 = tt.load %x_3, %mask_2 : tensor<1024x!tt.ptr<f32>, #blocked> loc(#loc25)
    %y = tt.splat %y_ptr : !tt.ptr<f32> -> tensor<1024x!tt.ptr<f32>, #blocked> loc(#loc26)
    %y_5 = tt.addptr %y, %offsets_1 : tensor<1024x!tt.ptr<f32>, #blocked>, tensor<1024xi32, #blocked> loc(#loc26)
    %y_6 = tt.load %y_5, %mask_2 : tensor<1024x!tt.ptr<f32>, #blocked> loc(#loc27)
    %output = arith.addf %x_4, %y_6 : tensor<1024xf32, #blocked> loc(#loc28)
    %0 = tt.splat %output_ptr : !tt.ptr<f32> -> tensor<1024x!tt.ptr<f32>, #blocked> loc(#loc12)
    %1 = tt.addptr %0, %offsets_1 : tensor<1024x!tt.ptr<f32>, #blocked>, tensor<1024xi32, #blocked> loc(#loc12)
    tt.store %1, %output, %mask_2 : tensor<1024x!tt.ptr<f32>, #blocked> loc(#loc13)
    tt.return loc(#loc14)
  } loc(#loc)
} loc(#loc)
#loc1 = loc(unknown)
#loc2 = loc("/home/jovyan/intel-xpu-backend-for-triton/python/tutorials/01-vector-add.py":39:24)
#loc3 = loc("/home/jovyan/intel-xpu-backend-for-triton/python/tutorials/01-vector-add.py":44:24)
#loc4 = loc("/home/jovyan/intel-xpu-backend-for-triton/python/tutorials/01-vector-add.py":45:41)
#loc5 = loc("/home/jovyan/intel-xpu-backend-for-triton/python/tutorials/01-vector-add.py":45:28)
#loc6 = loc("/home/jovyan/intel-xpu-backend-for-triton/python/tutorials/01-vector-add.py":47:21)
#loc7 = loc("/home/jovyan/intel-xpu-backend-for-triton/python/tutorials/01-vector-add.py":50:24)
#loc8 = loc("/home/jovyan/intel-xpu-backend-for-triton/python/tutorials/01-vector-add.py":50:16)
#loc9 = loc("/home/jovyan/intel-xpu-backend-for-triton/python/tutorials/01-vector-add.py":51:24)
#loc10 = loc("/home/jovyan/intel-xpu-backend-for-triton/python/tutorials/01-vector-add.py":51:16)
#loc11 = loc("/home/jovyan/intel-xpu-backend-for-triton/python/tutorials/01-vector-add.py":52:17)
#loc12 = loc("/home/jovyan/intel-xpu-backend-for-triton/python/tutorials/01-vector-add.py":54:26)
#loc13 = loc("/home/jovyan/intel-xpu-backend-for-triton/python/tutorials/01-vector-add.py":54:35)
#loc14 = loc("/home/jovyan/intel-xpu-backend-for-triton/python/tutorials/01-vector-add.py":54:4)
#loc19 = loc("pid"(#loc2))
#loc20 = loc("block_start"(#loc3))
#loc21 = loc("offsets"(#loc4))
#loc22 = loc("offsets"(#loc5))
#loc23 = loc("mask"(#loc6))
#loc24 = loc("x"(#loc7))
#loc25 = loc("x"(#loc8))
#loc26 = loc("y"(#loc9))
#loc27 = loc("y"(#loc10))
#loc28 = loc("output"(#loc11))


// -----// IR Dump Before TritonGPUFuseNestedLoops (tritongpu-fuse-nested-loops) ('builtin.module' operation) //----- //
#blocked = #ttg.blocked<{sizePerThread = [4], threadsPerWarp = [32], warpsPerCTA = [4], order = [0]}>
#loc = loc("/home/jovyan/intel-xpu-backend-for-triton/python/tutorials/01-vector-add.py":30:0)
#loc15 = loc("x_ptr"(#loc))
#loc16 = loc("y_ptr"(#loc))
#loc17 = loc("output_ptr"(#loc))
#loc18 = loc("n_elements"(#loc))
module attributes {"ttg.num-ctas" = 1 : i32, "ttg.num-warps" = 4 : i32, ttg.target = "xpu", "ttg.threads-per-warp" = 32 : i32, ttig.min_sg_size = 16 : i32, ttig.support_2d_block_io, ttig.support_bfloat16_conversion, ttig.support_subgroup_matrix_multiply_accumulate, ttig.target_arch = "spir64"} {
  tt.func public @add_kernel(%x_ptr: !tt.ptr<f32> {tt.divisibility = 16 : i32} loc("x_ptr"(#loc)), %y_ptr: !tt.ptr<f32> {tt.divisibility = 16 : i32} loc("y_ptr"(#loc)), %output_ptr: !tt.ptr<f32> {tt.divisibility = 16 : i32} loc("output_ptr"(#loc)), %n_elements: i32 {tt.divisibility = 16 : i32} loc("n_elements"(#loc))) attributes {noinline = false} {
    %c1024_i32 = arith.constant 1024 : i32 loc(#loc1)
    %pid = tt.get_program_id x : i32 loc(#loc19)
    %block_start = arith.muli %pid, %c1024_i32 : i32 loc(#loc20)
    %offsets = tt.make_range {end = 1024 : i32, start = 0 : i32} : tensor<1024xi32, #blocked> loc(#loc21)
    %offsets_0 = tt.splat %block_start : i32 -> tensor<1024xi32, #blocked> loc(#loc22)
    %offsets_1 = arith.addi %offsets_0, %offsets : tensor<1024xi32, #blocked> loc(#loc22)
    %mask = tt.splat %n_elements : i32 -> tensor<1024xi32, #blocked> loc(#loc23)
    %mask_2 = arith.cmpi slt, %offsets_1, %mask : tensor<1024xi32, #blocked> loc(#loc23)
    %x = tt.splat %x_ptr : !tt.ptr<f32> -> tensor<1024x!tt.ptr<f32>, #blocked> loc(#loc24)
    %x_3 = tt.addptr %x, %offsets_1 : tensor<1024x!tt.ptr<f32>, #blocked>, tensor<1024xi32, #blocked> loc(#loc24)
    %x_4 = tt.load %x_3, %mask_2 : tensor<1024x!tt.ptr<f32>, #blocked> loc(#loc25)
    %y = tt.splat %y_ptr : !tt.ptr<f32> -> tensor<1024x!tt.ptr<f32>, #blocked> loc(#loc26)
    %y_5 = tt.addptr %y, %offsets_1 : tensor<1024x!tt.ptr<f32>, #blocked>, tensor<1024xi32, #blocked> loc(#loc26)
    %y_6 = tt.load %y_5, %mask_2 : tensor<1024x!tt.ptr<f32>, #blocked> loc(#loc27)
    %output = arith.addf %x_4, %y_6 : tensor<1024xf32, #blocked> loc(#loc28)
    %0 = tt.splat %output_ptr : !tt.ptr<f32> -> tensor<1024x!tt.ptr<f32>, #blocked> loc(#loc12)
    %1 = tt.addptr %0, %offsets_1 : tensor<1024x!tt.ptr<f32>, #blocked>, tensor<1024xi32, #blocked> loc(#loc12)
    tt.store %1, %output, %mask_2 : tensor<1024x!tt.ptr<f32>, #blocked> loc(#loc13)
    tt.return loc(#loc14)
  } loc(#loc)
} loc(#loc)
#loc1 = loc(unknown)
#loc2 = loc("/home/jovyan/intel-xpu-backend-for-triton/python/tutorials/01-vector-add.py":39:24)
#loc3 = loc("/home/jovyan/intel-xpu-backend-for-triton/python/tutorials/01-vector-add.py":44:24)
#loc4 = loc("/home/jovyan/intel-xpu-backend-for-triton/python/tutorials/01-vector-add.py":45:41)
#loc5 = loc("/home/jovyan/intel-xpu-backend-for-triton/python/tutorials/01-vector-add.py":45:28)
#loc6 = loc("/home/jovyan/intel-xpu-backend-for-triton/python/tutorials/01-vector-add.py":47:21)
#loc7 = loc("/home/jovyan/intel-xpu-backend-for-triton/python/tutorials/01-vector-add.py":50:24)
#loc8 = loc("/home/jovyan/intel-xpu-backend-for-triton/python/tutorials/01-vector-add.py":50:16)
#loc9 = loc("/home/jovyan/intel-xpu-backend-for-triton/python/tutorials/01-vector-add.py":51:24)
#loc10 = loc("/home/jovyan/intel-xpu-backend-for-triton/python/tutorials/01-vector-add.py":51:16)
#loc11 = loc("/home/jovyan/intel-xpu-backend-for-triton/python/tutorials/01-vector-add.py":52:17)
#loc12 = loc("/home/jovyan/intel-xpu-backend-for-triton/python/tutorials/01-vector-add.py":54:26)
#loc13 = loc("/home/jovyan/intel-xpu-backend-for-triton/python/tutorials/01-vector-add.py":54:35)
#loc14 = loc("/home/jovyan/intel-xpu-backend-for-triton/python/tutorials/01-vector-add.py":54:4)
#loc19 = loc("pid"(#loc2))
#loc20 = loc("block_start"(#loc3))
#loc21 = loc("offsets"(#loc4))
#loc22 = loc("offsets"(#loc5))
#loc23 = loc("mask"(#loc6))
#loc24 = loc("x"(#loc7))
#loc25 = loc("x"(#loc8))
#loc26 = loc("y"(#loc9))
#loc27 = loc("y"(#loc10))
#loc28 = loc("output"(#loc11))


// -----// IR Dump Before Canonicalizer (canonicalize) ('builtin.module' operation) //----- //
#blocked = #ttg.blocked<{sizePerThread = [4], threadsPerWarp = [32], warpsPerCTA = [4], order = [0]}>
#loc = loc("/home/jovyan/intel-xpu-backend-for-triton/python/tutorials/01-vector-add.py":30:0)
#loc15 = loc("x_ptr"(#loc))
#loc16 = loc("y_ptr"(#loc))
#loc17 = loc("output_ptr"(#loc))
#loc18 = loc("n_elements"(#loc))
module attributes {"ttg.num-ctas" = 1 : i32, "ttg.num-warps" = 4 : i32, ttg.target = "xpu", "ttg.threads-per-warp" = 32 : i32, ttig.min_sg_size = 16 : i32, ttig.support_2d_block_io, ttig.support_bfloat16_conversion, ttig.support_subgroup_matrix_multiply_accumulate, ttig.target_arch = "spir64"} {
  tt.func public @add_kernel(%x_ptr: !tt.ptr<f32> {tt.divisibility = 16 : i32} loc("x_ptr"(#loc)), %y_ptr: !tt.ptr<f32> {tt.divisibility = 16 : i32} loc("y_ptr"(#loc)), %output_ptr: !tt.ptr<f32> {tt.divisibility = 16 : i32} loc("output_ptr"(#loc)), %n_elements: i32 {tt.divisibility = 16 : i32} loc("n_elements"(#loc))) attributes {noinline = false} {
    %c1024_i32 = arith.constant 1024 : i32 loc(#loc1)
    %pid = tt.get_program_id x : i32 loc(#loc19)
    %block_start = arith.muli %pid, %c1024_i32 : i32 loc(#loc20)
    %offsets = tt.make_range {end = 1024 : i32, start = 0 : i32} : tensor<1024xi32, #blocked> loc(#loc21)
    %offsets_0 = tt.splat %block_start : i32 -> tensor<1024xi32, #blocked> loc(#loc22)
    %offsets_1 = arith.addi %offsets_0, %offsets : tensor<1024xi32, #blocked> loc(#loc22)
    %mask = tt.splat %n_elements : i32 -> tensor<1024xi32, #blocked> loc(#loc23)
    %mask_2 = arith.cmpi slt, %offsets_1, %mask : tensor<1024xi32, #blocked> loc(#loc23)
    %x = tt.splat %x_ptr : !tt.ptr<f32> -> tensor<1024x!tt.ptr<f32>, #blocked> loc(#loc24)
    %x_3 = tt.addptr %x, %offsets_1 : tensor<1024x!tt.ptr<f32>, #blocked>, tensor<1024xi32, #blocked> loc(#loc24)
    %x_4 = tt.load %x_3, %mask_2 : tensor<1024x!tt.ptr<f32>, #blocked> loc(#loc25)
    %y = tt.splat %y_ptr : !tt.ptr<f32> -> tensor<1024x!tt.ptr<f32>, #blocked> loc(#loc26)
    %y_5 = tt.addptr %y, %offsets_1 : tensor<1024x!tt.ptr<f32>, #blocked>, tensor<1024xi32, #blocked> loc(#loc26)
    %y_6 = tt.load %y_5, %mask_2 : tensor<1024x!tt.ptr<f32>, #blocked> loc(#loc27)
    %output = arith.addf %x_4, %y_6 : tensor<1024xf32, #blocked> loc(#loc28)
    %0 = tt.splat %output_ptr : !tt.ptr<f32> -> tensor<1024x!tt.ptr<f32>, #blocked> loc(#loc12)
    %1 = tt.addptr %0, %offsets_1 : tensor<1024x!tt.ptr<f32>, #blocked>, tensor<1024xi32, #blocked> loc(#loc12)
    tt.store %1, %output, %mask_2 : tensor<1024x!tt.ptr<f32>, #blocked> loc(#loc13)
    tt.return loc(#loc14)
  } loc(#loc)
} loc(#loc)
#loc1 = loc(unknown)
#loc2 = loc("/home/jovyan/intel-xpu-backend-for-triton/python/tutorials/01-vector-add.py":39:24)
#loc3 = loc("/home/jovyan/intel-xpu-backend-for-triton/python/tutorials/01-vector-add.py":44:24)
#loc4 = loc("/home/jovyan/intel-xpu-backend-for-triton/python/tutorials/01-vector-add.py":45:41)
#loc5 = loc("/home/jovyan/intel-xpu-backend-for-triton/python/tutorials/01-vector-add.py":45:28)
#loc6 = loc("/home/jovyan/intel-xpu-backend-for-triton/python/tutorials/01-vector-add.py":47:21)
#loc7 = loc("/home/jovyan/intel-xpu-backend-for-triton/python/tutorials/01-vector-add.py":50:24)
#loc8 = loc("/home/jovyan/intel-xpu-backend-for-triton/python/tutorials/01-vector-add.py":50:16)
#loc9 = loc("/home/jovyan/intel-xpu-backend-for-triton/python/tutorials/01-vector-add.py":51:24)
#loc10 = loc("/home/jovyan/intel-xpu-backend-for-triton/python/tutorials/01-vector-add.py":51:16)
#loc11 = loc("/home/jovyan/intel-xpu-backend-for-triton/python/tutorials/01-vector-add.py":52:17)
#loc12 = loc("/home/jovyan/intel-xpu-backend-for-triton/python/tutorials/01-vector-add.py":54:26)
#loc13 = loc("/home/jovyan/intel-xpu-backend-for-triton/python/tutorials/01-vector-add.py":54:35)
#loc14 = loc("/home/jovyan/intel-xpu-backend-for-triton/python/tutorials/01-vector-add.py":54:4)
#loc19 = loc("pid"(#loc2))
#loc20 = loc("block_start"(#loc3))
#loc21 = loc("offsets"(#loc4))
#loc22 = loc("offsets"(#loc5))
#loc23 = loc("mask"(#loc6))
#loc24 = loc("x"(#loc7))
#loc25 = loc("x"(#loc8))
#loc26 = loc("y"(#loc9))
#loc27 = loc("y"(#loc10))
#loc28 = loc("output"(#loc11))


// -----// IR Dump Before TritonLoopInvariantCodeMotion (triton-licm) ('builtin.module' operation) //----- //
#blocked = #ttg.blocked<{sizePerThread = [4], threadsPerWarp = [32], warpsPerCTA = [4], order = [0]}>
#loc = loc("/home/jovyan/intel-xpu-backend-for-triton/python/tutorials/01-vector-add.py":30:0)
#loc15 = loc("x_ptr"(#loc))
#loc16 = loc("y_ptr"(#loc))
#loc17 = loc("output_ptr"(#loc))
#loc18 = loc("n_elements"(#loc))
module attributes {"ttg.num-ctas" = 1 : i32, "ttg.num-warps" = 4 : i32, ttg.target = "xpu", "ttg.threads-per-warp" = 32 : i32, ttig.min_sg_size = 16 : i32, ttig.support_2d_block_io, ttig.support_bfloat16_conversion, ttig.support_subgroup_matrix_multiply_accumulate, ttig.target_arch = "spir64"} {
  tt.func public @add_kernel(%x_ptr: !tt.ptr<f32> {tt.divisibility = 16 : i32} loc("x_ptr"(#loc)), %y_ptr: !tt.ptr<f32> {tt.divisibility = 16 : i32} loc("y_ptr"(#loc)), %output_ptr: !tt.ptr<f32> {tt.divisibility = 16 : i32} loc("output_ptr"(#loc)), %n_elements: i32 {tt.divisibility = 16 : i32} loc("n_elements"(#loc))) attributes {noinline = false} {
    %c1024_i32 = arith.constant 1024 : i32 loc(#loc1)
    %pid = tt.get_program_id x : i32 loc(#loc19)
    %block_start = arith.muli %pid, %c1024_i32 : i32 loc(#loc20)
    %offsets = tt.make_range {end = 1024 : i32, start = 0 : i32} : tensor<1024xi32, #blocked> loc(#loc21)
    %offsets_0 = tt.splat %block_start : i32 -> tensor<1024xi32, #blocked> loc(#loc22)
    %offsets_1 = arith.addi %offsets_0, %offsets : tensor<1024xi32, #blocked> loc(#loc22)
    %mask = tt.splat %n_elements : i32 -> tensor<1024xi32, #blocked> loc(#loc23)
    %mask_2 = arith.cmpi slt, %offsets_1, %mask : tensor<1024xi32, #blocked> loc(#loc23)
    %x = tt.splat %x_ptr : !tt.ptr<f32> -> tensor<1024x!tt.ptr<f32>, #blocked> loc(#loc24)
    %x_3 = tt.addptr %x, %offsets_1 : tensor<1024x!tt.ptr<f32>, #blocked>, tensor<1024xi32, #blocked> loc(#loc24)
    %x_4 = tt.load %x_3, %mask_2 : tensor<1024x!tt.ptr<f32>, #blocked> loc(#loc25)
    %y = tt.splat %y_ptr : !tt.ptr<f32> -> tensor<1024x!tt.ptr<f32>, #blocked> loc(#loc26)
    %y_5 = tt.addptr %y, %offsets_1 : tensor<1024x!tt.ptr<f32>, #blocked>, tensor<1024xi32, #blocked> loc(#loc26)
    %y_6 = tt.load %y_5, %mask_2 : tensor<1024x!tt.ptr<f32>, #blocked> loc(#loc27)
    %output = arith.addf %x_4, %y_6 : tensor<1024xf32, #blocked> loc(#loc28)
    %0 = tt.splat %output_ptr : !tt.ptr<f32> -> tensor<1024x!tt.ptr<f32>, #blocked> loc(#loc12)
    %1 = tt.addptr %0, %offsets_1 : tensor<1024x!tt.ptr<f32>, #blocked>, tensor<1024xi32, #blocked> loc(#loc12)
    tt.store %1, %output, %mask_2 : tensor<1024x!tt.ptr<f32>, #blocked> loc(#loc13)
    tt.return loc(#loc14)
  } loc(#loc)
} loc(#loc)
#loc1 = loc(unknown)
#loc2 = loc("/home/jovyan/intel-xpu-backend-for-triton/python/tutorials/01-vector-add.py":39:24)
#loc3 = loc("/home/jovyan/intel-xpu-backend-for-triton/python/tutorials/01-vector-add.py":44:24)
#loc4 = loc("/home/jovyan/intel-xpu-backend-for-triton/python/tutorials/01-vector-add.py":45:41)
#loc5 = loc("/home/jovyan/intel-xpu-backend-for-triton/python/tutorials/01-vector-add.py":45:28)
#loc6 = loc("/home/jovyan/intel-xpu-backend-for-triton/python/tutorials/01-vector-add.py":47:21)
#loc7 = loc("/home/jovyan/intel-xpu-backend-for-triton/python/tutorials/01-vector-add.py":50:24)
#loc8 = loc("/home/jovyan/intel-xpu-backend-for-triton/python/tutorials/01-vector-add.py":50:16)
#loc9 = loc("/home/jovyan/intel-xpu-backend-for-triton/python/tutorials/01-vector-add.py":51:24)
#loc10 = loc("/home/jovyan/intel-xpu-backend-for-triton/python/tutorials/01-vector-add.py":51:16)
#loc11 = loc("/home/jovyan/intel-xpu-backend-for-triton/python/tutorials/01-vector-add.py":52:17)
#loc12 = loc("/home/jovyan/intel-xpu-backend-for-triton/python/tutorials/01-vector-add.py":54:26)
#loc13 = loc("/home/jovyan/intel-xpu-backend-for-triton/python/tutorials/01-vector-add.py":54:35)
#loc14 = loc("/home/jovyan/intel-xpu-backend-for-triton/python/tutorials/01-vector-add.py":54:4)
#loc19 = loc("pid"(#loc2))
#loc20 = loc("block_start"(#loc3))
#loc21 = loc("offsets"(#loc4))
#loc22 = loc("offsets"(#loc5))
#loc23 = loc("mask"(#loc6))
#loc24 = loc("x"(#loc7))
#loc25 = loc("x"(#loc8))
#loc26 = loc("y"(#loc9))
#loc27 = loc("y"(#loc10))
#loc28 = loc("output"(#loc11))


// -----// IR Dump Before Canonicalizer (canonicalize) ('builtin.module' operation) //----- //
#blocked = #ttg.blocked<{sizePerThread = [4], threadsPerWarp = [32], warpsPerCTA = [4], order = [0]}>
#loc = loc("/home/jovyan/intel-xpu-backend-for-triton/python/tutorials/01-vector-add.py":30:0)
#loc15 = loc("x_ptr"(#loc))
#loc16 = loc("y_ptr"(#loc))
#loc17 = loc("output_ptr"(#loc))
#loc18 = loc("n_elements"(#loc))
module attributes {"ttg.num-ctas" = 1 : i32, "ttg.num-warps" = 4 : i32, ttg.target = "xpu", "ttg.threads-per-warp" = 32 : i32, ttig.min_sg_size = 16 : i32, ttig.support_2d_block_io, ttig.support_bfloat16_conversion, ttig.support_subgroup_matrix_multiply_accumulate, ttig.target_arch = "spir64"} {
  tt.func public @add_kernel(%x_ptr: !tt.ptr<f32> {tt.divisibility = 16 : i32} loc("x_ptr"(#loc)), %y_ptr: !tt.ptr<f32> {tt.divisibility = 16 : i32} loc("y_ptr"(#loc)), %output_ptr: !tt.ptr<f32> {tt.divisibility = 16 : i32} loc("output_ptr"(#loc)), %n_elements: i32 {tt.divisibility = 16 : i32} loc("n_elements"(#loc))) attributes {noinline = false} {
    %c1024_i32 = arith.constant 1024 : i32 loc(#loc1)
    %pid = tt.get_program_id x : i32 loc(#loc19)
    %block_start = arith.muli %pid, %c1024_i32 : i32 loc(#loc20)
    %offsets = tt.make_range {end = 1024 : i32, start = 0 : i32} : tensor<1024xi32, #blocked> loc(#loc21)
    %offsets_0 = tt.splat %block_start : i32 -> tensor<1024xi32, #blocked> loc(#loc22)
    %offsets_1 = arith.addi %offsets_0, %offsets : tensor<1024xi32, #blocked> loc(#loc22)
    %mask = tt.splat %n_elements : i32 -> tensor<1024xi32, #blocked> loc(#loc23)
    %mask_2 = arith.cmpi slt, %offsets_1, %mask : tensor<1024xi32, #blocked> loc(#loc23)
    %x = tt.splat %x_ptr : !tt.ptr<f32> -> tensor<1024x!tt.ptr<f32>, #blocked> loc(#loc24)
    %x_3 = tt.addptr %x, %offsets_1 : tensor<1024x!tt.ptr<f32>, #blocked>, tensor<1024xi32, #blocked> loc(#loc24)
    %x_4 = tt.load %x_3, %mask_2 : tensor<1024x!tt.ptr<f32>, #blocked> loc(#loc25)
    %y = tt.splat %y_ptr : !tt.ptr<f32> -> tensor<1024x!tt.ptr<f32>, #blocked> loc(#loc26)
    %y_5 = tt.addptr %y, %offsets_1 : tensor<1024x!tt.ptr<f32>, #blocked>, tensor<1024xi32, #blocked> loc(#loc26)
    %y_6 = tt.load %y_5, %mask_2 : tensor<1024x!tt.ptr<f32>, #blocked> loc(#loc27)
    %output = arith.addf %x_4, %y_6 : tensor<1024xf32, #blocked> loc(#loc28)
    %0 = tt.splat %output_ptr : !tt.ptr<f32> -> tensor<1024x!tt.ptr<f32>, #blocked> loc(#loc12)
    %1 = tt.addptr %0, %offsets_1 : tensor<1024x!tt.ptr<f32>, #blocked>, tensor<1024xi32, #blocked> loc(#loc12)
    tt.store %1, %output, %mask_2 : tensor<1024x!tt.ptr<f32>, #blocked> loc(#loc13)
    tt.return loc(#loc14)
  } loc(#loc)
} loc(#loc)
#loc1 = loc(unknown)
#loc2 = loc("/home/jovyan/intel-xpu-backend-for-triton/python/tutorials/01-vector-add.py":39:24)
#loc3 = loc("/home/jovyan/intel-xpu-backend-for-triton/python/tutorials/01-vector-add.py":44:24)
#loc4 = loc("/home/jovyan/intel-xpu-backend-for-triton/python/tutorials/01-vector-add.py":45:41)
#loc5 = loc("/home/jovyan/intel-xpu-backend-for-triton/python/tutorials/01-vector-add.py":45:28)
#loc6 = loc("/home/jovyan/intel-xpu-backend-for-triton/python/tutorials/01-vector-add.py":47:21)
#loc7 = loc("/home/jovyan/intel-xpu-backend-for-triton/python/tutorials/01-vector-add.py":50:24)
#loc8 = loc("/home/jovyan/intel-xpu-backend-for-triton/python/tutorials/01-vector-add.py":50:16)
#loc9 = loc("/home/jovyan/intel-xpu-backend-for-triton/python/tutorials/01-vector-add.py":51:24)
#loc10 = loc("/home/jovyan/intel-xpu-backend-for-triton/python/tutorials/01-vector-add.py":51:16)
#loc11 = loc("/home/jovyan/intel-xpu-backend-for-triton/python/tutorials/01-vector-add.py":52:17)
#loc12 = loc("/home/jovyan/intel-xpu-backend-for-triton/python/tutorials/01-vector-add.py":54:26)
#loc13 = loc("/home/jovyan/intel-xpu-backend-for-triton/python/tutorials/01-vector-add.py":54:35)
#loc14 = loc("/home/jovyan/intel-xpu-backend-for-triton/python/tutorials/01-vector-add.py":54:4)
#loc19 = loc("pid"(#loc2))
#loc20 = loc("block_start"(#loc3))
#loc21 = loc("offsets"(#loc4))
#loc22 = loc("offsets"(#loc5))
#loc23 = loc("mask"(#loc6))
#loc24 = loc("x"(#loc7))
#loc25 = loc("x"(#loc8))
#loc26 = loc("y"(#loc9))
#loc27 = loc("y"(#loc10))
#loc28 = loc("output"(#loc11))


// -----// IR Dump Before TritonGPUCombineTensorSelectAndIf (tritongpu-combine-tensor-select-and-if) ('builtin.module' operation) //----- //
#blocked = #ttg.blocked<{sizePerThread = [4], threadsPerWarp = [32], warpsPerCTA = [4], order = [0]}>
#loc = loc("/home/jovyan/intel-xpu-backend-for-triton/python/tutorials/01-vector-add.py":30:0)
#loc15 = loc("x_ptr"(#loc))
#loc16 = loc("y_ptr"(#loc))
#loc17 = loc("output_ptr"(#loc))
#loc18 = loc("n_elements"(#loc))
module attributes {"ttg.num-ctas" = 1 : i32, "ttg.num-warps" = 4 : i32, ttg.target = "xpu", "ttg.threads-per-warp" = 32 : i32, ttig.min_sg_size = 16 : i32, ttig.support_2d_block_io, ttig.support_bfloat16_conversion, ttig.support_subgroup_matrix_multiply_accumulate, ttig.target_arch = "spir64"} {
  tt.func public @add_kernel(%x_ptr: !tt.ptr<f32> {tt.divisibility = 16 : i32} loc("x_ptr"(#loc)), %y_ptr: !tt.ptr<f32> {tt.divisibility = 16 : i32} loc("y_ptr"(#loc)), %output_ptr: !tt.ptr<f32> {tt.divisibility = 16 : i32} loc("output_ptr"(#loc)), %n_elements: i32 {tt.divisibility = 16 : i32} loc("n_elements"(#loc))) attributes {noinline = false} {
    %c1024_i32 = arith.constant 1024 : i32 loc(#loc1)
    %pid = tt.get_program_id x : i32 loc(#loc19)
    %block_start = arith.muli %pid, %c1024_i32 : i32 loc(#loc20)
    %offsets = tt.make_range {end = 1024 : i32, start = 0 : i32} : tensor<1024xi32, #blocked> loc(#loc21)
    %offsets_0 = tt.splat %block_start : i32 -> tensor<1024xi32, #blocked> loc(#loc22)
    %offsets_1 = arith.addi %offsets_0, %offsets : tensor<1024xi32, #blocked> loc(#loc22)
    %mask = tt.splat %n_elements : i32 -> tensor<1024xi32, #blocked> loc(#loc23)
    %mask_2 = arith.cmpi slt, %offsets_1, %mask : tensor<1024xi32, #blocked> loc(#loc23)
    %x = tt.splat %x_ptr : !tt.ptr<f32> -> tensor<1024x!tt.ptr<f32>, #blocked> loc(#loc24)
    %x_3 = tt.addptr %x, %offsets_1 : tensor<1024x!tt.ptr<f32>, #blocked>, tensor<1024xi32, #blocked> loc(#loc24)
    %x_4 = tt.load %x_3, %mask_2 : tensor<1024x!tt.ptr<f32>, #blocked> loc(#loc25)
    %y = tt.splat %y_ptr : !tt.ptr<f32> -> tensor<1024x!tt.ptr<f32>, #blocked> loc(#loc26)
    %y_5 = tt.addptr %y, %offsets_1 : tensor<1024x!tt.ptr<f32>, #blocked>, tensor<1024xi32, #blocked> loc(#loc26)
    %y_6 = tt.load %y_5, %mask_2 : tensor<1024x!tt.ptr<f32>, #blocked> loc(#loc27)
    %output = arith.addf %x_4, %y_6 : tensor<1024xf32, #blocked> loc(#loc28)
    %0 = tt.splat %output_ptr : !tt.ptr<f32> -> tensor<1024x!tt.ptr<f32>, #blocked> loc(#loc12)
    %1 = tt.addptr %0, %offsets_1 : tensor<1024x!tt.ptr<f32>, #blocked>, tensor<1024xi32, #blocked> loc(#loc12)
    tt.store %1, %output, %mask_2 : tensor<1024x!tt.ptr<f32>, #blocked> loc(#loc13)
    tt.return loc(#loc14)
  } loc(#loc)
} loc(#loc)
#loc1 = loc(unknown)
#loc2 = loc("/home/jovyan/intel-xpu-backend-for-triton/python/tutorials/01-vector-add.py":39:24)
#loc3 = loc("/home/jovyan/intel-xpu-backend-for-triton/python/tutorials/01-vector-add.py":44:24)
#loc4 = loc("/home/jovyan/intel-xpu-backend-for-triton/python/tutorials/01-vector-add.py":45:41)
#loc5 = loc("/home/jovyan/intel-xpu-backend-for-triton/python/tutorials/01-vector-add.py":45:28)
#loc6 = loc("/home/jovyan/intel-xpu-backend-for-triton/python/tutorials/01-vector-add.py":47:21)
#loc7 = loc("/home/jovyan/intel-xpu-backend-for-triton/python/tutorials/01-vector-add.py":50:24)
#loc8 = loc("/home/jovyan/intel-xpu-backend-for-triton/python/tutorials/01-vector-add.py":50:16)
#loc9 = loc("/home/jovyan/intel-xpu-backend-for-triton/python/tutorials/01-vector-add.py":51:24)
#loc10 = loc("/home/jovyan/intel-xpu-backend-for-triton/python/tutorials/01-vector-add.py":51:16)
#loc11 = loc("/home/jovyan/intel-xpu-backend-for-triton/python/tutorials/01-vector-add.py":52:17)
#loc12 = loc("/home/jovyan/intel-xpu-backend-for-triton/python/tutorials/01-vector-add.py":54:26)
#loc13 = loc("/home/jovyan/intel-xpu-backend-for-triton/python/tutorials/01-vector-add.py":54:35)
#loc14 = loc("/home/jovyan/intel-xpu-backend-for-triton/python/tutorials/01-vector-add.py":54:4)
#loc19 = loc("pid"(#loc2))
#loc20 = loc("block_start"(#loc3))
#loc21 = loc("offsets"(#loc4))
#loc22 = loc("offsets"(#loc5))
#loc23 = loc("mask"(#loc6))
#loc24 = loc("x"(#loc7))
#loc25 = loc("x"(#loc8))
#loc26 = loc("y"(#loc9))
#loc27 = loc("y"(#loc10))
#loc28 = loc("output"(#loc11))


// -----// IR Dump Before TritonGPUOptimizeThreadLocality (tritongpu-optimize-thread-locality) ('builtin.module' operation) //----- //
#blocked = #ttg.blocked<{sizePerThread = [4], threadsPerWarp = [32], warpsPerCTA = [4], order = [0]}>
#loc = loc("/home/jovyan/intel-xpu-backend-for-triton/python/tutorials/01-vector-add.py":30:0)
#loc15 = loc("x_ptr"(#loc))
#loc16 = loc("y_ptr"(#loc))
#loc17 = loc("output_ptr"(#loc))
#loc18 = loc("n_elements"(#loc))
module attributes {"ttg.num-ctas" = 1 : i32, "ttg.num-warps" = 4 : i32, ttg.target = "xpu", "ttg.threads-per-warp" = 32 : i32, ttig.min_sg_size = 16 : i32, ttig.support_2d_block_io, ttig.support_bfloat16_conversion, ttig.support_subgroup_matrix_multiply_accumulate, ttig.target_arch = "spir64"} {
  tt.func public @add_kernel(%x_ptr: !tt.ptr<f32> {tt.divisibility = 16 : i32} loc("x_ptr"(#loc)), %y_ptr: !tt.ptr<f32> {tt.divisibility = 16 : i32} loc("y_ptr"(#loc)), %output_ptr: !tt.ptr<f32> {tt.divisibility = 16 : i32} loc("output_ptr"(#loc)), %n_elements: i32 {tt.divisibility = 16 : i32} loc("n_elements"(#loc))) attributes {noinline = false} {
    %c1024_i32 = arith.constant 1024 : i32 loc(#loc1)
    %pid = tt.get_program_id x : i32 loc(#loc19)
    %block_start = arith.muli %pid, %c1024_i32 : i32 loc(#loc20)
    %offsets = tt.make_range {end = 1024 : i32, start = 0 : i32} : tensor<1024xi32, #blocked> loc(#loc21)
    %offsets_0 = tt.splat %block_start : i32 -> tensor<1024xi32, #blocked> loc(#loc22)
    %offsets_1 = arith.addi %offsets_0, %offsets : tensor<1024xi32, #blocked> loc(#loc22)
    %mask = tt.splat %n_elements : i32 -> tensor<1024xi32, #blocked> loc(#loc23)
    %mask_2 = arith.cmpi slt, %offsets_1, %mask : tensor<1024xi32, #blocked> loc(#loc23)
    %x = tt.splat %x_ptr : !tt.ptr<f32> -> tensor<1024x!tt.ptr<f32>, #blocked> loc(#loc24)
    %x_3 = tt.addptr %x, %offsets_1 : tensor<1024x!tt.ptr<f32>, #blocked>, tensor<1024xi32, #blocked> loc(#loc24)
    %x_4 = tt.load %x_3, %mask_2 : tensor<1024x!tt.ptr<f32>, #blocked> loc(#loc25)
    %y = tt.splat %y_ptr : !tt.ptr<f32> -> tensor<1024x!tt.ptr<f32>, #blocked> loc(#loc26)
    %y_5 = tt.addptr %y, %offsets_1 : tensor<1024x!tt.ptr<f32>, #blocked>, tensor<1024xi32, #blocked> loc(#loc26)
    %y_6 = tt.load %y_5, %mask_2 : tensor<1024x!tt.ptr<f32>, #blocked> loc(#loc27)
    %output = arith.addf %x_4, %y_6 : tensor<1024xf32, #blocked> loc(#loc28)
    %0 = tt.splat %output_ptr : !tt.ptr<f32> -> tensor<1024x!tt.ptr<f32>, #blocked> loc(#loc12)
    %1 = tt.addptr %0, %offsets_1 : tensor<1024x!tt.ptr<f32>, #blocked>, tensor<1024xi32, #blocked> loc(#loc12)
    tt.store %1, %output, %mask_2 : tensor<1024x!tt.ptr<f32>, #blocked> loc(#loc13)
    tt.return loc(#loc14)
  } loc(#loc)
} loc(#loc)
#loc1 = loc(unknown)
#loc2 = loc("/home/jovyan/intel-xpu-backend-for-triton/python/tutorials/01-vector-add.py":39:24)
#loc3 = loc("/home/jovyan/intel-xpu-backend-for-triton/python/tutorials/01-vector-add.py":44:24)
#loc4 = loc("/home/jovyan/intel-xpu-backend-for-triton/python/tutorials/01-vector-add.py":45:41)
#loc5 = loc("/home/jovyan/intel-xpu-backend-for-triton/python/tutorials/01-vector-add.py":45:28)
#loc6 = loc("/home/jovyan/intel-xpu-backend-for-triton/python/tutorials/01-vector-add.py":47:21)
#loc7 = loc("/home/jovyan/intel-xpu-backend-for-triton/python/tutorials/01-vector-add.py":50:24)
#loc8 = loc("/home/jovyan/intel-xpu-backend-for-triton/python/tutorials/01-vector-add.py":50:16)
#loc9 = loc("/home/jovyan/intel-xpu-backend-for-triton/python/tutorials/01-vector-add.py":51:24)
#loc10 = loc("/home/jovyan/intel-xpu-backend-for-triton/python/tutorials/01-vector-add.py":51:16)
#loc11 = loc("/home/jovyan/intel-xpu-backend-for-triton/python/tutorials/01-vector-add.py":52:17)
#loc12 = loc("/home/jovyan/intel-xpu-backend-for-triton/python/tutorials/01-vector-add.py":54:26)
#loc13 = loc("/home/jovyan/intel-xpu-backend-for-triton/python/tutorials/01-vector-add.py":54:35)
#loc14 = loc("/home/jovyan/intel-xpu-backend-for-triton/python/tutorials/01-vector-add.py":54:4)
#loc19 = loc("pid"(#loc2))
#loc20 = loc("block_start"(#loc3))
#loc21 = loc("offsets"(#loc4))
#loc22 = loc("offsets"(#loc5))
#loc23 = loc("mask"(#loc6))
#loc24 = loc("x"(#loc7))
#loc25 = loc("x"(#loc8))
#loc26 = loc("y"(#loc9))
#loc27 = loc("y"(#loc10))
#loc28 = loc("output"(#loc11))


// -----// IR Dump Before TritonGPUOptimizeDotOperands (tritongpu-optimize-dot-operands) ('builtin.module' operation) //----- //
#blocked = #ttg.blocked<{sizePerThread = [4], threadsPerWarp = [32], warpsPerCTA = [4], order = [0]}>
#loc = loc("/home/jovyan/intel-xpu-backend-for-triton/python/tutorials/01-vector-add.py":30:0)
#loc15 = loc("x_ptr"(#loc))
#loc16 = loc("y_ptr"(#loc))
#loc17 = loc("output_ptr"(#loc))
#loc18 = loc("n_elements"(#loc))
module attributes {"ttg.num-ctas" = 1 : i32, "ttg.num-warps" = 4 : i32, ttg.target = "xpu", "ttg.threads-per-warp" = 32 : i32, ttig.min_sg_size = 16 : i32, ttig.support_2d_block_io, ttig.support_bfloat16_conversion, ttig.support_subgroup_matrix_multiply_accumulate, ttig.target_arch = "spir64"} {
  tt.func public @add_kernel(%x_ptr: !tt.ptr<f32> {tt.divisibility = 16 : i32} loc("x_ptr"(#loc)), %y_ptr: !tt.ptr<f32> {tt.divisibility = 16 : i32} loc("y_ptr"(#loc)), %output_ptr: !tt.ptr<f32> {tt.divisibility = 16 : i32} loc("output_ptr"(#loc)), %n_elements: i32 {tt.divisibility = 16 : i32} loc("n_elements"(#loc))) attributes {noinline = false} {
    %c1024_i32 = arith.constant 1024 : i32 loc(#loc1)
    %pid = tt.get_program_id x : i32 loc(#loc19)
    %block_start = arith.muli %pid, %c1024_i32 : i32 loc(#loc20)
    %offsets = tt.make_range {end = 1024 : i32, start = 0 : i32} : tensor<1024xi32, #blocked> loc(#loc21)
    %offsets_0 = tt.splat %block_start : i32 -> tensor<1024xi32, #blocked> loc(#loc22)
    %offsets_1 = arith.addi %offsets_0, %offsets : tensor<1024xi32, #blocked> loc(#loc22)
    %mask = tt.splat %n_elements : i32 -> tensor<1024xi32, #blocked> loc(#loc23)
    %mask_2 = arith.cmpi slt, %offsets_1, %mask : tensor<1024xi32, #blocked> loc(#loc23)
    %x = tt.splat %x_ptr : !tt.ptr<f32> -> tensor<1024x!tt.ptr<f32>, #blocked> loc(#loc24)
    %x_3 = tt.addptr %x, %offsets_1 : tensor<1024x!tt.ptr<f32>, #blocked>, tensor<1024xi32, #blocked> loc(#loc24)
    %x_4 = tt.load %x_3, %mask_2 : tensor<1024x!tt.ptr<f32>, #blocked> loc(#loc25)
    %y = tt.splat %y_ptr : !tt.ptr<f32> -> tensor<1024x!tt.ptr<f32>, #blocked> loc(#loc26)
    %y_5 = tt.addptr %y, %offsets_1 : tensor<1024x!tt.ptr<f32>, #blocked>, tensor<1024xi32, #blocked> loc(#loc26)
    %y_6 = tt.load %y_5, %mask_2 : tensor<1024x!tt.ptr<f32>, #blocked> loc(#loc27)
    %output = arith.addf %x_4, %y_6 : tensor<1024xf32, #blocked> loc(#loc28)
    %0 = tt.splat %output_ptr : !tt.ptr<f32> -> tensor<1024x!tt.ptr<f32>, #blocked> loc(#loc12)
    %1 = tt.addptr %0, %offsets_1 : tensor<1024x!tt.ptr<f32>, #blocked>, tensor<1024xi32, #blocked> loc(#loc12)
    tt.store %1, %output, %mask_2 : tensor<1024x!tt.ptr<f32>, #blocked> loc(#loc13)
    tt.return loc(#loc14)
  } loc(#loc)
} loc(#loc)
#loc1 = loc(unknown)
#loc2 = loc("/home/jovyan/intel-xpu-backend-for-triton/python/tutorials/01-vector-add.py":39:24)
#loc3 = loc("/home/jovyan/intel-xpu-backend-for-triton/python/tutorials/01-vector-add.py":44:24)
#loc4 = loc("/home/jovyan/intel-xpu-backend-for-triton/python/tutorials/01-vector-add.py":45:41)
#loc5 = loc("/home/jovyan/intel-xpu-backend-for-triton/python/tutorials/01-vector-add.py":45:28)
#loc6 = loc("/home/jovyan/intel-xpu-backend-for-triton/python/tutorials/01-vector-add.py":47:21)
#loc7 = loc("/home/jovyan/intel-xpu-backend-for-triton/python/tutorials/01-vector-add.py":50:24)
#loc8 = loc("/home/jovyan/intel-xpu-backend-for-triton/python/tutorials/01-vector-add.py":50:16)
#loc9 = loc("/home/jovyan/intel-xpu-backend-for-triton/python/tutorials/01-vector-add.py":51:24)
#loc10 = loc("/home/jovyan/intel-xpu-backend-for-triton/python/tutorials/01-vector-add.py":51:16)
#loc11 = loc("/home/jovyan/intel-xpu-backend-for-triton/python/tutorials/01-vector-add.py":52:17)
#loc12 = loc("/home/jovyan/intel-xpu-backend-for-triton/python/tutorials/01-vector-add.py":54:26)
#loc13 = loc("/home/jovyan/intel-xpu-backend-for-triton/python/tutorials/01-vector-add.py":54:35)
#loc14 = loc("/home/jovyan/intel-xpu-backend-for-triton/python/tutorials/01-vector-add.py":54:4)
#loc19 = loc("pid"(#loc2))
#loc20 = loc("block_start"(#loc3))
#loc21 = loc("offsets"(#loc4))
#loc22 = loc("offsets"(#loc5))
#loc23 = loc("mask"(#loc6))
#loc24 = loc("x"(#loc7))
#loc25 = loc("x"(#loc8))
#loc26 = loc("y"(#loc9))
#loc27 = loc("y"(#loc10))
#loc28 = loc("output"(#loc11))


// -----// IR Dump Before Canonicalizer (canonicalize) ('builtin.module' operation) //----- //
#blocked = #ttg.blocked<{sizePerThread = [4], threadsPerWarp = [32], warpsPerCTA = [4], order = [0]}>
#loc = loc("/home/jovyan/intel-xpu-backend-for-triton/python/tutorials/01-vector-add.py":30:0)
#loc15 = loc("x_ptr"(#loc))
#loc16 = loc("y_ptr"(#loc))
#loc17 = loc("output_ptr"(#loc))
#loc18 = loc("n_elements"(#loc))
module attributes {"ttg.num-ctas" = 1 : i32, "ttg.num-warps" = 4 : i32, ttg.target = "xpu", "ttg.threads-per-warp" = 32 : i32, ttig.min_sg_size = 16 : i32, ttig.support_2d_block_io, ttig.support_bfloat16_conversion, ttig.support_subgroup_matrix_multiply_accumulate, ttig.target_arch = "spir64"} {
  tt.func public @add_kernel(%x_ptr: !tt.ptr<f32> {tt.divisibility = 16 : i32} loc("x_ptr"(#loc)), %y_ptr: !tt.ptr<f32> {tt.divisibility = 16 : i32} loc("y_ptr"(#loc)), %output_ptr: !tt.ptr<f32> {tt.divisibility = 16 : i32} loc("output_ptr"(#loc)), %n_elements: i32 {tt.divisibility = 16 : i32} loc("n_elements"(#loc))) attributes {noinline = false} {
    %c1024_i32 = arith.constant 1024 : i32 loc(#loc1)
    %pid = tt.get_program_id x : i32 loc(#loc19)
    %block_start = arith.muli %pid, %c1024_i32 : i32 loc(#loc20)
    %offsets = tt.make_range {end = 1024 : i32, start = 0 : i32} : tensor<1024xi32, #blocked> loc(#loc21)
    %offsets_0 = tt.splat %block_start : i32 -> tensor<1024xi32, #blocked> loc(#loc22)
    %offsets_1 = arith.addi %offsets_0, %offsets : tensor<1024xi32, #blocked> loc(#loc22)
    %mask = tt.splat %n_elements : i32 -> tensor<1024xi32, #blocked> loc(#loc23)
    %mask_2 = arith.cmpi slt, %offsets_1, %mask : tensor<1024xi32, #blocked> loc(#loc23)
    %x = tt.splat %x_ptr : !tt.ptr<f32> -> tensor<1024x!tt.ptr<f32>, #blocked> loc(#loc24)
    %x_3 = tt.addptr %x, %offsets_1 : tensor<1024x!tt.ptr<f32>, #blocked>, tensor<1024xi32, #blocked> loc(#loc24)
    %x_4 = tt.load %x_3, %mask_2 : tensor<1024x!tt.ptr<f32>, #blocked> loc(#loc25)
    %y = tt.splat %y_ptr : !tt.ptr<f32> -> tensor<1024x!tt.ptr<f32>, #blocked> loc(#loc26)
    %y_5 = tt.addptr %y, %offsets_1 : tensor<1024x!tt.ptr<f32>, #blocked>, tensor<1024xi32, #blocked> loc(#loc26)
    %y_6 = tt.load %y_5, %mask_2 : tensor<1024x!tt.ptr<f32>, #blocked> loc(#loc27)
    %output = arith.addf %x_4, %y_6 : tensor<1024xf32, #blocked> loc(#loc28)
    %0 = tt.splat %output_ptr : !tt.ptr<f32> -> tensor<1024x!tt.ptr<f32>, #blocked> loc(#loc12)
    %1 = tt.addptr %0, %offsets_1 : tensor<1024x!tt.ptr<f32>, #blocked>, tensor<1024xi32, #blocked> loc(#loc12)
    tt.store %1, %output, %mask_2 : tensor<1024x!tt.ptr<f32>, #blocked> loc(#loc13)
    tt.return loc(#loc14)
  } loc(#loc)
} loc(#loc)
#loc1 = loc(unknown)
#loc2 = loc("/home/jovyan/intel-xpu-backend-for-triton/python/tutorials/01-vector-add.py":39:24)
#loc3 = loc("/home/jovyan/intel-xpu-backend-for-triton/python/tutorials/01-vector-add.py":44:24)
#loc4 = loc("/home/jovyan/intel-xpu-backend-for-triton/python/tutorials/01-vector-add.py":45:41)
#loc5 = loc("/home/jovyan/intel-xpu-backend-for-triton/python/tutorials/01-vector-add.py":45:28)
#loc6 = loc("/home/jovyan/intel-xpu-backend-for-triton/python/tutorials/01-vector-add.py":47:21)
#loc7 = loc("/home/jovyan/intel-xpu-backend-for-triton/python/tutorials/01-vector-add.py":50:24)
#loc8 = loc("/home/jovyan/intel-xpu-backend-for-triton/python/tutorials/01-vector-add.py":50:16)
#loc9 = loc("/home/jovyan/intel-xpu-backend-for-triton/python/tutorials/01-vector-add.py":51:24)
#loc10 = loc("/home/jovyan/intel-xpu-backend-for-triton/python/tutorials/01-vector-add.py":51:16)
#loc11 = loc("/home/jovyan/intel-xpu-backend-for-triton/python/tutorials/01-vector-add.py":52:17)
#loc12 = loc("/home/jovyan/intel-xpu-backend-for-triton/python/tutorials/01-vector-add.py":54:26)
#loc13 = loc("/home/jovyan/intel-xpu-backend-for-triton/python/tutorials/01-vector-add.py":54:35)
#loc14 = loc("/home/jovyan/intel-xpu-backend-for-triton/python/tutorials/01-vector-add.py":54:4)
#loc19 = loc("pid"(#loc2))
#loc20 = loc("block_start"(#loc3))
#loc21 = loc("offsets"(#loc4))
#loc22 = loc("offsets"(#loc5))
#loc23 = loc("mask"(#loc6))
#loc24 = loc("x"(#loc7))
#loc25 = loc("x"(#loc8))
#loc26 = loc("y"(#loc9))
#loc27 = loc("y"(#loc10))
#loc28 = loc("output"(#loc11))


// -----// IR Dump Before CSE (cse) ('builtin.module' operation) //----- //
#blocked = #ttg.blocked<{sizePerThread = [4], threadsPerWarp = [32], warpsPerCTA = [4], order = [0]}>
#loc = loc("/home/jovyan/intel-xpu-backend-for-triton/python/tutorials/01-vector-add.py":30:0)
#loc15 = loc("x_ptr"(#loc))
#loc16 = loc("y_ptr"(#loc))
#loc17 = loc("output_ptr"(#loc))
#loc18 = loc("n_elements"(#loc))
module attributes {"ttg.num-ctas" = 1 : i32, "ttg.num-warps" = 4 : i32, ttg.target = "xpu", "ttg.threads-per-warp" = 32 : i32, ttig.min_sg_size = 16 : i32, ttig.support_2d_block_io, ttig.support_bfloat16_conversion, ttig.support_subgroup_matrix_multiply_accumulate, ttig.target_arch = "spir64"} {
  tt.func public @add_kernel(%x_ptr: !tt.ptr<f32> {tt.divisibility = 16 : i32} loc("x_ptr"(#loc)), %y_ptr: !tt.ptr<f32> {tt.divisibility = 16 : i32} loc("y_ptr"(#loc)), %output_ptr: !tt.ptr<f32> {tt.divisibility = 16 : i32} loc("output_ptr"(#loc)), %n_elements: i32 {tt.divisibility = 16 : i32} loc("n_elements"(#loc))) attributes {noinline = false} {
    %c1024_i32 = arith.constant 1024 : i32 loc(#loc1)
    %pid = tt.get_program_id x : i32 loc(#loc19)
    %block_start = arith.muli %pid, %c1024_i32 : i32 loc(#loc20)
    %offsets = tt.make_range {end = 1024 : i32, start = 0 : i32} : tensor<1024xi32, #blocked> loc(#loc21)
    %offsets_0 = tt.splat %block_start : i32 -> tensor<1024xi32, #blocked> loc(#loc22)
    %offsets_1 = arith.addi %offsets_0, %offsets : tensor<1024xi32, #blocked> loc(#loc22)
    %mask = tt.splat %n_elements : i32 -> tensor<1024xi32, #blocked> loc(#loc23)
    %mask_2 = arith.cmpi slt, %offsets_1, %mask : tensor<1024xi32, #blocked> loc(#loc23)
    %x = tt.splat %x_ptr : !tt.ptr<f32> -> tensor<1024x!tt.ptr<f32>, #blocked> loc(#loc24)
    %x_3 = tt.addptr %x, %offsets_1 : tensor<1024x!tt.ptr<f32>, #blocked>, tensor<1024xi32, #blocked> loc(#loc24)
    %x_4 = tt.load %x_3, %mask_2 : tensor<1024x!tt.ptr<f32>, #blocked> loc(#loc25)
    %y = tt.splat %y_ptr : !tt.ptr<f32> -> tensor<1024x!tt.ptr<f32>, #blocked> loc(#loc26)
    %y_5 = tt.addptr %y, %offsets_1 : tensor<1024x!tt.ptr<f32>, #blocked>, tensor<1024xi32, #blocked> loc(#loc26)
    %y_6 = tt.load %y_5, %mask_2 : tensor<1024x!tt.ptr<f32>, #blocked> loc(#loc27)
    %output = arith.addf %x_4, %y_6 : tensor<1024xf32, #blocked> loc(#loc28)
    %0 = tt.splat %output_ptr : !tt.ptr<f32> -> tensor<1024x!tt.ptr<f32>, #blocked> loc(#loc12)
    %1 = tt.addptr %0, %offsets_1 : tensor<1024x!tt.ptr<f32>, #blocked>, tensor<1024xi32, #blocked> loc(#loc12)
    tt.store %1, %output, %mask_2 : tensor<1024x!tt.ptr<f32>, #blocked> loc(#loc13)
    tt.return loc(#loc14)
  } loc(#loc)
} loc(#loc)
#loc1 = loc(unknown)
#loc2 = loc("/home/jovyan/intel-xpu-backend-for-triton/python/tutorials/01-vector-add.py":39:24)
#loc3 = loc("/home/jovyan/intel-xpu-backend-for-triton/python/tutorials/01-vector-add.py":44:24)
#loc4 = loc("/home/jovyan/intel-xpu-backend-for-triton/python/tutorials/01-vector-add.py":45:41)
#loc5 = loc("/home/jovyan/intel-xpu-backend-for-triton/python/tutorials/01-vector-add.py":45:28)
#loc6 = loc("/home/jovyan/intel-xpu-backend-for-triton/python/tutorials/01-vector-add.py":47:21)
#loc7 = loc("/home/jovyan/intel-xpu-backend-for-triton/python/tutorials/01-vector-add.py":50:24)
#loc8 = loc("/home/jovyan/intel-xpu-backend-for-triton/python/tutorials/01-vector-add.py":50:16)
#loc9 = loc("/home/jovyan/intel-xpu-backend-for-triton/python/tutorials/01-vector-add.py":51:24)
#loc10 = loc("/home/jovyan/intel-xpu-backend-for-triton/python/tutorials/01-vector-add.py":51:16)
#loc11 = loc("/home/jovyan/intel-xpu-backend-for-triton/python/tutorials/01-vector-add.py":52:17)
#loc12 = loc("/home/jovyan/intel-xpu-backend-for-triton/python/tutorials/01-vector-add.py":54:26)
#loc13 = loc("/home/jovyan/intel-xpu-backend-for-triton/python/tutorials/01-vector-add.py":54:35)
#loc14 = loc("/home/jovyan/intel-xpu-backend-for-triton/python/tutorials/01-vector-add.py":54:4)
#loc19 = loc("pid"(#loc2))
#loc20 = loc("block_start"(#loc3))
#loc21 = loc("offsets"(#loc4))
#loc22 = loc("offsets"(#loc5))
#loc23 = loc("mask"(#loc6))
#loc24 = loc("x"(#loc7))
#loc25 = loc("x"(#loc8))
#loc26 = loc("y"(#loc9))
#loc27 = loc("y"(#loc10))
#loc28 = loc("output"(#loc11))


// -----// IR Dump Before TritonGPUPrefetch (tritongpu-prefetch) ('builtin.module' operation) //----- //
#blocked = #ttg.blocked<{sizePerThread = [4], threadsPerWarp = [32], warpsPerCTA = [4], order = [0]}>
#loc = loc("/home/jovyan/intel-xpu-backend-for-triton/python/tutorials/01-vector-add.py":30:0)
#loc15 = loc("x_ptr"(#loc))
#loc16 = loc("y_ptr"(#loc))
#loc17 = loc("output_ptr"(#loc))
#loc18 = loc("n_elements"(#loc))
module attributes {"ttg.num-ctas" = 1 : i32, "ttg.num-warps" = 4 : i32, ttg.target = "xpu", "ttg.threads-per-warp" = 32 : i32, ttig.min_sg_size = 16 : i32, ttig.support_2d_block_io, ttig.support_bfloat16_conversion, ttig.support_subgroup_matrix_multiply_accumulate, ttig.target_arch = "spir64"} {
  tt.func public @add_kernel(%x_ptr: !tt.ptr<f32> {tt.divisibility = 16 : i32} loc("x_ptr"(#loc)), %y_ptr: !tt.ptr<f32> {tt.divisibility = 16 : i32} loc("y_ptr"(#loc)), %output_ptr: !tt.ptr<f32> {tt.divisibility = 16 : i32} loc("output_ptr"(#loc)), %n_elements: i32 {tt.divisibility = 16 : i32} loc("n_elements"(#loc))) attributes {noinline = false} {
    %c1024_i32 = arith.constant 1024 : i32 loc(#loc1)
    %pid = tt.get_program_id x : i32 loc(#loc19)
    %block_start = arith.muli %pid, %c1024_i32 : i32 loc(#loc20)
    %offsets = tt.make_range {end = 1024 : i32, start = 0 : i32} : tensor<1024xi32, #blocked> loc(#loc21)
    %offsets_0 = tt.splat %block_start : i32 -> tensor<1024xi32, #blocked> loc(#loc22)
    %offsets_1 = arith.addi %offsets_0, %offsets : tensor<1024xi32, #blocked> loc(#loc22)
    %mask = tt.splat %n_elements : i32 -> tensor<1024xi32, #blocked> loc(#loc23)
    %mask_2 = arith.cmpi slt, %offsets_1, %mask : tensor<1024xi32, #blocked> loc(#loc23)
    %x = tt.splat %x_ptr : !tt.ptr<f32> -> tensor<1024x!tt.ptr<f32>, #blocked> loc(#loc24)
    %x_3 = tt.addptr %x, %offsets_1 : tensor<1024x!tt.ptr<f32>, #blocked>, tensor<1024xi32, #blocked> loc(#loc24)
    %x_4 = tt.load %x_3, %mask_2 : tensor<1024x!tt.ptr<f32>, #blocked> loc(#loc25)
    %y = tt.splat %y_ptr : !tt.ptr<f32> -> tensor<1024x!tt.ptr<f32>, #blocked> loc(#loc26)
    %y_5 = tt.addptr %y, %offsets_1 : tensor<1024x!tt.ptr<f32>, #blocked>, tensor<1024xi32, #blocked> loc(#loc26)
    %y_6 = tt.load %y_5, %mask_2 : tensor<1024x!tt.ptr<f32>, #blocked> loc(#loc27)
    %output = arith.addf %x_4, %y_6 : tensor<1024xf32, #blocked> loc(#loc28)
    %0 = tt.splat %output_ptr : !tt.ptr<f32> -> tensor<1024x!tt.ptr<f32>, #blocked> loc(#loc12)
    %1 = tt.addptr %0, %offsets_1 : tensor<1024x!tt.ptr<f32>, #blocked>, tensor<1024xi32, #blocked> loc(#loc12)
    tt.store %1, %output, %mask_2 : tensor<1024x!tt.ptr<f32>, #blocked> loc(#loc13)
    tt.return loc(#loc14)
  } loc(#loc)
} loc(#loc)
#loc1 = loc(unknown)
#loc2 = loc("/home/jovyan/intel-xpu-backend-for-triton/python/tutorials/01-vector-add.py":39:24)
#loc3 = loc("/home/jovyan/intel-xpu-backend-for-triton/python/tutorials/01-vector-add.py":44:24)
#loc4 = loc("/home/jovyan/intel-xpu-backend-for-triton/python/tutorials/01-vector-add.py":45:41)
#loc5 = loc("/home/jovyan/intel-xpu-backend-for-triton/python/tutorials/01-vector-add.py":45:28)
#loc6 = loc("/home/jovyan/intel-xpu-backend-for-triton/python/tutorials/01-vector-add.py":47:21)
#loc7 = loc("/home/jovyan/intel-xpu-backend-for-triton/python/tutorials/01-vector-add.py":50:24)
#loc8 = loc("/home/jovyan/intel-xpu-backend-for-triton/python/tutorials/01-vector-add.py":50:16)
#loc9 = loc("/home/jovyan/intel-xpu-backend-for-triton/python/tutorials/01-vector-add.py":51:24)
#loc10 = loc("/home/jovyan/intel-xpu-backend-for-triton/python/tutorials/01-vector-add.py":51:16)
#loc11 = loc("/home/jovyan/intel-xpu-backend-for-triton/python/tutorials/01-vector-add.py":52:17)
#loc12 = loc("/home/jovyan/intel-xpu-backend-for-triton/python/tutorials/01-vector-add.py":54:26)
#loc13 = loc("/home/jovyan/intel-xpu-backend-for-triton/python/tutorials/01-vector-add.py":54:35)
#loc14 = loc("/home/jovyan/intel-xpu-backend-for-triton/python/tutorials/01-vector-add.py":54:4)
#loc19 = loc("pid"(#loc2))
#loc20 = loc("block_start"(#loc3))
#loc21 = loc("offsets"(#loc4))
#loc22 = loc("offsets"(#loc5))
#loc23 = loc("mask"(#loc6))
#loc24 = loc("x"(#loc7))
#loc25 = loc("x"(#loc8))
#loc26 = loc("y"(#loc9))
#loc27 = loc("y"(#loc10))
#loc28 = loc("output"(#loc11))


// -----// IR Dump Before TritonGPUOptimizeDotOperands (tritongpu-optimize-dot-operands) ('builtin.module' operation) //----- //
#blocked = #ttg.blocked<{sizePerThread = [4], threadsPerWarp = [32], warpsPerCTA = [4], order = [0]}>
#loc = loc("/home/jovyan/intel-xpu-backend-for-triton/python/tutorials/01-vector-add.py":30:0)
#loc15 = loc("x_ptr"(#loc))
#loc16 = loc("y_ptr"(#loc))
#loc17 = loc("output_ptr"(#loc))
#loc18 = loc("n_elements"(#loc))
module attributes {"ttg.num-ctas" = 1 : i32, "ttg.num-warps" = 4 : i32, ttg.target = "xpu", "ttg.threads-per-warp" = 32 : i32, ttig.min_sg_size = 16 : i32, ttig.support_2d_block_io, ttig.support_bfloat16_conversion, ttig.support_subgroup_matrix_multiply_accumulate, ttig.target_arch = "spir64"} {
  tt.func public @add_kernel(%x_ptr: !tt.ptr<f32> {tt.divisibility = 16 : i32} loc("x_ptr"(#loc)), %y_ptr: !tt.ptr<f32> {tt.divisibility = 16 : i32} loc("y_ptr"(#loc)), %output_ptr: !tt.ptr<f32> {tt.divisibility = 16 : i32} loc("output_ptr"(#loc)), %n_elements: i32 {tt.divisibility = 16 : i32} loc("n_elements"(#loc))) attributes {noinline = false} {
    %c1024_i32 = arith.constant 1024 : i32 loc(#loc1)
    %pid = tt.get_program_id x : i32 loc(#loc19)
    %block_start = arith.muli %pid, %c1024_i32 : i32 loc(#loc20)
    %offsets = tt.make_range {end = 1024 : i32, start = 0 : i32} : tensor<1024xi32, #blocked> loc(#loc21)
    %offsets_0 = tt.splat %block_start : i32 -> tensor<1024xi32, #blocked> loc(#loc22)
    %offsets_1 = arith.addi %offsets_0, %offsets : tensor<1024xi32, #blocked> loc(#loc22)
    %mask = tt.splat %n_elements : i32 -> tensor<1024xi32, #blocked> loc(#loc23)
    %mask_2 = arith.cmpi slt, %offsets_1, %mask : tensor<1024xi32, #blocked> loc(#loc23)
    %x = tt.splat %x_ptr : !tt.ptr<f32> -> tensor<1024x!tt.ptr<f32>, #blocked> loc(#loc24)
    %x_3 = tt.addptr %x, %offsets_1 : tensor<1024x!tt.ptr<f32>, #blocked>, tensor<1024xi32, #blocked> loc(#loc24)
    %x_4 = tt.load %x_3, %mask_2 : tensor<1024x!tt.ptr<f32>, #blocked> loc(#loc25)
    %y = tt.splat %y_ptr : !tt.ptr<f32> -> tensor<1024x!tt.ptr<f32>, #blocked> loc(#loc26)
    %y_5 = tt.addptr %y, %offsets_1 : tensor<1024x!tt.ptr<f32>, #blocked>, tensor<1024xi32, #blocked> loc(#loc26)
    %y_6 = tt.load %y_5, %mask_2 : tensor<1024x!tt.ptr<f32>, #blocked> loc(#loc27)
    %output = arith.addf %x_4, %y_6 : tensor<1024xf32, #blocked> loc(#loc28)
    %0 = tt.splat %output_ptr : !tt.ptr<f32> -> tensor<1024x!tt.ptr<f32>, #blocked> loc(#loc12)
    %1 = tt.addptr %0, %offsets_1 : tensor<1024x!tt.ptr<f32>, #blocked>, tensor<1024xi32, #blocked> loc(#loc12)
    tt.store %1, %output, %mask_2 : tensor<1024x!tt.ptr<f32>, #blocked> loc(#loc13)
    tt.return loc(#loc14)
  } loc(#loc)
} loc(#loc)
#loc1 = loc(unknown)
#loc2 = loc("/home/jovyan/intel-xpu-backend-for-triton/python/tutorials/01-vector-add.py":39:24)
#loc3 = loc("/home/jovyan/intel-xpu-backend-for-triton/python/tutorials/01-vector-add.py":44:24)
#loc4 = loc("/home/jovyan/intel-xpu-backend-for-triton/python/tutorials/01-vector-add.py":45:41)
#loc5 = loc("/home/jovyan/intel-xpu-backend-for-triton/python/tutorials/01-vector-add.py":45:28)
#loc6 = loc("/home/jovyan/intel-xpu-backend-for-triton/python/tutorials/01-vector-add.py":47:21)
#loc7 = loc("/home/jovyan/intel-xpu-backend-for-triton/python/tutorials/01-vector-add.py":50:24)
#loc8 = loc("/home/jovyan/intel-xpu-backend-for-triton/python/tutorials/01-vector-add.py":50:16)
#loc9 = loc("/home/jovyan/intel-xpu-backend-for-triton/python/tutorials/01-vector-add.py":51:24)
#loc10 = loc("/home/jovyan/intel-xpu-backend-for-triton/python/tutorials/01-vector-add.py":51:16)
#loc11 = loc("/home/jovyan/intel-xpu-backend-for-triton/python/tutorials/01-vector-add.py":52:17)
#loc12 = loc("/home/jovyan/intel-xpu-backend-for-triton/python/tutorials/01-vector-add.py":54:26)
#loc13 = loc("/home/jovyan/intel-xpu-backend-for-triton/python/tutorials/01-vector-add.py":54:35)
#loc14 = loc("/home/jovyan/intel-xpu-backend-for-triton/python/tutorials/01-vector-add.py":54:4)
#loc19 = loc("pid"(#loc2))
#loc20 = loc("block_start"(#loc3))
#loc21 = loc("offsets"(#loc4))
#loc22 = loc("offsets"(#loc5))
#loc23 = loc("mask"(#loc6))
#loc24 = loc("x"(#loc7))
#loc25 = loc("x"(#loc8))
#loc26 = loc("y"(#loc9))
#loc27 = loc("y"(#loc10))
#loc28 = loc("output"(#loc11))


// -----// IR Dump Before Canonicalizer (canonicalize) ('builtin.module' operation) //----- //
#blocked = #ttg.blocked<{sizePerThread = [4], threadsPerWarp = [32], warpsPerCTA = [4], order = [0]}>
#loc = loc("/home/jovyan/intel-xpu-backend-for-triton/python/tutorials/01-vector-add.py":30:0)
#loc15 = loc("x_ptr"(#loc))
#loc16 = loc("y_ptr"(#loc))
#loc17 = loc("output_ptr"(#loc))
#loc18 = loc("n_elements"(#loc))
…
    %y_58 = llvm.bitcast %y_57 : i32 to vector<1xf32> loc(#loc27)
    %y_59 = llvm.extractelement %y_54[%5 : i32] : vector<4xi32> loc(#loc27)
    %y_60 = llvm.bitcast %y_59 : i32 to vector<1xf32> loc(#loc27)
    %y_61 = llvm.extractelement %y_54[%3 : i32] : vector<4xi32> loc(#loc27)
    %y_62 = llvm.bitcast %y_61 : i32 to vector<1xf32> loc(#loc27)
    %y_63 = llvm.extractelement %y_56[%8 : i32] : vector<1xf32> loc(#loc27)
    %y_64 = llvm.extractelement %y_58[%8 : i32] : vector<1xf32> loc(#loc27)
    %y_65 = llvm.extractelement %y_60[%8 : i32] : vector<1xf32> loc(#loc27)
    %y_66 = llvm.extractelement %y_62[%8 : i32] : vector<1xf32> loc(#loc27)
    llvm.cond_br %mask_22, ^bb7, ^bb8(%1 : vector<4xi32>) loc(#loc27)
  ^bb7:  // pred: ^bb6
    %y_67 = llvm.load %y_52 {alignment = 16 : i64} : !llvm.ptr<1> -> vector<4xi32> loc(#loc27)
    llvm.br ^bb8(%y_67 : vector<4xi32>) loc(#loc27)
  ^bb8(%y_68: vector<4xi32> loc("y"(#loc10))):  // 2 preds: ^bb6, ^bb7
    %y_69 = llvm.extractelement %y_68[%8 : i32] : vector<4xi32> loc(#loc27)
    %y_70 = llvm.bitcast %y_69 : i32 to vector<1xf32> loc(#loc27)
    %y_71 = llvm.extractelement %y_68[%4 : i32] : vector<4xi32> loc(#loc27)
    %y_72 = llvm.bitcast %y_71 : i32 to vector<1xf32> loc(#loc27)
    %y_73 = llvm.extractelement %y_68[%5 : i32] : vector<4xi32> loc(#loc27)
    %y_74 = llvm.bitcast %y_73 : i32 to vector<1xf32> loc(#loc27)
    %y_75 = llvm.extractelement %y_68[%3 : i32] : vector<4xi32> loc(#loc27)
    %y_76 = llvm.bitcast %y_75 : i32 to vector<1xf32> loc(#loc27)
    %y_77 = llvm.extractelement %y_70[%8 : i32] : vector<1xf32> loc(#loc27)
    %y_78 = llvm.extractelement %y_72[%8 : i32] : vector<1xf32> loc(#loc27)
    %y_79 = llvm.extractelement %y_74[%8 : i32] : vector<1xf32> loc(#loc27)
    %y_80 = llvm.extractelement %y_76[%8 : i32] : vector<1xf32> loc(#loc27)
    %output = llvm.fadd %x_34, %y_63 : f32 loc(#loc28)
    %output_81 = llvm.fadd %x_35, %y_64 : f32 loc(#loc28)
    %output_82 = llvm.fadd %x_36, %y_65 : f32 loc(#loc28)
    %output_83 = llvm.fadd %x_37, %y_66 : f32 loc(#loc28)
    %output_84 = llvm.fadd %x_48, %y_77 : f32 loc(#loc28)
    %output_85 = llvm.fadd %x_49, %y_78 : f32 loc(#loc28)
    %output_86 = llvm.fadd %x_50, %y_79 : f32 loc(#loc28)
    %output_87 = llvm.fadd %x_51, %y_80 : f32 loc(#loc28)
    %10 = llvm.getelementptr %output_ptr[%offsets_20] : (!llvm.ptr<1>, i32) -> !llvm.ptr<1>, f32 loc(#loc12)
    %11 = llvm.getelementptr %output_ptr[%offsets_21] : (!llvm.ptr<1>, i32) -> !llvm.ptr<1>, f32 loc(#loc12)
    %12 = llvm.call spir_funccc @_Z12get_local_idj(%8) {memory_effects = #llvm.memory_effects<other = none, argMem = none, inaccessibleMem = none, errnoMem = none, targetMem0 = none, targetMem1 = none>, no_unwind, will_return} : (i32) -> i64 loc(#loc13)
    %13 = llvm.insertelement %output, %0[%8 : i32] : vector<1xf32> loc(#loc13)
    %14 = llvm.bitcast %13 : vector<1xf32> to i32 loc(#loc13)
    %15 = llvm.insertelement %output_81, %0[%8 : i32] : vector<1xf32> loc(#loc13)
    %16 = llvm.bitcast %15 : vector<1xf32> to i32 loc(#loc13)
    %17 = llvm.insertelement %output_82, %0[%8 : i32] : vector<1xf32> loc(#loc13)
    %18 = llvm.bitcast %17 : vector<1xf32> to i32 loc(#loc13)
    %19 = llvm.insertelement %output_83, %0[%8 : i32] : vector<1xf32> loc(#loc13)
    %20 = llvm.bitcast %19 : vector<1xf32> to i32 loc(#loc13)
    %21 = llvm.insertelement %14, %2[%8 : i32] : vector<4xi32> loc(#loc13)
    %22 = llvm.insertelement %16, %21[%4 : i32] : vector<4xi32> loc(#loc13)
    %23 = llvm.insertelement %18, %22[%5 : i32] : vector<4xi32> loc(#loc13)
    %24 = llvm.insertelement %20, %23[%3 : i32] : vector<4xi32> loc(#loc13)
    llvm.cond_br %mask, ^bb9, ^bb10 loc(#loc13)
  ^bb9:  // pred: ^bb8
    llvm.store %24, %10 {alignment = 16 : i64} : vector<4xi32>, !llvm.ptr<1> loc(#loc13)
    llvm.br ^bb10 loc(#loc13)
  ^bb10:  // 2 preds: ^bb8, ^bb9
    %25 = llvm.insertelement %output_84, %0[%8 : i32] : vector<1xf32> loc(#loc13)
    %26 = llvm.bitcast %25 : vector<1xf32> to i32 loc(#loc13)
    %27 = llvm.insertelement %output_85, %0[%8 : i32] : vector<1xf32> loc(#loc13)
    %28 = llvm.bitcast %27 : vector<1xf32> to i32 loc(#loc13)
    %29 = llvm.insertelement %output_86, %0[%8 : i32] : vector<1xf32> loc(#loc13)
    %30 = llvm.bitcast %29 : vector<1xf32> to i32 loc(#loc13)
    %31 = llvm.insertelement %output_87, %0[%8 : i32] : vector<1xf32> loc(#loc13)
    %32 = llvm.bitcast %31 : vector<1xf32> to i32 loc(#loc13)
    %33 = llvm.insertelement %26, %2[%8 : i32] : vector<4xi32> loc(#loc13)
    %34 = llvm.insertelement %28, %33[%4 : i32] : vector<4xi32> loc(#loc13)
    %35 = llvm.insertelement %30, %34[%5 : i32] : vector<4xi32> loc(#loc13)
    %36 = llvm.insertelement %32, %35[%3 : i32] : vector<4xi32> loc(#loc13)
    llvm.cond_br %mask_22, ^bb11, ^bb12 loc(#loc13)
  ^bb11:  // pred: ^bb10
    llvm.store %36, %11 {alignment = 16 : i64} : vector<4xi32>, !llvm.ptr<1> loc(#loc13)
    llvm.br ^bb12 loc(#loc13)
  ^bb12:  // 2 preds: ^bb10, ^bb11
    llvm.return loc(#loc14)
  } loc(#loc)
} loc(#loc)
#loc1 = loc(unknown)
#loc2 = loc("/home/jovyan/intel-xpu-backend-for-triton/python/tutorials/01-vector-add.py":45:41)
#loc3 = loc("/home/jovyan/intel-xpu-backend-for-triton/python/tutorials/01-vector-add.py":39:24)
#loc4 = loc("/home/jovyan/intel-xpu-backend-for-triton/python/tutorials/01-vector-add.py":44:24)
#loc5 = loc("/home/jovyan/intel-xpu-backend-for-triton/python/tutorials/01-vector-add.py":45:28)
#loc6 = loc("/home/jovyan/intel-xpu-backend-for-triton/python/tutorials/01-vector-add.py":47:21)
#loc7 = loc("/home/jovyan/intel-xpu-backend-for-triton/python/tutorials/01-vector-add.py":50:24)
#loc9 = loc("/home/jovyan/intel-xpu-backend-for-triton/python/tutorials/01-vector-add.py":51:24)
#loc11 = loc("/home/jovyan/intel-xpu-backend-for-triton/python/tutorials/01-vector-add.py":52:17)
#loc12 = loc("/home/jovyan/intel-xpu-backend-for-triton/python/tutorials/01-vector-add.py":54:26)
#loc13 = loc("/home/jovyan/intel-xpu-backend-for-triton/python/tutorials/01-vector-add.py":54:35)
#loc14 = loc("/home/jovyan/intel-xpu-backend-for-triton/python/tutorials/01-vector-add.py":54:4)
#loc19 = loc("offsets"(#loc2))
#loc20 = loc("pid"(#loc3))
#loc21 = loc("block_start"(#loc4))
#loc22 = loc("offsets"(#loc5))
#loc23 = loc("mask"(#loc6))
#loc24 = loc("x"(#loc7))
#loc26 = loc("y"(#loc9))
#loc28 = loc("output"(#loc11))


// -----// IR Dump Before CSE (cse) ('builtin.module' operation) //----- //
#loc = loc("/home/jovyan/intel-xpu-backend-for-triton/python/tutorials/01-vector-add.py":30:0)
#loc8 = loc("/home/jovyan/intel-xpu-backend-for-triton/python/tutorials/01-vector-add.py":50:16)
#loc10 = loc("/home/jovyan/intel-xpu-backend-for-triton/python/tutorials/01-vector-add.py":51:16)
#loc15 = loc("x_ptr"(#loc))
#loc16 = loc("y_ptr"(#loc))
#loc17 = loc("output_ptr"(#loc))
#loc18 = loc("n_elements"(#loc))
#loc25 = loc("x"(#loc8))
#loc27 = loc("y"(#loc10))
module attributes {ttg.global_scratch_memory_alignment = 1 : i32, ttg.global_scratch_memory_size = 0 : i32, "ttg.num-ctas" = 1 : i32, "ttg.num-warps" = 4 : i32, ttg.shared = 0 : i32, ttg.target = "xpu", "ttg.threads-per-warp" = 32 : i32, ttig.min_sg_size = 16 : i32, ttig.support_2d_block_io, ttig.support_bfloat16_conversion, ttig.support_subgroup_matrix_multiply_accumulate, ttig.target_arch = "spir64"} {
  llvm.func spir_funccc @_Z12get_local_idj(i32) -> i64 attributes {memory_effects = #llvm.memory_effects<other = none, argMem = none, inaccessibleMem = none, errnoMem = none, targetMem0 = none, targetMem1 = none>, no_unwind, will_return} loc(#loc)
  llvm.func spir_funccc @_Z12get_group_idj(i32) -> i64 attributes {memory_effects = #llvm.memory_effects<other = none, argMem = none, inaccessibleMem = none, errnoMem = none, targetMem0 = none, targetMem1 = none>, no_unwind, will_return} loc(#loc)
  llvm.mlir.global external @global_smem() {addr_space = 3 : i32, alignment = 16 : i64} : !llvm.array<0 x i8> loc(#loc)
  llvm.func spir_kernelcc @add_kernel(%x_ptr: !llvm.ptr<1> loc("x_ptr"(#loc)), %y_ptr: !llvm.ptr<1> loc("y_ptr"(#loc)), %output_ptr: !llvm.ptr<1> loc("output_ptr"(#loc)), %n_elements: i32 loc("n_elements"(#loc)), %arg4: !llvm.ptr<1> loc("/home/jovyan/intel-xpu-backend-for-triton/python/tutorials/01-vector-add.py":30:0), %arg5: !llvm.ptr<1> loc("/home/jovyan/intel-xpu-backend-for-triton/python/tutorials/01-vector-add.py":30:0)) attributes {intel_reqd_sub_group_size = 32 : i32, noinline = false, reqd_work_group_size = array<i32: 128, 1, 1>, ttg.global_scratch_memory_alignment = 1 : i32, ttg.global_scratch_memory_size = 0 : i32} {
    %0 = llvm.mlir.undef : vector<1xf32> loc(#loc1)
    %1 = llvm.mlir.constant(dense<0> : vector<4xi32>) : vector<4xi32> loc(#loc1)
    %2 = llvm.mlir.undef : vector<4xi32> loc(#loc1)
    %offsets = llvm.mlir.constant(512 : i32) : i32 loc(#loc19)
    %3 = llvm.mlir.constant(3 : i32) : i32 loc(#loc1)
    %4 = llvm.mlir.constant(1 : i32) : i32 loc(#loc1)
    %5 = llvm.mlir.constant(2 : i32) : i32 loc(#loc1)
    %offsets_0 = llvm.mlir.constant(5 : i32) : i32 loc(#loc19)
    %6 = llvm.mlir.constant(32 : i32) : i32 loc(#loc1)
    %7 = llvm.mlir.constant(127 : i32) : i32 loc(#loc1)
    %offsets_1 = llvm.mlir.constant(0 : index) : i32 loc(#loc19)
    %8 = llvm.mlir.constant(0 : i32) : i32 loc(#loc1)
    %9 = llvm.mlir.constant(1024 : i32) : i32 loc(#loc1)
    %pid = llvm.call spir_funccc @_Z12get_group_idj(%8) {memory_effects = #llvm.memory_effects<other = none, argMem = none, inaccessibleMem = none, errnoMem = none, targetMem0 = none, targetMem1 = none>, no_unwind, will_return} : (i32) -> i64 loc(#loc20)
    %pid_2 = llvm.trunc %pid : i64 to i32 loc(#loc20)
    %block_start = llvm.mul %pid_2, %9 : i32 loc(#loc21)
    %offsets_3 = llvm.call spir_funccc @_Z12get_local_idj(%8) {memory_effects = #llvm.memory_effects<other = none, argMem = none, inaccessibleMem = none, errnoMem = none, targetMem0 = none, targetMem1 = none>, no_unwind, will_return} : (i32) -> i64 loc(#loc19)
    %offsets_4 = llvm.trunc %offsets_3 : i64 to i32 loc(#loc19)
    %offsets_5 = llvm.and %offsets_4, %7 : i32 loc(#loc19)
    %offsets_6 = llvm.urem %offsets_5, %6 : i32 loc(#loc19)
    %offsets_7 = llvm.udiv %offsets_5, %6 : i32 loc(#loc19)
    %offsets_8 = llvm.shl %offsets_6, %8 : i32 loc(#loc19)
    %offsets_9 = llvm.or %8, %offsets_8 : i32 loc(#loc19)
    %offsets_10 = llvm.shl %offsets_7, %offsets_0 : i32 loc(#loc19)
    %offsets_11 = llvm.or %offsets_9, %offsets_10 : i32 loc(#loc19)
    %offsets_12 = llvm.and %offsets_11, %7 : i32 loc(#loc19)
    %offsets_13 = llvm.shl %offsets_12, %5 : i32 loc(#loc19)
    %offsets_14 = llvm.or disjoint %offsets_13, %8 : i32 loc(#loc19)
    %offsets_15 = llvm.xor %8, %offsets_14 : i32 loc(#loc19)
    %offsets_16 = llvm.xor %offsets_15, %8 : i32 loc(#loc19)
    %offsets_17 = llvm.xor %offsets_15, %offsets : i32 loc(#loc19)
    %offsets_18 = llvm.add %offsets_16, %offsets_1 : i32 loc(#loc19)
    %offsets_19 = llvm.add %offsets_17, %offsets_1 : i32 loc(#loc19)
    %offsets_20 = llvm.add %block_start, %offsets_18 : i32 loc(#loc22)
    %offsets_21 = llvm.add %block_start, %offsets_19 : i32 loc(#loc22)
    %mask = llvm.icmp "slt" %offsets_20, %n_elements : i32 loc(#loc23)
    %mask_22 = llvm.icmp "slt" %offsets_21, %n_elements : i32 loc(#loc23)
    %x = llvm.getelementptr %x_ptr[%offsets_20] : (!llvm.ptr<1>, i32) -> !llvm.ptr<1>, f32 loc(#loc24)
    %x_23 = llvm.getelementptr %x_ptr[%offsets_21] : (!llvm.ptr<1>, i32) -> !llvm.ptr<1>, f32 loc(#loc24)
    llvm.cond_br %mask, ^bb1, ^bb2(%1 : vector<4xi32>) loc(#loc25)
  ^bb1:  // pred: ^bb0
    %x_24 = llvm.load %x {alignment = 16 : i64} : !llvm.ptr<1> -> vector<4xi32> loc(#loc25)
    llvm.br ^bb2(%x_24 : vector<4xi32>) loc(#loc25)
  ^bb2(%x_25: vector<4xi32> loc("x"(#loc8))):  // 2 preds: ^bb0, ^bb1
    %x_26 = llvm.extractelement %x_25[%8 : i32] : vector<4xi32> loc(#loc25)
    %x_27 = llvm.bitcast %x_26 : i32 to vector<1xf32> loc(#loc25)
    %x_28 = llvm.extractelement %x_25[%4 : i32] : vector<4xi32> loc(#loc25)
    %x_29 = llvm.bitcast %x_28 : i32 to vector<1xf32> loc(#loc25)
    %x_30 = llvm.extractelement %x_25[%5 : i32] : vector<4xi32> loc(#loc25)
    %x_31 = llvm.bitcast %x_30 : i32 to vector<1xf32> loc(#loc25)
    %x_32 = llvm.extractelement %x_25[%3 : i32] : vector<4xi32> loc(#loc25)
    %x_33 = llvm.bitcast %x_32 : i32 to vector<1xf32> loc(#loc25)
    %x_34 = llvm.extractelement %x_27[%8 : i32] : vector<1xf32> loc(#loc25)
    %x_35 = llvm.extractelement %x_29[%8 : i32] : vector<1xf32> loc(#loc25)
    %x_36 = llvm.extractelement %x_31[%8 : i32] : vector<1xf32> loc(#loc25)
    %x_37 = llvm.extractelement %x_33[%8 : i32] : vector<1xf32> loc(#loc25)
    llvm.cond_br %mask_22, ^bb3, ^bb4(%1 : vector<4xi32>) loc(#loc25)
  ^bb3:  // pred: ^bb2
    %x_38 = llvm.load %x_23 {alignment = 16 : i64} : !llvm.ptr<1> -> vector<4xi32> loc(#loc25)
    llvm.br ^bb4(%x_38 : vector<4xi32>) loc(#loc25)
  ^bb4(%x_39: vector<4xi32> loc("x"(#loc8))):  // 2 preds: ^bb2, ^bb3
    %x_40 = llvm.extractelement %x_39[%8 : i32] : vector<4xi32> loc(#loc25)
    %x_41 = llvm.bitcast %x_40 : i32 to vector<1xf32> loc(#loc25)
    %x_42 = llvm.extractelement %x_39[%4 : i32] : vector<4xi32> loc(#loc25)
    %x_43 = llvm.bitcast %x_42 : i32 to vector<1xf32> loc(#loc25)
    %x_44 = llvm.extractelement %x_39[%5 : i32] : vector<4xi32> loc(#loc25)
    %x_45 = llvm.bitcast %x_44 : i32 to vector<1xf32> loc(#loc25)
    %x_46 = llvm.extractelement %x_39[%3 : i32] : vector<4xi32> loc(#loc25)
    %x_47 = llvm.bitcast %x_46 : i32 to vector<1xf32> loc(#loc25)
    %x_48 = llvm.extractelement %x_41[%8 : i32] : vector<1xf32> loc(#loc25)
    %x_49 = llvm.extractelement %x_43[%8 : i32] : vector<1xf32> loc(#loc25)
    %x_50 = llvm.extractelement %x_45[%8 : i32] : vector<1xf32> loc(#loc25)
    %x_51 = llvm.extractelement %x_47[%8 : i32] : vector<1xf32> loc(#loc25)
    %y = llvm.getelementptr %y_ptr[%offsets_20] : (!llvm.ptr<1>, i32) -> !llvm.ptr<1>, f32 loc(#loc26)
    %y_52 = llvm.getelementptr %y_ptr[%offsets_21] : (!llvm.ptr<1>, i32) -> !llvm.ptr<1>, f32 loc(#loc26)
    llvm.cond_br %mask, ^bb5, ^bb6(%1 : vector<4xi32>) loc(#loc27)
  ^bb5:  // pred: ^bb4
    %y_53 = llvm.load %y {alignment = 16 : i64} : !llvm.ptr<1> -> vector<4xi32> loc(#loc27)
    llvm.br ^bb6(%y_53 : vector<4xi32>) loc(#loc27)
  ^bb6(%y_54: vector<4xi32> loc("y"(#loc10))):  // 2 preds: ^bb4, ^bb5
    %y_55 = llvm.extractelement %y_54[%8 : i32] : vector<4xi32> loc(#loc27)
    %y_56 = llvm.bitcast %y_55 : i32 to vector<1xf32> loc(#loc27)
    %y_57 = llvm.extractelement %y_54[%4 : i32] : vector<4xi32> loc(#loc27)
    %y_58 = llvm.bitcast %y_57 : i32 to vector<1xf32> loc(#loc27)
    %y_59 = llvm.extractelement %y_54[%5 : i32] : vector<4xi32> loc(#loc27)
    %y_60 = llvm.bitcast %y_59 : i32 to vector<1xf32> loc(#loc27)
    %y_61 = llvm.extractelement %y_54[%3 : i32] : vector<4xi32> loc(#loc27)
    %y_62 = llvm.bitcast %y_61 : i32 to vector<1xf32> loc(#loc27)
    %y_63 = llvm.extractelement %y_56[%8 : i32] : vector<1xf32> loc(#loc27)
    %y_64 = llvm.extractelement %y_58[%8 : i32] : vector<1xf32> loc(#loc27)
    %y_65 = llvm.extractelement %y_60[%8 : i32] : vector<1xf32> loc(#loc27)
    %y_66 = llvm.extractelement %y_62[%8 : i32] : vector<1xf32> loc(#loc27)
    llvm.cond_br %mask_22, ^bb7, ^bb8(%1 : vector<4xi32>) loc(#loc27)
  ^bb7:  // pred: ^bb6
    %y_67 = llvm.load %y_52 {alignment = 16 : i64} : !llvm.ptr<1> -> vector<4xi32> loc(#loc27)
    llvm.br ^bb8(%y_67 : vector<4xi32>) loc(#loc27)
  ^bb8(%y_68: vector<4xi32> loc("y"(#loc10))):  // 2 preds: ^bb6, ^bb7
    %y_69 = llvm.extractelement %y_68[%8 : i32] : vector<4xi32> loc(#loc27)
    %y_70 = llvm.bitcast %y_69 : i32 to vector<1xf32> loc(#loc27)
    %y_71 = llvm.extractelement %y_68[%4 : i32] : vector<4xi32> loc(#loc27)
    %y_72 = llvm.bitcast %y_71 : i32 to vector<1xf32> loc(#loc27)
    %y_73 = llvm.extractelement %y_68[%5 : i32] : vector<4xi32> loc(#loc27)
    %y_74 = llvm.bitcast %y_73 : i32 to vector<1xf32> loc(#loc27)
    %y_75 = llvm.extractelement %y_68[%3 : i32] : vector<4xi32> loc(#loc27)
    %y_76 = llvm.bitcast %y_75 : i32 to vector<1xf32> loc(#loc27)
    %y_77 = llvm.extractelement %y_70[%8 : i32] : vector<1xf32> loc(#loc27)
    %y_78 = llvm.extractelement %y_72[%8 : i32] : vector<1xf32> loc(#loc27)
    %y_79 = llvm.extractelement %y_74[%8 : i32] : vector<1xf32> loc(#loc27)
    %y_80 = llvm.extractelement %y_76[%8 : i32] : vector<1xf32> loc(#loc27)
    %output = llvm.fadd %x_34, %y_63 : f32 loc(#loc28)
    %output_81 = llvm.fadd %x_35, %y_64 : f32 loc(#loc28)
    %output_82 = llvm.fadd %x_36, %y_65 : f32 loc(#loc28)
    %output_83 = llvm.fadd %x_37, %y_66 : f32 loc(#loc28)
    %output_84 = llvm.fadd %x_48, %y_77 : f32 loc(#loc28)
    %output_85 = llvm.fadd %x_49, %y_78 : f32 loc(#loc28)
    %output_86 = llvm.fadd %x_50, %y_79 : f32 loc(#loc28)
    %output_87 = llvm.fadd %x_51, %y_80 : f32 loc(#loc28)
    %10 = llvm.getelementptr %output_ptr[%offsets_20] : (!llvm.ptr<1>, i32) -> !llvm.ptr<1>, f32 loc(#loc12)
    %11 = llvm.getelementptr %output_ptr[%offsets_21] : (!llvm.ptr<1>, i32) -> !llvm.ptr<1>, f32 loc(#loc12)
    %12 = llvm.call spir_funccc @_Z12get_local_idj(%8) {memory_effects = #llvm.memory_effects<other = none, argMem = none, inaccessibleMem = none, errnoMem = none, targetMem0 = none, targetMem1 = none>, no_unwind, will_return} : (i32) -> i64 loc(#loc13)
    %13 = llvm.insertelement %output, %0[%8 : i32] : vector<1xf32> loc(#loc13)
    %14 = llvm.bitcast %13 : vector<1xf32> to i32 loc(#loc13)
    %15 = llvm.insertelement %output_81, %0[%8 : i32] : vector<1xf32> loc(#loc13)
    %16 = llvm.bitcast %15 : vector<1xf32> to i32 loc(#loc13)
    %17 = llvm.insertelement %output_82, %0[%8 : i32] : vector<1xf32> loc(#loc13)
    %18 = llvm.bitcast %17 : vector<1xf32> to i32 loc(#loc13)
    %19 = llvm.insertelement %output_83, %0[%8 : i32] : vector<1xf32> loc(#loc13)
    %20 = llvm.bitcast %19 : vector<1xf32> to i32 loc(#loc13)
    %21 = llvm.insertelement %14, %2[%8 : i32] : vector<4xi32> loc(#loc13)
    %22 = llvm.insertelement %16, %21[%4 : i32] : vector<4xi32> loc(#loc13)
    %23 = llvm.insertelement %18, %22[%5 : i32] : vector<4xi32> loc(#loc13)
    %24 = llvm.insertelement %20, %23[%3 : i32] : vector<4xi32> loc(#loc13)
    llvm.cond_br %mask, ^bb9, ^bb10 loc(#loc13)
  ^bb9:  // pred: ^bb8
    llvm.store %24, %10 {alignment = 16 : i64} : vector<4xi32>, !llvm.ptr<1> loc(#loc13)
    llvm.br ^bb10 loc(#loc13)
  ^bb10:  // 2 preds: ^bb8, ^bb9
    %25 = llvm.insertelement %output_84, %0[%8 : i32] : vector<1xf32> loc(#loc13)
    %26 = llvm.bitcast %25 : vector<1xf32> to i32 loc(#loc13)
    %27 = llvm.insertelement %output_85, %0[%8 : i32] : vector<1xf32> loc(#loc13)
    %28 = llvm.bitcast %27 : vector<1xf32> to i32 loc(#loc13)
    %29 = llvm.insertelement %output_86, %0[%8 : i32] : vector<1xf32> loc(#loc13)
    %30 = llvm.bitcast %29 : vector<1xf32> to i32 loc(#loc13)
    %31 = llvm.insertelement %output_87, %0[%8 : i32] : vector<1xf32> loc(#loc13)
    %32 = llvm.bitcast %31 : vector<1xf32> to i32 loc(#loc13)
    %33 = llvm.insertelement %26, %2[%8 : i32] : vector<4xi32> loc(#loc13)
    %34 = llvm.insertelement %28, %33[%4 : i32] : vector<4xi32> loc(#loc13)
    %35 = llvm.insertelement %30, %34[%5 : i32] : vector<4xi32> loc(#loc13)
    %36 = llvm.insertelement %32, %35[%3 : i32] : vector<4xi32> loc(#loc13)
    llvm.cond_br %mask_22, ^bb11, ^bb12 loc(#loc13)
  ^bb11:  // pred: ^bb10
    llvm.store %36, %11 {alignment = 16 : i64} : vector<4xi32>, !llvm.ptr<1> loc(#loc13)
    llvm.br ^bb12 loc(#loc13)
  ^bb12:  // 2 preds: ^bb10, ^bb11
    llvm.return loc(#loc14)
  } loc(#loc)
} loc(#loc)
#loc1 = loc(unknown)
#loc2 = loc("/home/jovyan/intel-xpu-backend-for-triton/python/tutorials/01-vector-add.py":45:41)
#loc3 = loc("/home/jovyan/intel-xpu-backend-for-triton/python/tutorials/01-vector-add.py":39:24)
#loc4 = loc("/home/jovyan/intel-xpu-backend-for-triton/python/tutorials/01-vector-add.py":44:24)
#loc5 = loc("/home/jovyan/intel-xpu-backend-for-triton/python/tutorials/01-vector-add.py":45:28)
#loc6 = loc("/home/jovyan/intel-xpu-backend-for-triton/python/tutorials/01-vector-add.py":47:21)
#loc7 = loc("/home/jovyan/intel-xpu-backend-for-triton/python/tutorials/01-vector-add.py":50:24)
#loc9 = loc("/home/jovyan/intel-xpu-backend-for-triton/python/tutorials/01-vector-add.py":51:24)
#loc11 = loc("/home/jovyan/intel-xpu-backend-for-triton/python/tutorials/01-vector-add.py":52:17)
#loc12 = loc("/home/jovyan/intel-xpu-backend-for-triton/python/tutorials/01-vector-add.py":54:26)
#loc13 = loc("/home/jovyan/intel-xpu-backend-for-triton/python/tutorials/01-vector-add.py":54:35)
#loc14 = loc("/home/jovyan/intel-xpu-backend-for-triton/python/tutorials/01-vector-add.py":54:4)
#loc19 = loc("offsets"(#loc2))
#loc20 = loc("pid"(#loc3))
#loc21 = loc("block_start"(#loc4))
#loc22 = loc("offsets"(#loc5))
#loc23 = loc("mask"(#loc6))
#loc24 = loc("x"(#loc7))
#loc26 = loc("y"(#loc9))
#loc28 = loc("output"(#loc11))


// -----// IR Dump Before SymbolDCE (symbol-dce) ('builtin.module' operation) //----- //
#loc = loc("/home/jovyan/intel-xpu-backend-for-triton/python/tutorials/01-vector-add.py":30:0)
#loc8 = loc("/home/jovyan/intel-xpu-backend-for-triton/python/tutorials/01-vector-add.py":50:16)
#loc10 = loc("/home/jovyan/intel-xpu-backend-for-triton/python/tutorials/01-vector-add.py":51:16)
#loc15 = loc("x_ptr"(#loc))
#loc16 = loc("y_ptr"(#loc))
#loc17 = loc("output_ptr"(#loc))
#loc18 = loc("n_elements"(#loc))
#loc25 = loc("x"(#loc8))
#loc27 = loc("y"(#loc10))
module attributes {ttg.global_scratch_memory_alignment = 1 : i32, ttg.global_scratch_memory_size = 0 : i32, "ttg.num-ctas" = 1 : i32, "ttg.num-warps" = 4 : i32, ttg.shared = 0 : i32, ttg.target = "xpu", "ttg.threads-per-warp" = 32 : i32, ttig.min_sg_size = 16 : i32, ttig.support_2d_block_io, ttig.support_bfloat16_conversion, ttig.support_subgroup_matrix_multiply_accumulate, ttig.target_arch = "spir64"} {
  llvm.func spir_funccc @_Z12get_local_idj(i32) -> i64 attributes {memory_effects = #llvm.memory_effects<other = none, argMem = none, inaccessibleMem = none, errnoMem = none, targetMem0 = none, targetMem1 = none>, no_unwind, will_return} loc(#loc)
  llvm.func spir_funccc @_Z12get_group_idj(i32) -> i64 attributes {memory_effects = #llvm.memory_effects<other = none, argMem = none, inaccessibleMem = none, errnoMem = none, targetMem0 = none, targetMem1 = none>, no_unwind, will_return} loc(#loc)
  llvm.mlir.global external @global_smem() {addr_space = 3 : i32, alignment = 16 : i64} : !llvm.array<0 x i8> loc(#loc)
  llvm.func spir_kernelcc @add_kernel(%x_ptr: !llvm.ptr<1> loc("x_ptr"(#loc)), %y_ptr: !llvm.ptr<1> loc("y_ptr"(#loc)), %output_ptr: !llvm.ptr<1> loc("output_ptr"(#loc)), %n_elements: i32 loc("n_elements"(#loc)), %arg4: !llvm.ptr<1> loc("/home/jovyan/intel-xpu-backend-for-triton/python/tutorials/01-vector-add.py":30:0), %arg5: !llvm.ptr<1> loc("/home/jovyan/intel-xpu-backend-for-triton/python/tutorials/01-vector-add.py":30:0)) attributes {intel_reqd_sub_group_size = 32 : i32, noinline = false, reqd_work_group_size = array<i32: 128, 1, 1>, ttg.global_scratch_memory_alignment = 1 : i32, ttg.global_scratch_memory_size = 0 : i32} {
    %0 = llvm.mlir.undef : vector<1xf32> loc(#loc1)
    %1 = llvm.mlir.constant(dense<0> : vector<4xi32>) : vector<4xi32> loc(#loc1)
    %2 = llvm.mlir.undef : vector<4xi32> loc(#loc1)
    %offsets = llvm.mlir.constant(512 : i32) : i32 loc(#loc19)
    %3 = llvm.mlir.constant(3 : i32) : i32 loc(#loc1)
    %4 = llvm.mlir.constant(1 : i32) : i32 loc(#loc1)
    %5 = llvm.mlir.constant(2 : i32) : i32 loc(#loc1)
    %offsets_0 = llvm.mlir.constant(5 : i32) : i32 loc(#loc19)
    %6 = llvm.mlir.constant(32 : i32) : i32 loc(#loc1)
    %7 = llvm.mlir.constant(127 : i32) : i32 loc(#loc1)
    %offsets_1 = llvm.mlir.constant(0 : index) : i32 loc(#loc19)
    %8 = llvm.mlir.constant(0 : i32) : i32 loc(#loc1)
    %9 = llvm.mlir.constant(1024 : i32) : i32 loc(#loc1)
    %pid = llvm.call spir_funccc @_Z12get_group_idj(%8) {memory_effects = #llvm.memory_effects<other = none, argMem = none, inaccessibleMem = none, errnoMem = none, targetMem0 = none, targetMem1 = none>, no_unwind, will_return} : (i32) -> i64 loc(#loc20)
    %pid_2 = llvm.trunc %pid : i64 to i32 loc(#loc20)
    %block_start = llvm.mul %pid_2, %9 : i32 loc(#loc21)
    %offsets_3 = llvm.call spir_funccc @_Z12get_local_idj(%8) {memory_effects = #llvm.memory_effects<other = none, argMem = none, inaccessibleMem = none, errnoMem = none, targetMem0 = none, targetMem1 = none>, no_unwind, will_return} : (i32) -> i64 loc(#loc19)
    %offsets_4 = llvm.trunc %offsets_3 : i64 to i32 loc(#loc19)
    %offsets_5 = llvm.and %offsets_4, %7 : i32 loc(#loc19)
    %offsets_6 = llvm.urem %offsets_5, %6 : i32 loc(#loc19)
    %offsets_7 = llvm.udiv %offsets_5, %6 : i32 loc(#loc19)
    %offsets_8 = llvm.shl %offsets_6, %8 : i32 loc(#loc19)
    %offsets_9 = llvm.or %8, %offsets_8 : i32 loc(#loc19)
    %offsets_10 = llvm.shl %offsets_7, %offsets_0 : i32 loc(#loc19)
    %offsets_11 = llvm.or %offsets_9, %offsets_10 : i32 loc(#loc19)
    %offsets_12 = llvm.and %offsets_11, %7 : i32 loc(#loc19)
    %offsets_13 = llvm.shl %offsets_12, %5 : i32 loc(#loc19)
    %offsets_14 = llvm.or disjoint %offsets_13, %8 : i32 loc(#loc19)
    %offsets_15 = llvm.xor %8, %offsets_14 : i32 loc(#loc19)
    %offsets_16 = llvm.xor %offsets_15, %8 : i32 loc(#loc19)
    %offsets_17 = llvm.xor %offsets_15, %offsets : i32 loc(#loc19)
    %offsets_18 = llvm.add %offsets_16, %offsets_1 : i32 loc(#loc19)
    %offsets_19 = llvm.add %offsets_17, %offsets_1 : i32 loc(#loc19)
    %offsets_20 = llvm.add %block_start, %offsets_18 : i32 loc(#loc22)
    %offsets_21 = llvm.add %block_start, %offsets_19 : i32 loc(#loc22)
    %mask = llvm.icmp "slt" %offsets_20, %n_elements : i32 loc(#loc23)
    %mask_22 = llvm.icmp "slt" %offsets_21, %n_elements : i32 loc(#loc23)
    %x = llvm.getelementptr %x_ptr[%offsets_20] : (!llvm.ptr<1>, i32) -> !llvm.ptr<1>, f32 loc(#loc24)
    %x_23 = llvm.getelementptr %x_ptr[%offsets_21] : (!llvm.ptr<1>, i32) -> !llvm.ptr<1>, f32 loc(#loc24)
    llvm.cond_br %mask, ^bb1, ^bb2(%1 : vector<4xi32>) loc(#loc25)
  ^bb1:  // pred: ^bb0
    %x_24 = llvm.load %x {alignment = 16 : i64} : !llvm.ptr<1> -> vector<4xi32> loc(#loc25)
    llvm.br ^bb2(%x_24 : vector<4xi32>) loc(#loc25)
  ^bb2(%x_25: vector<4xi32> loc("x"(#loc8))):  // 2 preds: ^bb0, ^bb1
    %x_26 = llvm.extractelement %x_25[%8 : i32] : vector<4xi32> loc(#loc25)
    %x_27 = llvm.bitcast %x_26 : i32 to vector<1xf32> loc(#loc25)
    %x_28 = llvm.extractelement %x_25[%4 : i32] : vector<4xi32> loc(#loc25)
    %x_29 = llvm.bitcast %x_28 : i32 to vector<1xf32> loc(#loc25)
    %x_30 = llvm.extractelement %x_25[%5 : i32] : vector<4xi32> loc(#loc25)
    %x_31 = llvm.bitcast %x_30 : i32 to vector<1xf32> loc(#loc25)
    %x_32 = llvm.extractelement %x_25[%3 : i32] : vector<4xi32> loc(#loc25)
    %x_33 = llvm.bitcast %x_32 : i32 to vector<1xf32> loc(#loc25)
    %x_34 = llvm.extractelement %x_27[%8 : i32] : vector<1xf32> loc(#loc25)
    %x_35 = llvm.extractelement %x_29[%8 : i32] : vector<1xf32> loc(#loc25)
    %x_36 = llvm.extractelement %x_31[%8 : i32] : vector<1xf32> loc(#loc25)
    %x_37 = llvm.extractelement %x_33[%8 : i32] : vector<1xf32> loc(#loc25)
    llvm.cond_br %mask_22, ^bb3, ^bb4(%1 : vector<4xi32>) loc(#loc25)
  ^bb3:  // pred: ^bb2
    %x_38 = llvm.load %x_23 {alignment = 16 : i64} : !llvm.ptr<1> -> vector<4xi32> loc(#loc25)
    llvm.br ^bb4(%x_38 : vector<4xi32>) loc(#loc25)
  ^bb4(%x_39: vector<4xi32> loc("x"(#loc8))):  // 2 preds: ^bb2, ^bb3
    %x_40 = llvm.extractelement %x_39[%8 : i32] : vector<4xi32> loc(#loc25)
    %x_41 = llvm.bitcast %x_40 : i32 to vector<1xf32> loc(#loc25)
    %x_42 = llvm.extractelement %x_39[%4 : i32] : vector<4xi32> loc(#loc25)
    %x_43 = llvm.bitcast %x_42 : i32 to vector<1xf32> loc(#loc25)
    %x_44 = llvm.extractelement %x_39[%5 : i32] : vector<4xi32> loc(#loc25)
    %x_45 = llvm.bitcast %x_44 : i32 to vector<1xf32> loc(#loc25)
    %x_46 = llvm.extractelement %x_39[%3 : i32] : vector<4xi32> loc(#loc25)
    %x_47 = llvm.bitcast %x_46 : i32 to vector<1xf32> loc(#loc25)
    %x_48 = llvm.extractelement %x_41[%8 : i32] : vector<1xf32> loc(#loc25)
    %x_49 = llvm.extractelement %x_43[%8 : i32] : vector<1xf32> loc(#loc25)
    %x_50 = llvm.extractelement %x_45[%8 : i32] : vector<1xf32> loc(#loc25)
    %x_51 = llvm.extractelement %x_47[%8 : i32] : vector<1xf32> loc(#loc25)
    %y = llvm.getelementptr %y_ptr[%offsets_20] : (!llvm.ptr<1>, i32) -> !llvm.ptr<1>, f32 loc(#loc26)
    %y_52 = llvm.getelementptr %y_ptr[%offsets_21] : (!llvm.ptr<1>, i32) -> !llvm.ptr<1>, f32 loc(#loc26)
    llvm.cond_br %mask, ^bb5, ^bb6(%1 : vector<4xi32>) loc(#loc27)
  ^bb5:  // pred: ^bb4
    %y_53 = llvm.load %y {alignment = 16 : i64} : !llvm.ptr<1> -> vector<4xi32> loc(#loc27)
    llvm.br ^bb6(%y_53 : vector<4xi32>) loc(#loc27)
  ^bb6(%y_54: vector<4xi32> loc("y"(#loc10))):  // 2 preds: ^bb4, ^bb5
    %y_55 = llvm.extractelement %y_54[%8 : i32] : vector<4xi32> loc(#loc27)
    %y_56 = llvm.bitcast %y_55 : i32 to vector<1xf32> loc(#loc27)
    %y_57 = llvm.extractelement %y_54[%4 : i32] : vector<4xi32> loc(#loc27)
    %y_58 = llvm.bitcast %y_57 : i32 to vector<1xf32> loc(#loc27)
    %y_59 = llvm.extractelement %y_54[%5 : i32] : vector<4xi32> loc(#loc27)
    %y_60 = llvm.bitcast %y_59 : i32 to vector<1xf32> loc(#loc27)
    %y_61 = llvm.extractelement %y_54[%3 : i32] : vector<4xi32> loc(#loc27)
    %y_62 = llvm.bitcast %y_61 : i32 to vector<1xf32> loc(#loc27)
    %y_63 = llvm.extractelement %y_56[%8 : i32] : vector<1xf32> loc(#loc27)
    %y_64 = llvm.extractelement %y_58[%8 : i32] : vector<1xf32> loc(#loc27)
    %y_65 = llvm.extractelement %y_60[%8 : i32] : vector<1xf32> loc(#loc27)
    %y_66 = llvm.extractelement %y_62[%8 : i32] : vector<1xf32> loc(#loc27)
    llvm.cond_br %mask_22, ^bb7, ^bb8(%1 : vector<4xi32>) loc(#loc27)
  ^bb7:  // pred: ^bb6
    %y_67 = llvm.load %y_52 {alignment = 16 : i64} : !llvm.ptr<1> -> vector<4xi32> loc(#loc27)
    llvm.br ^bb8(%y_67 : vector<4xi32>) loc(#loc27)
  ^bb8(%y_68: vector<4xi32> loc("y"(#loc10))):  // 2 preds: ^bb6, ^bb7
    %y_69 = llvm.extractelement %y_68[%8 : i32] : vector<4xi32> loc(#loc27)
    %y_70 = llvm.bitcast %y_69 : i32 to vector<1xf32> loc(#loc27)
    %y_71 = llvm.extractelement %y_68[%4 : i32] : vector<4xi32> loc(#loc27)
    %y_72 = llvm.bitcast %y_71 : i32 to vector<1xf32> loc(#loc27)
    %y_73 = llvm.extractelement %y_68[%5 : i32] : vector<4xi32> loc(#loc27)
    %y_74 = llvm.bitcast %y_73 : i32 to vector<1xf32> loc(#loc27)
    %y_75 = llvm.extractelement %y_68[%3 : i32] : vector<4xi32> loc(#loc27)
    %y_76 = llvm.bitcast %y_75 : i32 to vector<1xf32> loc(#loc27)
    %y_77 = llvm.extractelement %y_70[%8 : i32] : vector<1xf32> loc(#loc27)
    %y_78 = llvm.extractelement %y_72[%8 : i32] : vector<1xf32> loc(#loc27)
    %y_79 = llvm.extractelement %y_74[%8 : i32] : vector<1xf32> loc(#loc27)
    %y_80 = llvm.extractelement %y_76[%8 : i32] : vector<1xf32> loc(#loc27)
    %output = llvm.fadd %x_34, %y_63 : f32 loc(#loc28)
    %output_81 = llvm.fadd %x_35, %y_64 : f32 loc(#loc28)
    %output_82 = llvm.fadd %x_36, %y_65 : f32 loc(#loc28)
    %output_83 = llvm.fadd %x_37, %y_66 : f32 loc(#loc28)
    %output_84 = llvm.fadd %x_48, %y_77 : f32 loc(#loc28)
    %output_85 = llvm.fadd %x_49, %y_78 : f32 loc(#loc28)
    %output_86 = llvm.fadd %x_50, %y_79 : f32 loc(#loc28)
    %output_87 = llvm.fadd %x_51, %y_80 : f32 loc(#loc28)
    %10 = llvm.getelementptr %output_ptr[%offsets_20] : (!llvm.ptr<1>, i32) -> !llvm.ptr<1>, f32 loc(#loc12)
    %11 = llvm.getelementptr %output_ptr[%offsets_21] : (!llvm.ptr<1>, i32) -> !llvm.ptr<1>, f32 loc(#loc12)
    %12 = llvm.call spir_funccc @_Z12get_local_idj(%8) {memory_effects = #llvm.memory_effects<other = none, argMem = none, inaccessibleMem = none, errnoMem = none, targetMem0 = none, targetMem1 = none>, no_unwind, will_return} : (i32) -> i64 loc(#loc13)
    %13 = llvm.insertelement %output, %0[%8 : i32] : vector<1xf32> loc(#loc13)
    %14 = llvm.bitcast %13 : vector<1xf32> to i32 loc(#loc13)
    %15 = llvm.insertelement %output_81, %0[%8 : i32] : vector<1xf32> loc(#loc13)
    %16 = llvm.bitcast %15 : vector<1xf32> to i32 loc(#loc13)
    %17 = llvm.insertelement %output_82, %0[%8 : i32] : vector<1xf32> loc(#loc13)
    %18 = llvm.bitcast %17 : vector<1xf32> to i32 loc(#loc13)
    %19 = llvm.insertelement %output_83, %0[%8 : i32] : vector<1xf32> loc(#loc13)
    %20 = llvm.bitcast %19 : vector<1xf32> to i32 loc(#loc13)
    %21 = llvm.insertelement %14, %2[%8 : i32] : vector<4xi32> loc(#loc13)
    %22 = llvm.insertelement %16, %21[%4 : i32] : vector<4xi32> loc(#loc13)
    %23 = llvm.insertelement %18, %22[%5 : i32] : vector<4xi32> loc(#loc13)
    %24 = llvm.insertelement %20, %23[%3 : i32] : vector<4xi32> loc(#loc13)
    llvm.cond_br %mask, ^bb9, ^bb10 loc(#loc13)
  ^bb9:  // pred: ^bb8
    llvm.store %24, %10 {alignment = 16 : i64} : vector<4xi32>, !llvm.ptr<1> loc(#loc13)
    llvm.br ^bb10 loc(#loc13)
  ^bb10:  // 2 preds: ^bb8, ^bb9
    %25 = llvm.insertelement %output_84, %0[%8 : i32] : vector<1xf32> loc(#loc13)
    %26 = llvm.bitcast %25 : vector<1xf32> to i32 loc(#loc13)
    %27 = llvm.insertelement %output_85, %0[%8 : i32] : vector<1xf32> loc(#loc13)
    %28 = llvm.bitcast %27 : vector<1xf32> to i32 loc(#loc13)
    %29 = llvm.insertelement %output_86, %0[%8 : i32] : vector<1xf32> loc(#loc13)
    %30 = llvm.bitcast %29 : vector<1xf32> to i32 loc(#loc13)
    %31 = llvm.insertelement %output_87, %0[%8 : i32] : vector<1xf32> loc(#loc13)
    %32 = llvm.bitcast %31 : vector<1xf32> to i32 loc(#loc13)
    %33 = llvm.insertelement %26, %2[%8 : i32] : vector<4xi32> loc(#loc13)
    %34 = llvm.insertelement %28, %33[%4 : i32] : vector<4xi32> loc(#loc13)
    %35 = llvm.insertelement %30, %34[%5 : i32] : vector<4xi32> loc(#loc13)
    %36 = llvm.insertelement %32, %35[%3 : i32] : vector<4xi32> loc(#loc13)
    llvm.cond_br %mask_22, ^bb11, ^bb12 loc(#loc13)
  ^bb11:  // pred: ^bb10
    llvm.store %36, %11 {alignment = 16 : i64} : vector<4xi32>, !llvm.ptr<1> loc(#loc13)
    llvm.br ^bb12 loc(#loc13)
  ^bb12:  // 2 preds: ^bb10, ^bb11
    llvm.return loc(#loc14)
  } loc(#loc)
} loc(#loc)
#loc1 = loc(unknown)
#loc2 = loc("/home/jovyan/intel-xpu-backend-for-triton/python/tutorials/01-vector-add.py":45:41)
#loc3 = loc("/home/jovyan/intel-xpu-backend-for-triton/python/tutorials/01-vector-add.py":39:24)
#loc4 = loc("/home/jovyan/intel-xpu-backend-for-triton/python/tutorials/01-vector-add.py":44:24)
#loc5 = loc("/home/jovyan/intel-xpu-backend-for-triton/python/tutorials/01-vector-add.py":45:28)
#loc6 = loc("/home/jovyan/intel-xpu-backend-for-triton/python/tutorials/01-vector-add.py":47:21)
#loc7 = loc("/home/jovyan/intel-xpu-backend-for-triton/python/tutorials/01-vector-add.py":50:24)
#loc9 = loc("/home/jovyan/intel-xpu-backend-for-triton/python/tutorials/01-vector-add.py":51:24)
#loc11 = loc("/home/jovyan/intel-xpu-backend-for-triton/python/tutorials/01-vector-add.py":52:17)
#loc12 = loc("/home/jovyan/intel-xpu-backend-for-triton/python/tutorials/01-vector-add.py":54:26)
#loc13 = loc("/home/jovyan/intel-xpu-backend-for-triton/python/tutorials/01-vector-add.py":54:35)
#loc14 = loc("/home/jovyan/intel-xpu-backend-for-triton/python/tutorials/01-vector-add.py":54:4)
#loc19 = loc("offsets"(#loc2))
#loc20 = loc("pid"(#loc3))
#loc21 = loc("block_start"(#loc4))
#loc22 = loc("offsets"(#loc5))
#loc23 = loc("mask"(#loc6))
#loc24 = loc("x"(#loc7))
#loc26 = loc("y"(#loc9))
#loc28 = loc("output"(#loc11))


// -----// IR Dump Before LLVMDIScope (enable-line-info) ('builtin.module' operation) //----- //
#loc = loc("/home/jovyan/intel-xpu-backend-for-triton/python/tutorials/01-vector-add.py":30:0)
#loc8 = loc("/home/jovyan/intel-xpu-backend-for-triton/python/tutorials/01-vector-add.py":50:16)
#loc10 = loc("/home/jovyan/intel-xpu-backend-for-triton/python/tutorials/01-vector-add.py":51:16)
#loc15 = loc("x_ptr"(#loc))
#loc16 = loc("y_ptr"(#loc))
#loc17 = loc("output_ptr"(#loc))
#loc18 = loc("n_elements"(#loc))
#loc25 = loc("x"(#loc8))
#loc27 = loc("y"(#loc10))
module attributes {ttg.global_scratch_memory_alignment = 1 : i32, ttg.global_scratch_memory_size = 0 : i32, "ttg.num-ctas" = 1 : i32, "ttg.num-warps" = 4 : i32, ttg.shared = 0 : i32, ttg.target = "xpu", "ttg.threads-per-warp" = 32 : i32, ttig.min_sg_size = 16 : i32, ttig.support_2d_block_io, ttig.support_bfloat16_conversion, ttig.support_subgroup_matrix_multiply_accumulate, ttig.target_arch = "spir64"} {
  llvm.func spir_funccc @_Z12get_local_idj(i32) -> i64 attributes {memory_effects = #llvm.memory_effects<other = none, argMem = none, inaccessibleMem = none, errnoMem = none, targetMem0 = none, targetMem1 = none>, no_unwind, will_return} loc(#loc)
  llvm.func spir_funccc @_Z12get_group_idj(i32) -> i64 attributes {memory_effects = #llvm.memory_effects<other = none, argMem = none, inaccessibleMem = none, errnoMem = none, targetMem0 = none, targetMem1 = none>, no_unwind, will_return} loc(#loc)
  llvm.mlir.global external @global_smem() {addr_space = 3 : i32, alignment = 16 : i64} : !llvm.array<0 x i8> loc(#loc)
  llvm.func spir_kernelcc @add_kernel(%x_ptr: !llvm.ptr<1> loc("x_ptr"(#loc)), %y_ptr: !llvm.ptr<1> loc("y_ptr"(#loc)), %output_ptr: !llvm.ptr<1> loc("output_ptr"(#loc)), %n_elements: i32 loc("n_elements"(#loc)), %arg4: !llvm.ptr<1> loc("/home/jovyan/intel-xpu-backend-for-triton/python/tutorials/01-vector-add.py":30:0), %arg5: !llvm.ptr<1> loc("/home/jovyan/intel-xpu-backend-for-triton/python/tutorials/01-vector-add.py":30:0)) attributes {intel_reqd_sub_group_size = 32 : i32, noinline = false, reqd_work_group_size = array<i32: 128, 1, 1>, ttg.global_scratch_memory_alignment = 1 : i32, ttg.global_scratch_memory_size = 0 : i32} {
    %0 = llvm.mlir.undef : vector<1xf32> loc(#loc1)
    %1 = llvm.mlir.constant(dense<0> : vector<4xi32>) : vector<4xi32> loc(#loc1)
    %2 = llvm.mlir.undef : vector<4xi32> loc(#loc1)
    %offsets = llvm.mlir.constant(512 : i32) : i32 loc(#loc19)
    %3 = llvm.mlir.constant(3 : i32) : i32 loc(#loc1)
    %4 = llvm.mlir.constant(1 : i32) : i32 loc(#loc1)
    %5 = llvm.mlir.constant(2 : i32) : i32 loc(#loc1)
    %offsets_0 = llvm.mlir.constant(5 : i32) : i32 loc(#loc19)
    %6 = llvm.mlir.constant(32 : i32) : i32 loc(#loc1)
    %7 = llvm.mlir.constant(127 : i32) : i32 loc(#loc1)
    %offsets_1 = llvm.mlir.constant(0 : index) : i32 loc(#loc19)
    %8 = llvm.mlir.constant(0 : i32) : i32 loc(#loc1)
    %9 = llvm.mlir.constant(1024 : i32) : i32 loc(#loc1)
    %pid = llvm.call spir_funccc @_Z12get_group_idj(%8) {memory_effects = #llvm.memory_effects<other = none, argMem = none, inaccessibleMem = none, errnoMem = none, targetMem0 = none, targetMem1 = none>, no_unwind, will_return} : (i32) -> i64 loc(#loc20)
    %pid_2 = llvm.trunc %pid : i64 to i32 loc(#loc20)
    %block_start = llvm.mul %pid_2, %9 : i32 loc(#loc21)
    %offsets_3 = llvm.call spir_funccc @_Z12get_local_idj(%8) {memory_effects = #llvm.memory_effects<other = none, argMem = none, inaccessibleMem = none, errnoMem = none, targetMem0 = none, targetMem1 = none>, no_unwind, will_return} : (i32) -> i64 loc(#loc19)
    %offsets_4 = llvm.trunc %offsets_3 : i64 to i32 loc(#loc19)
    %offsets_5 = llvm.and %offsets_4, %7 : i32 loc(#loc19)
    %offsets_6 = llvm.urem %offsets_5, %6 : i32 loc(#loc19)
    %offsets_7 = llvm.udiv %offsets_5, %6 : i32 loc(#loc19)
    %offsets_8 = llvm.shl %offsets_6, %8 : i32 loc(#loc19)
    %offsets_9 = llvm.or %8, %offsets_8 : i32 loc(#loc19)
    %offsets_10 = llvm.shl %offsets_7, %offsets_0 : i32 loc(#loc19)
    %offsets_11 = llvm.or %offsets_9, %offsets_10 : i32 loc(#loc19)
    %offsets_12 = llvm.and %offsets_11, %7 : i32 loc(#loc19)
    %offsets_13 = llvm.shl %offsets_12, %5 : i32 loc(#loc19)
    %offsets_14 = llvm.or disjoint %offsets_13, %8 : i32 loc(#loc19)
    %offsets_15 = llvm.xor %8, %offsets_14 : i32 loc(#loc19)
    %offsets_16 = llvm.xor %offsets_15, %8 : i32 loc(#loc19)
    %offsets_17 = llvm.xor %offsets_15, %offsets : i32 loc(#loc19)
    %offsets_18 = llvm.add %offsets_16, %offsets_1 : i32 loc(#loc19)
    %offsets_19 = llvm.add %offsets_17, %offsets_1 : i32 loc(#loc19)
    %offsets_20 = llvm.add %block_start, %offsets_18 : i32 loc(#loc22)
    %offsets_21 = llvm.add %block_start, %offsets_19 : i32 loc(#loc22)
    %mask = llvm.icmp "slt" %offsets_20, %n_elements : i32 loc(#loc23)
    %mask_22 = llvm.icmp "slt" %offsets_21, %n_elements : i32 loc(#loc23)
    %x = llvm.getelementptr %x_ptr[%offsets_20] : (!llvm.ptr<1>, i32) -> !llvm.ptr<1>, f32 loc(#loc24)
    %x_23 = llvm.getelementptr %x_ptr[%offsets_21] : (!llvm.ptr<1>, i32) -> !llvm.ptr<1>, f32 loc(#loc24)
    llvm.cond_br %mask, ^bb1, ^bb2(%1 : vector<4xi32>) loc(#loc25)
  ^bb1:  // pred: ^bb0
    %x_24 = llvm.load %x {alignment = 16 : i64} : !llvm.ptr<1> -> vector<4xi32> loc(#loc25)
    llvm.br ^bb2(%x_24 : vector<4xi32>) loc(#loc25)
  ^bb2(%x_25: vector<4xi32> loc("x"(#loc8))):  // 2 preds: ^bb0, ^bb1
    %x_26 = llvm.extractelement %x_25[%8 : i32] : vector<4xi32> loc(#loc25)
    %x_27 = llvm.bitcast %x_26 : i32 to vector<1xf32> loc(#loc25)
    %x_28 = llvm.extractelement %x_25[%4 : i32] : vector<4xi32> loc(#loc25)
    %x_29 = llvm.bitcast %x_28 : i32 to vector<1xf32> loc(#loc25)
    %x_30 = llvm.extractelement %x_25[%5 : i32] : vector<4xi32> loc(#loc25)
    %x_31 = llvm.bitcast %x_30 : i32 to vector<1xf32> loc(#loc25)
    %x_32 = llvm.extractelement %x_25[%3 : i32] : vector<4xi32> loc(#loc25)
    %x_33 = llvm.bitcast %x_32 : i32 to vector<1xf32> loc(#loc25)
    %x_34 = llvm.extractelement %x_27[%8 : i32] : vector<1xf32> loc(#loc25)
    %x_35 = llvm.extractelement %x_29[%8 : i32] : vector<1xf32> loc(#loc25)
    %x_36 = llvm.extractelement %x_31[%8 : i32] : vector<1xf32> loc(#loc25)
    %x_37 = llvm.extractelement %x_33[%8 : i32] : vector<1xf32> loc(#loc25)
    llvm.cond_br %mask_22, ^bb3, ^bb4(%1 : vector<4xi32>) loc(#loc25)
  ^bb3:  // pred: ^bb2
    %x_38 = llvm.load %x_23 {alignment = 16 : i64} : !llvm.ptr<1> -> vector<4xi32> loc(#loc25)
    llvm.br ^bb4(%x_38 : vector<4xi32>) loc(#loc25)
  ^bb4(%x_39: vector<4xi32> loc("x"(#loc8))):  // 2 preds: ^bb2, ^bb3
    %x_40 = llvm.extractelement %x_39[%8 : i32] : vector<4xi32> loc(#loc25)
    %x_41 = llvm.bitcast %x_40 : i32 to vector<1xf32> loc(#loc25)
    %x_42 = llvm.extractelement %x_39[%4 : i32] : vector<4xi32> loc(#loc25)
    %x_43 = llvm.bitcast %x_42 : i32 to vector<1xf32> loc(#loc25)
    %x_44 = llvm.extractelement %x_39[%5 : i32] : vector<4xi32> loc(#loc25)
    %x_45 = llvm.bitcast %x_44 : i32 to vector<1xf32> loc(#loc25)
    %x_46 = llvm.extractelement %x_39[%3 : i32] : vector<4xi32> loc(#loc25)
    %x_47 = llvm.bitcast %x_46 : i32 to vector<1xf32> loc(#loc25)
    %x_48 = llvm.extractelement %x_41[%8 : i32] : vector<1xf32> loc(#loc25)
    %x_49 = llvm.extractelement %x_43[%8 : i32] : vector<1xf32> loc(#loc25)
    %x_50 = llvm.extractelement %x_45[%8 : i32] : vector<1xf32> loc(#loc25)
    %x_51 = llvm.extractelement %x_47[%8 : i32] : vector<1xf32> loc(#loc25)
    %y = llvm.getelementptr %y_ptr[%offsets_20] : (!llvm.ptr<1>, i32) -> !llvm.ptr<1>, f32 loc(#loc26)
    %y_52 = llvm.getelementptr %y_ptr[%offsets_21] : (!llvm.ptr<1>, i32) -> !llvm.ptr<1>, f32 loc(#loc26)
    llvm.cond_br %mask, ^bb5, ^bb6(%1 : vector<4xi32>) loc(#loc27)
  ^bb5:  // pred: ^bb4
    %y_53 = llvm.load %y {alignment = 16 : i64} : !llvm.ptr<1> -> vector<4xi32> loc(#loc27)
    llvm.br ^bb6(%y_53 : vector<4xi32>) loc(#loc27)
  ^bb6(%y_54: vector<4xi32> loc("y"(#loc10))):  // 2 preds: ^bb4, ^bb5
    %y_55 = llvm.extractelement %y_54[%8 : i32] : vector<4xi32> loc(#loc27)
    %y_56 = llvm.bitcast %y_55 : i32 to vector<1xf32> loc(#loc27)
    %y_57 = llvm.extractelement %y_54[%4 : i32] : vector<4xi32> loc(#loc27)
    %y_58 = llvm.bitcast %y_57 : i32 to vector<1xf32> loc(#loc27)
    %y_59 = llvm.extractelement %y_54[%5 : i32] : vector<4xi32> loc(#loc27)
    %y_60 = llvm.bitcast %y_59 : i32 to vector<1xf32> loc(#loc27)
    %y_61 = llvm.extractelement %y_54[%3 : i32] : vector<4xi32> loc(#loc27)
    %y_62 = llvm.bitcast %y_61 : i32 to vector<1xf32> loc(#loc27)
    %y_63 = llvm.extractelement %y_56[%8 : i32] : vector<1xf32> loc(#loc27)
    %y_64 = llvm.extractelement %y_58[%8 : i32] : vector<1xf32> loc(#loc27)
    %y_65 = llvm.extractelement %y_60[%8 : i32] : vector<1xf32> loc(#loc27)
    %y_66 = llvm.extractelement %y_62[%8 : i32] : vector<1xf32> loc(#loc27)
    llvm.cond_br %mask_22, ^bb7, ^bb8(%1 : vector<4xi32>) loc(#loc27)
  ^bb7:  // pred: ^bb6
    %y_67 = llvm.load %y_52 {alignment = 16 : i64} : !llvm.ptr<1> -> vector<4xi32> loc(#loc27)
    llvm.br ^bb8(%y_67 : vector<4xi32>) loc(#loc27)
  ^bb8(%y_68: vector<4xi32> loc("y"(#loc10))):  // 2 preds: ^bb6, ^bb7
    %y_69 = llvm.extractelement %y_68[%8 : i32] : vector<4xi32> loc(#loc27)
    %y_70 = llvm.bitcast %y_69 : i32 to vector<1xf32> loc(#loc27)
    %y_71 = llvm.extractelement %y_68[%4 : i32] : vector<4xi32> loc(#loc27)
    %y_72 = llvm.bitcast %y_71 : i32 to vector<1xf32> loc(#loc27)
    %y_73 = llvm.extractelement %y_68[%5 : i32] : vector<4xi32> loc(#loc27)
    %y_74 = llvm.bitcast %y_73 : i32 to vector<1xf32> loc(#loc27)
    %y_75 = llvm.extractelement %y_68[%3 : i32] : vector<4xi32> loc(#loc27)
    %y_76 = llvm.bitcast %y_75 : i32 to vector<1xf32> loc(#loc27)
    %y_77 = llvm.extractelement %y_70[%8 : i32] : vector<1xf32> loc(#loc27)
    %y_78 = llvm.extractelement %y_72[%8 : i32] : vector<1xf32> loc(#loc27)
    %y_79 = llvm.extractelement %y_74[%8 : i32] : vector<1xf32> loc(#loc27)
    %y_80 = llvm.extractelement %y_76[%8 : i32] : vector<1xf32> loc(#loc27)
    %output = llvm.fadd %x_34, %y_63 : f32 loc(#loc28)
    %output_81 = llvm.fadd %x_35, %y_64 : f32 loc(#loc28)
    %output_82 = llvm.fadd %x_36, %y_65 : f32 loc(#loc28)
    %output_83 = llvm.fadd %x_37, %y_66 : f32 loc(#loc28)
    %output_84 = llvm.fadd %x_48, %y_77 : f32 loc(#loc28)
    %output_85 = llvm.fadd %x_49, %y_78 : f32 loc(#loc28)
    %output_86 = llvm.fadd %x_50, %y_79 : f32 loc(#loc28)
    %output_87 = llvm.fadd %x_51, %y_80 : f32 loc(#loc28)
    %10 = llvm.getelementptr %output_ptr[%offsets_20] : (!llvm.ptr<1>, i32) -> !llvm.ptr<1>, f32 loc(#loc12)
    %11 = llvm.getelementptr %output_ptr[%offsets_21] : (!llvm.ptr<1>, i32) -> !llvm.ptr<1>, f32 loc(#loc12)
    %12 = llvm.call spir_funccc @_Z12get_local_idj(%8) {memory_effects = #llvm.memory_effects<other = none, argMem = none, inaccessibleMem = none, errnoMem = none, targetMem0 = none, targetMem1 = none>, no_unwind, will_return} : (i32) -> i64 loc(#loc13)
    %13 = llvm.insertelement %output, %0[%8 : i32] : vector<1xf32> loc(#loc13)
    %14 = llvm.bitcast %13 : vector<1xf32> to i32 loc(#loc13)
    %15 = llvm.insertelement %output_81, %0[%8 : i32] : vector<1xf32> loc(#loc13)
    %16 = llvm.bitcast %15 : vector<1xf32> to i32 loc(#loc13)
    %17 = llvm.insertelement %output_82, %0[%8 : i32] : vector<1xf32> loc(#loc13)
    %18 = llvm.bitcast %17 : vector<1xf32> to i32 loc(#loc13)
    %19 = llvm.insertelement %output_83, %0[%8 : i32] : vector<1xf32> loc(#loc13)
    %20 = llvm.bitcast %19 : vector<1xf32> to i32 loc(#loc13)
    %21 = llvm.insertelement %14, %2[%8 : i32] : vector<4xi32> loc(#loc13)
    %22 = llvm.insertelement %16, %21[%4 : i32] : vector<4xi32> loc(#loc13)
    %23 = llvm.insertelement %18, %22[%5 : i32] : vector<4xi32> loc(#loc13)
    %24 = llvm.insertelement %20, %23[%3 : i32] : vector<4xi32> loc(#loc13)
    llvm.cond_br %mask, ^bb9, ^bb10 loc(#loc13)
  ^bb9:  // pred: ^bb8
    llvm.store %24, %10 {alignment = 16 : i64} : vector<4xi32>, !llvm.ptr<1> loc(#loc13)
    llvm.br ^bb10 loc(#loc13)
  ^bb10:  // 2 preds: ^bb8, ^bb9
    %25 = llvm.insertelement %output_84, %0[%8 : i32] : vector<1xf32> loc(#loc13)
    %26 = llvm.bitcast %25 : vector<1xf32> to i32 loc(#loc13)
    %27 = llvm.insertelement %output_85, %0[%8 : i32] : vector<1xf32> loc(#loc13)
    %28 = llvm.bitcast %27 : vector<1xf32> to i32 loc(#loc13)
    %29 = llvm.insertelement %output_86, %0[%8 : i32] : vector<1xf32> loc(#loc13)
    %30 = llvm.bitcast %29 : vector<1xf32> to i32 loc(#loc13)
    %31 = llvm.insertelement %output_87, %0[%8 : i32] : vector<1xf32> loc(#loc13)
    %32 = llvm.bitcast %31 : vector<1xf32> to i32 loc(#loc13)
    %33 = llvm.insertelement %26, %2[%8 : i32] : vector<4xi32> loc(#loc13)
    %34 = llvm.insertelement %28, %33[%4 : i32] : vector<4xi32> loc(#loc13)
    %35 = llvm.insertelement %30, %34[%5 : i32] : vector<4xi32> loc(#loc13)
    %36 = llvm.insertelement %32, %35[%3 : i32] : vector<4xi32> loc(#loc13)
    llvm.cond_br %mask_22, ^bb11, ^bb12 loc(#loc13)
  ^bb11:  // pred: ^bb10
    llvm.store %36, %11 {alignment = 16 : i64} : vector<4xi32>, !llvm.ptr<1> loc(#loc13)
    llvm.br ^bb12 loc(#loc13)
  ^bb12:  // 2 preds: ^bb10, ^bb11
    llvm.return loc(#loc14)
  } loc(#loc)
} loc(#loc)
#loc1 = loc(unknown)
#loc2 = loc("/home/jovyan/intel-xpu-backend-for-triton/python/tutorials/01-vector-add.py":45:41)
#loc3 = loc("/home/jovyan/intel-xpu-backend-for-triton/python/tutorials/01-vector-add.py":39:24)
#loc4 = loc("/home/jovyan/intel-xpu-backend-for-triton/python/tutorials/01-vector-add.py":44:24)
#loc5 = loc("/home/jovyan/intel-xpu-backend-for-triton/python/tutorials/01-vector-add.py":45:28)
#loc6 = loc("/home/jovyan/intel-xpu-backend-for-triton/python/tutorials/01-vector-add.py":47:21)
#loc7 = loc("/home/jovyan/intel-xpu-backend-for-triton/python/tutorials/01-vector-add.py":50:24)
#loc9 = loc("/home/jovyan/intel-xpu-backend-for-triton/python/tutorials/01-vector-add.py":51:24)
#loc11 = loc("/home/jovyan/intel-xpu-backend-for-triton/python/tutorials/01-vector-add.py":52:17)
#loc12 = loc("/home/jovyan/intel-xpu-backend-for-triton/python/tutorials/01-vector-add.py":54:26)
#loc13 = loc("/home/jovyan/intel-xpu-backend-for-triton/python/tutorials/01-vector-add.py":54:35)
#loc14 = loc("/home/jovyan/intel-xpu-backend-for-triton/python/tutorials/01-vector-add.py":54:4)
#loc19 = loc("offsets"(#loc2))
#loc20 = loc("pid"(#loc3))
#loc21 = loc("block_start"(#loc4))
#loc22 = loc("offsets"(#loc5))
#loc23 = loc("mask"(#loc6))
#loc24 = loc("x"(#loc7))
#loc26 = loc("y"(#loc9))
#loc28 = loc("output"(#loc11))
