#loc = loc("/tmp/torchinductor_jovyan/su/csufdsed7fyohhsaop725mkou53fevrmcko6xfztboqsracihwls.py":18:0)
module {
  tt.func public @triton_poi_fused_mm_view_5(%arg0: !tt.ptr<bf16> {tt.divisibility = 16 : i32} loc("/tmp/torchinductor_jovyan/su/csufdsed7fyohhsaop725mkou53fevrmcko6xfztboqsracihwls.py":18:0), %arg1: !tt.ptr<bf16> {tt.divisibility = 16 : i32} loc("/tmp/torchinductor_jovyan/su/csufdsed7fyohhsaop725mkou53fevrmcko6xfztboqsracihwls.py":18:0), %arg2: i64 loc("/tmp/torchinductor_jovyan/su/csufdsed7fyohhsaop725mkou53fevrmcko6xfztboqsracihwls.py":18:0), %arg3: i32 {tt.divisibility = 16 : i32} loc("/tmp/torchinductor_jovyan/su/csufdsed7fyohhsaop725mkou53fevrmcko6xfztboqsracihwls.py":18:0)) attributes {noinline = false} {
    %0 = tt.get_program_id x : i32 loc(#loc1)
    %c1024_i32 = arith.constant 1024 : i32 loc(#loc2)
    %c1024_i32_0 = arith.constant 1024 : i32 loc(#loc2)
    %1 = arith.muli %0, %c1024_i32_0 : i32 loc(#loc2)
    %2 = tt.make_range {end = 1024 : i32, start = 0 : i32} : tensor<1024xi32> loc(#loc3)
    %3 = tt.splat %1 : i32 -> tensor<1024xi32> loc(#loc4)
    %4 = arith.addi %3, %2 : tensor<1024xi32> loc(#loc4)
    %true = arith.constant true loc(#loc5)
    %cst = arith.constant dense<true> : tensor<1024xi1> loc(#loc5)
    %c4096_i32 = arith.constant 4096 : i32 loc(#loc6)
    %c4096_i32_1 = arith.constant 4096 : i32 loc(#loc6)
    %cst_2 = arith.constant dense<4096> : tensor<1024xi32> loc(#loc6)
    %5 = arith.remsi %4, %cst_2 : tensor<1024xi32> loc(#loc6)
    %c4096_i32_3 = arith.constant 4096 : i32 loc(#loc7)
    %c4096_i32_4 = arith.constant 4096 : i32 loc(#loc7)
    %cst_5 = arith.constant dense<4096> : tensor<1024xi32> loc(#loc7)
    %6 = arith.divsi %4, %cst_5 : tensor<1024xi32> loc(#loc7)
    %c128_i32 = arith.constant 128 : i32 loc(#loc8)
    %c128_i32_6 = arith.constant 128 : i32 loc(#loc8)
    %cst_7 = arith.constant dense<128> : tensor<1024xi32> loc(#loc8)
    %7 = arith.muli %cst_7, %6 : tensor<1024xi32> loc(#loc8)
    %c128_i32_8 = arith.constant 128 : i32 loc(#loc9)
    %c128_i64 = arith.constant 128 : i64 loc(#loc9)
    %8 = arith.muli %c128_i64, %arg2 : i64 loc(#loc9)
    %c128_i32_9 = arith.constant 128 : i32 loc(#loc10)
    %c128_i32_10 = arith.constant 128 : i32 loc(#loc10)
    %cst_11 = arith.constant dense<128> : tensor<1024xi32> loc(#loc10)
    %9 = arith.divsi %5, %cst_11 : tensor<1024xi32> loc(#loc10)
    %10 = arith.extsi %9 : tensor<1024xi32> to tensor<1024xi64> loc(#loc11)
    %11 = tt.splat %8 : i64 -> tensor<1024xi64> loc(#loc11)
    %12 = arith.muli %11, %10 : tensor<1024xi64> loc(#loc11)
    %13 = arith.extsi %7 : tensor<1024xi32> to tensor<1024xi64> loc(#loc12)
    %14 = arith.addi %13, %12 : tensor<1024xi64> loc(#loc12)
    %c128_i32_12 = arith.constant 128 : i32 loc(#loc13)
    %c128_i32_13 = arith.constant 128 : i32 loc(#loc13)
    %cst_14 = arith.constant dense<128> : tensor<1024xi32> loc(#loc13)
    %15 = arith.remsi %5, %cst_14 : tensor<1024xi32> loc(#loc13)
    %16 = arith.extsi %15 : tensor<1024xi32> to tensor<1024xi64> loc(#loc14)
    %17 = arith.addi %14, %16 : tensor<1024xi64> loc(#loc14)
    %18 = tt.splat %arg0 : !tt.ptr<bf16> -> tensor<1024x!tt.ptr<bf16>> loc(#loc15)
    %19 = tt.addptr %18, %17 : tensor<1024x!tt.ptr<bf16>>, tensor<1024xi64> loc(#loc15)
    %20 = tt.load %19 : tensor<1024x!tt.ptr<bf16>> loc(#loc16)
    %21 = arith.extf %20 : tensor<1024xbf16> to tensor<1024xf32> loc(#loc17)
    %22 = tt.splat %arg1 : !tt.ptr<bf16> -> tensor<1024x!tt.ptr<bf16>> loc(#loc18)
    %23 = tt.addptr %22, %4 : tensor<1024x!tt.ptr<bf16>>, tensor<1024xi32> loc(#loc18)
    %24 = arith.truncf %21 : tensor<1024xf32> to tensor<1024xbf16> loc(#loc19)
    tt.store %23, %24 : tensor<1024x!tt.ptr<bf16>> loc(#loc19)
    tt.return loc(#loc20)
  } loc(#loc)
} loc(#loc)
#loc1 = loc("/tmp/torchinductor_jovyan/su/csufdsed7fyohhsaop725mkou53fevrmcko6xfztboqsracihwls.py":19:28)
#loc2 = loc("/tmp/torchinductor_jovyan/su/csufdsed7fyohhsaop725mkou53fevrmcko6xfztboqsracihwls.py":19:33)
#loc3 = loc("/tmp/torchinductor_jovyan/su/csufdsed7fyohhsaop725mkou53fevrmcko6xfztboqsracihwls.py":20:36)
#loc4 = loc("/tmp/torchinductor_jovyan/su/csufdsed7fyohhsaop725mkou53fevrmcko6xfztboqsracihwls.py":20:23)
#loc5 = loc("/tmp/torchinductor_jovyan/su/csufdsed7fyohhsaop725mkou53fevrmcko6xfztboqsracihwls.py":21:36)
#loc6 = loc("/tmp/torchinductor_jovyan/su/csufdsed7fyohhsaop725mkou53fevrmcko6xfztboqsracihwls.py":22:19)
#loc7 = loc("/tmp/torchinductor_jovyan/su/csufdsed7fyohhsaop725mkou53fevrmcko6xfztboqsracihwls.py":23:19)
#loc8 = loc("/tmp/torchinductor_jovyan/su/csufdsed7fyohhsaop725mkou53fevrmcko6xfztboqsracihwls.py":25:34)
#loc9 = loc("/tmp/torchinductor_jovyan/su/csufdsed7fyohhsaop725mkou53fevrmcko6xfztboqsracihwls.py":25:43)
#loc10 = loc("/tmp/torchinductor_jovyan/su/csufdsed7fyohhsaop725mkou53fevrmcko6xfztboqsracihwls.py":25:54)
#loc11 = loc("/tmp/torchinductor_jovyan/su/csufdsed7fyohhsaop725mkou53fevrmcko6xfztboqsracihwls.py":25:48)
#loc12 = loc("/tmp/torchinductor_jovyan/su/csufdsed7fyohhsaop725mkou53fevrmcko6xfztboqsracihwls.py":25:39)
#loc13 = loc("/tmp/torchinductor_jovyan/su/csufdsed7fyohhsaop725mkou53fevrmcko6xfztboqsracihwls.py":25:68)
#loc14 = loc("/tmp/torchinductor_jovyan/su/csufdsed7fyohhsaop725mkou53fevrmcko6xfztboqsracihwls.py":25:63)
#loc15 = loc("/tmp/torchinductor_jovyan/su/csufdsed7fyohhsaop725mkou53fevrmcko6xfztboqsracihwls.py":25:30)
#loc16 = loc("/tmp/torchinductor_jovyan/su/csufdsed7fyohhsaop725mkou53fevrmcko6xfztboqsracihwls.py":25:76)
#loc17 = loc("/tmp/torchinductor_jovyan/su/csufdsed7fyohhsaop725mkou53fevrmcko6xfztboqsracihwls.py":25:85)
#loc18 = loc("/tmp/torchinductor_jovyan/su/csufdsed7fyohhsaop725mkou53fevrmcko6xfztboqsracihwls.py":26:25)
#loc19 = loc("/tmp/torchinductor_jovyan/su/csufdsed7fyohhsaop725mkou53fevrmcko6xfztboqsracihwls.py":26:36)
#loc20 = loc("/tmp/torchinductor_jovyan/su/csufdsed7fyohhsaop725mkou53fevrmcko6xfztboqsracihwls.py":26:4)
