#loc = loc("/tmp/torchinductor_jovyan/sq/csq7tpc72bozq75b5cznysoinw4uxpkekjpx7jjdzy63pymfxeoj.py":18:0)
module {
  tt.func public @triton_poi_fused_cat_3(%arg0: !tt.ptr<bf16> {tt.divisibility = 16 : i32} loc("/tmp/torchinductor_jovyan/sq/csq7tpc72bozq75b5cznysoinw4uxpkekjpx7jjdzy63pymfxeoj.py":18:0), %arg1: !tt.ptr<bf16> {tt.divisibility = 16 : i32} loc("/tmp/torchinductor_jovyan/sq/csq7tpc72bozq75b5cznysoinw4uxpkekjpx7jjdzy63pymfxeoj.py":18:0), %arg2: !tt.ptr<bf16> {tt.divisibility = 16 : i32} loc("/tmp/torchinductor_jovyan/sq/csq7tpc72bozq75b5cznysoinw4uxpkekjpx7jjdzy63pymfxeoj.py":18:0), %arg3: i64 loc("/tmp/torchinductor_jovyan/sq/csq7tpc72bozq75b5cznysoinw4uxpkekjpx7jjdzy63pymfxeoj.py":18:0), %arg4: i64 loc("/tmp/torchinductor_jovyan/sq/csq7tpc72bozq75b5cznysoinw4uxpkekjpx7jjdzy63pymfxeoj.py":18:0), %arg5: i64 {tt.divisibility = 16 : i32} loc("/tmp/torchinductor_jovyan/sq/csq7tpc72bozq75b5cznysoinw4uxpkekjpx7jjdzy63pymfxeoj.py":18:0), %arg6: i32 {tt.divisibility = 16 : i32} loc("/tmp/torchinductor_jovyan/sq/csq7tpc72bozq75b5cznysoinw4uxpkekjpx7jjdzy63pymfxeoj.py":18:0)) attributes {noinline = false} {
    %cst = arith.constant dense<0.000000e+00> : tensor<512xbf16> loc(#loc1)
    %cst_0 = arith.constant dense<128> : tensor<512xi64> loc(#loc1)
    %c128_i64 = arith.constant 128 : i64 loc(#loc1)
    %cst_1 = arith.constant dense<128> : tensor<512xi32> loc(#loc1)
    %c512_i32 = arith.constant 512 : i32 loc(#loc1)
    %0 = tt.get_program_id x : i32 loc(#loc2)
    %1 = arith.muli %0, %c512_i32 : i32 loc(#loc3)
    %2 = tt.make_range {end = 512 : i32, start = 0 : i32} : tensor<512xi32> loc(#loc4)
    %3 = tt.splat %1 : i32 -> tensor<512xi32> loc(#loc5)
    %4 = arith.addi %3, %2 : tensor<512xi32> loc(#loc5)
    %5 = tt.splat %arg6 : i32 -> tensor<512xi32> loc(#loc6)
    %6 = arith.cmpi slt, %4, %5 : tensor<512xi32> loc(#loc6)
    %7 = arith.divsi %4, %cst_1 : tensor<512xi32> loc(#loc7)
    %8 = arith.extsi %7 : tensor<512xi32> to tensor<512xi64> loc(#loc8)
    %9 = tt.splat %arg3 : i64 -> tensor<512xi64> loc(#loc8)
    %10 = arith.remsi %8, %9 : tensor<512xi64> loc(#loc8)
    %11 = arith.remsi %4, %cst_1 : tensor<512xi32> loc(#loc9)
    %12 = arith.extsi %4 : tensor<512xi32> to tensor<512xi64> loc(#loc10)
    %13 = tt.splat %arg5 : i64 -> tensor<512xi64> loc(#loc10)
    %14 = arith.divsi %12, %13 : tensor<512xi64> loc(#loc10)
    %15 = tt.splat %arg4 : i64 -> tensor<512xi64> loc(#loc11)
    %16 = arith.cmpi slt, %10, %15 : tensor<512xi64> loc(#loc11)
    %17 = arith.muli %10, %cst_0 : tensor<512xi64> loc(#loc12)
    %18 = arith.extsi %11 : tensor<512xi32> to tensor<512xi64> loc(#loc13)
    %19 = arith.addi %18, %17 : tensor<512xi64> loc(#loc13)
    %20 = arith.muli %arg4, %c128_i64 : i64 loc(#loc14)
    %21 = tt.splat %20 : i64 -> tensor<512xi64> loc(#loc15)
    %22 = arith.muli %21, %14 : tensor<512xi64> loc(#loc15)
    %23 = arith.addi %19, %22 : tensor<512xi64> loc(#loc16)
    %24 = tt.splat %arg0 : !tt.ptr<bf16> -> tensor<512x!tt.ptr<bf16>> loc(#loc17)
    %25 = tt.addptr %24, %23 : tensor<512x!tt.ptr<bf16>>, tensor<512xi64> loc(#loc17)
    %26 = arith.andi %16, %6 : tensor<512xi1> loc(#loc18)
    %27 = tt.load %25, %26, %cst evictionPolicy = evict_last : tensor<512x!tt.ptr<bf16>> loc(#loc19)
    %28 = arith.extf %27 : tensor<512xbf16> to tensor<512xf32> loc(#loc20)
    %29 = arith.cmpi sge, %10, %15 : tensor<512xi64> loc(#loc21)
    %30 = arith.muli %14, %cst_0 : tensor<512xi64> loc(#loc22)
    %31 = arith.addi %18, %30 : tensor<512xi64> loc(#loc23)
    %32 = tt.splat %arg1 : !tt.ptr<bf16> -> tensor<512x!tt.ptr<bf16>> loc(#loc24)
    %33 = tt.addptr %32, %31 : tensor<512x!tt.ptr<bf16>>, tensor<512xi64> loc(#loc24)
    %34 = arith.andi %29, %6 : tensor<512xi1> loc(#loc25)
    %35 = tt.load %33, %34, %cst evictionPolicy = evict_last : tensor<512x!tt.ptr<bf16>> loc(#loc26)
    %36 = arith.extf %35 : tensor<512xbf16> to tensor<512xf32> loc(#loc27)
    %37 = arith.select %16, %28, %36 : tensor<512xi1>, tensor<512xf32> loc(#loc28)
    %38 = tt.splat %arg2 : !tt.ptr<bf16> -> tensor<512x!tt.ptr<bf16>> loc(#loc29)
    %39 = tt.addptr %38, %4 : tensor<512x!tt.ptr<bf16>>, tensor<512xi32> loc(#loc29)
    %40 = arith.truncf %37 : tensor<512xf32> to tensor<512xbf16> loc(#loc30)
    tt.store %39, %40, %6 : tensor<512x!tt.ptr<bf16>> loc(#loc30)
    tt.return loc(#loc31)
  } loc(#loc)
} loc(#loc)
#loc1 = loc(unknown)
#loc2 = loc("/tmp/torchinductor_jovyan/sq/csq7tpc72bozq75b5cznysoinw4uxpkekjpx7jjdzy63pymfxeoj.py":19:28)
#loc3 = loc("/tmp/torchinductor_jovyan/sq/csq7tpc72bozq75b5cznysoinw4uxpkekjpx7jjdzy63pymfxeoj.py":19:33)
#loc4 = loc("/tmp/torchinductor_jovyan/sq/csq7tpc72bozq75b5cznysoinw4uxpkekjpx7jjdzy63pymfxeoj.py":20:36)
#loc5 = loc("/tmp/torchinductor_jovyan/sq/csq7tpc72bozq75b5cznysoinw4uxpkekjpx7jjdzy63pymfxeoj.py":20:23)
#loc6 = loc("/tmp/torchinductor_jovyan/sq/csq7tpc72bozq75b5cznysoinw4uxpkekjpx7jjdzy63pymfxeoj.py":21:21)
#loc7 = loc("/tmp/torchinductor_jovyan/sq/csq7tpc72bozq75b5cznysoinw4uxpkekjpx7jjdzy63pymfxeoj.py":22:21)
#loc8 = loc("/tmp/torchinductor_jovyan/sq/csq7tpc72bozq75b5cznysoinw4uxpkekjpx7jjdzy63pymfxeoj.py":22:28)
#loc9 = loc("/tmp/torchinductor_jovyan/sq/csq7tpc72bozq75b5cznysoinw4uxpkekjpx7jjdzy63pymfxeoj.py":23:19)
#loc10 = loc("/tmp/torchinductor_jovyan/sq/csq7tpc72bozq75b5cznysoinw4uxpkekjpx7jjdzy63pymfxeoj.py":24:19)
#loc11 = loc("/tmp/torchinductor_jovyan/sq/csq7tpc72bozq75b5cznysoinw4uxpkekjpx7jjdzy63pymfxeoj.py":30:18)
#loc12 = loc("/tmp/torchinductor_jovyan/sq/csq7tpc72bozq75b5cznysoinw4uxpkekjpx7jjdzy63pymfxeoj.py":31:40)
#loc13 = loc("/tmp/torchinductor_jovyan/sq/csq7tpc72bozq75b5cznysoinw4uxpkekjpx7jjdzy63pymfxeoj.py":31:35)
#loc14 = loc("/tmp/torchinductor_jovyan/sq/csq7tpc72bozq75b5cznysoinw4uxpkekjpx7jjdzy63pymfxeoj.py":31:50)
#loc15 = loc("/tmp/torchinductor_jovyan/sq/csq7tpc72bozq75b5cznysoinw4uxpkekjpx7jjdzy63pymfxeoj.py":31:54)
#loc16 = loc("/tmp/torchinductor_jovyan/sq/csq7tpc72bozq75b5cznysoinw4uxpkekjpx7jjdzy63pymfxeoj.py":31:46)
#loc17 = loc("/tmp/torchinductor_jovyan/sq/csq7tpc72bozq75b5cznysoinw4uxpkekjpx7jjdzy63pymfxeoj.py":31:30)
#loc18 = loc("/tmp/torchinductor_jovyan/sq/csq7tpc72bozq75b5cznysoinw4uxpkekjpx7jjdzy63pymfxeoj.py":31:66)
#loc19 = loc("/tmp/torchinductor_jovyan/sq/csq7tpc72bozq75b5cznysoinw4uxpkekjpx7jjdzy63pymfxeoj.py":31:59)
#loc20 = loc("/tmp/torchinductor_jovyan/sq/csq7tpc72bozq75b5cznysoinw4uxpkekjpx7jjdzy63pymfxeoj.py":31:117)
#loc21 = loc("/tmp/torchinductor_jovyan/sq/csq7tpc72bozq75b5cznysoinw4uxpkekjpx7jjdzy63pymfxeoj.py":32:19)
#loc22 = loc("/tmp/torchinductor_jovyan/sq/csq7tpc72bozq75b5cznysoinw4uxpkekjpx7jjdzy63pymfxeoj.py":35:39)
#loc23 = loc("/tmp/torchinductor_jovyan/sq/csq7tpc72bozq75b5cznysoinw4uxpkekjpx7jjdzy63pymfxeoj.py":35:35)
#loc24 = loc("/tmp/torchinductor_jovyan/sq/csq7tpc72bozq75b5cznysoinw4uxpkekjpx7jjdzy63pymfxeoj.py":35:30)
#loc25 = loc("/tmp/torchinductor_jovyan/sq/csq7tpc72bozq75b5cznysoinw4uxpkekjpx7jjdzy63pymfxeoj.py":35:51)
#loc26 = loc("/tmp/torchinductor_jovyan/sq/csq7tpc72bozq75b5cznysoinw4uxpkekjpx7jjdzy63pymfxeoj.py":35:44)
#loc27 = loc("/tmp/torchinductor_jovyan/sq/csq7tpc72bozq75b5cznysoinw4uxpkekjpx7jjdzy63pymfxeoj.py":35:102)
#loc28 = loc("/tmp/torchinductor_jovyan/sq/csq7tpc72bozq75b5cznysoinw4uxpkekjpx7jjdzy63pymfxeoj.py":36:33)
#loc29 = loc("/tmp/torchinductor_jovyan/sq/csq7tpc72bozq75b5cznysoinw4uxpkekjpx7jjdzy63pymfxeoj.py":37:25)
#loc30 = loc("/tmp/torchinductor_jovyan/sq/csq7tpc72bozq75b5cznysoinw4uxpkekjpx7jjdzy63pymfxeoj.py":37:37)
#loc31 = loc("/tmp/torchinductor_jovyan/sq/csq7tpc72bozq75b5cznysoinw4uxpkekjpx7jjdzy63pymfxeoj.py":37:4)
