#loc = loc("/tmp/torchinductor_jovyan/mn/cmnx2qxnd33y57yd7fd4m6ycgqctc2plmp6jx5kvkq4n7vku2aox.py":18:0)
module {
  tt.func public @triton_poi_fused_mul_silu_9(%arg0: !tt.ptr<bf16> {tt.divisibility = 16 : i32} loc("/tmp/torchinductor_jovyan/mn/cmnx2qxnd33y57yd7fd4m6ycgqctc2plmp6jx5kvkq4n7vku2aox.py":18:0), %arg1: !tt.ptr<bf16> {tt.divisibility = 16 : i32} loc("/tmp/torchinductor_jovyan/mn/cmnx2qxnd33y57yd7fd4m6ycgqctc2plmp6jx5kvkq4n7vku2aox.py":18:0), %arg2: i32 {tt.divisibility = 16 : i32} loc("/tmp/torchinductor_jovyan/mn/cmnx2qxnd33y57yd7fd4m6ycgqctc2plmp6jx5kvkq4n7vku2aox.py":18:0)) attributes {noinline = false} {
    %cst = arith.constant dense<0.000000e+00> : tensor<256xf32> loc(#loc1)
    %cst_0 = arith.constant dense<1.000000e+00> : tensor<256xf32> loc(#loc1)
    %cst_1 = arith.constant dense<14336> : tensor<256xi32> loc(#loc1)
    %c256_i32 = arith.constant 256 : i32 loc(#loc1)
    %0 = tt.get_program_id x : i32 loc(#loc2)
    %1 = arith.muli %0, %c256_i32 : i32 loc(#loc3)
    %2 = tt.make_range {end = 256 : i32, start = 0 : i32} : tensor<256xi32> loc(#loc4)
    %3 = tt.splat %1 : i32 -> tensor<256xi32> loc(#loc5)
    %4 = arith.addi %3, %2 : tensor<256xi32> loc(#loc5)
    %5 = arith.cmpi slt, %4, %cst_1 : tensor<256xi32> loc(#loc6)
    %6 = tt.splat %arg0 : !tt.ptr<bf16> -> tensor<256x!tt.ptr<bf16>> loc(#loc7)
    %7 = tt.addptr %6, %4 : tensor<256x!tt.ptr<bf16>>, tensor<256xi32> loc(#loc7)
    %8 = tt.load %7, %5 : tensor<256x!tt.ptr<bf16>> loc(#loc8)
    %9 = arith.extf %8 : tensor<256xbf16> to tensor<256xf32> loc(#loc9)
    %10 = tt.splat %arg1 : !tt.ptr<bf16> -> tensor<256x!tt.ptr<bf16>> loc(#loc10)
    %11 = tt.addptr %10, %4 : tensor<256x!tt.ptr<bf16>>, tensor<256xi32> loc(#loc10)
    %12 = tt.load %11, %5 : tensor<256x!tt.ptr<bf16>> loc(#loc11)
    %13 = arith.extf %12 : tensor<256xbf16> to tensor<256xf32> loc(#loc12)
    %14 = arith.subf %cst, %9 : tensor<256xf32> loc(#loc22)
    %15 = math.exp %14 : tensor<256xf32> loc(#loc23)
    %16 = arith.addf %15, %cst_0 : tensor<256xf32> loc(#loc24)
    %17 = arith.divf %cst_0, %16 : tensor<256xf32> loc(#loc25)
    %18 = arith.mulf %9, %17 : tensor<256xf32> loc(#loc18)
    %19 = arith.mulf %18, %13 : tensor<256xf32> loc(#loc19)
    %20 = arith.truncf %19 : tensor<256xf32> to tensor<256xbf16> loc(#loc20)
    tt.store %7, %20, %5 : tensor<256x!tt.ptr<bf16>> loc(#loc20)
    tt.return loc(#loc21)
  } loc(#loc)
} loc(#loc)
#loc1 = loc(unknown)
#loc2 = loc("/tmp/torchinductor_jovyan/mn/cmnx2qxnd33y57yd7fd4m6ycgqctc2plmp6jx5kvkq4n7vku2aox.py":20:28)
#loc3 = loc("/tmp/torchinductor_jovyan/mn/cmnx2qxnd33y57yd7fd4m6ycgqctc2plmp6jx5kvkq4n7vku2aox.py":20:33)
#loc4 = loc("/tmp/torchinductor_jovyan/mn/cmnx2qxnd33y57yd7fd4m6ycgqctc2plmp6jx5kvkq4n7vku2aox.py":21:36)
#loc5 = loc("/tmp/torchinductor_jovyan/mn/cmnx2qxnd33y57yd7fd4m6ycgqctc2plmp6jx5kvkq4n7vku2aox.py":21:23)
#loc6 = loc("/tmp/torchinductor_jovyan/mn/cmnx2qxnd33y57yd7fd4m6ycgqctc2plmp6jx5kvkq4n7vku2aox.py":22:21)
#loc7 = loc("/tmp/torchinductor_jovyan/mn/cmnx2qxnd33y57yd7fd4m6ycgqctc2plmp6jx5kvkq4n7vku2aox.py":24:34)
#loc8 = loc("/tmp/torchinductor_jovyan/mn/cmnx2qxnd33y57yd7fd4m6ycgqctc2plmp6jx5kvkq4n7vku2aox.py":24:39)
#loc9 = loc("/tmp/torchinductor_jovyan/mn/cmnx2qxnd33y57yd7fd4m6ycgqctc2plmp6jx5kvkq4n7vku2aox.py":24:49)
#loc10 = loc("/tmp/torchinductor_jovyan/mn/cmnx2qxnd33y57yd7fd4m6ycgqctc2plmp6jx5kvkq4n7vku2aox.py":25:30)
#loc11 = loc("/tmp/torchinductor_jovyan/mn/cmnx2qxnd33y57yd7fd4m6ycgqctc2plmp6jx5kvkq4n7vku2aox.py":25:35)
#loc12 = loc("/tmp/torchinductor_jovyan/mn/cmnx2qxnd33y57yd7fd4m6ycgqctc2plmp6jx5kvkq4n7vku2aox.py":25:45)
#loc13 = loc("/home/jovyan/intel-xpu-backend-for-triton/python/triton/language/standard.py":47:30)
#loc14 = loc("/tmp/torchinductor_jovyan/mn/cmnx2qxnd33y57yd7fd4m6ycgqctc2plmp6jx5kvkq4n7vku2aox.py":27:22)
#loc15 = loc("/home/jovyan/intel-xpu-backend-for-triton/python/triton/language/standard.py":47:29)
#loc16 = loc("/home/jovyan/intel-xpu-backend-for-triton/python/triton/language/standard.py":47:20)
#loc17 = loc("/home/jovyan/intel-xpu-backend-for-triton/python/triton/language/standard.py":47:16)
#loc18 = loc("/tmp/torchinductor_jovyan/mn/cmnx2qxnd33y57yd7fd4m6ycgqctc2plmp6jx5kvkq4n7vku2aox.py":28:18)
#loc19 = loc("/tmp/torchinductor_jovyan/mn/cmnx2qxnd33y57yd7fd4m6ycgqctc2plmp6jx5kvkq4n7vku2aox.py":30:18)
#loc20 = loc("/tmp/torchinductor_jovyan/mn/cmnx2qxnd33y57yd7fd4m6ycgqctc2plmp6jx5kvkq4n7vku2aox.py":31:39)
#loc21 = loc("/tmp/torchinductor_jovyan/mn/cmnx2qxnd33y57yd7fd4m6ycgqctc2plmp6jx5kvkq4n7vku2aox.py":31:4)
#loc22 = loc(callsite(#loc13 at #loc14))
#loc23 = loc(callsite(#loc15 at #loc14))
#loc24 = loc(callsite(#loc16 at #loc14))
#loc25 = loc(callsite(#loc17 at #loc14))
