#loc = loc("/tmp/torchinductor_jovyan/75/c75kq5wxnpekebh5gvgkjr6rffk6ub47rqvknmtvenmyhq2jxbt2.py":18:0)
#loc1 = loc(unknown)
#loc40 = loc("/tmp/torchinductor_jovyan/75/c75kq5wxnpekebh5gvgkjr6rffk6ub47rqvknmtvenmyhq2jxbt2.py":350:16)
#loc41 = loc("/tmp/torchinductor_jovyan/75/c75kq5wxnpekebh5gvgkjr6rffk6ub47rqvknmtvenmyhq2jxbt2.py":198:8)
#loc63 = loc("/tmp/torchinductor_jovyan/75/c75kq5wxnpekebh5gvgkjr6rffk6ub47rqvknmtvenmyhq2jxbt2.py":476:51)
#loc75 = loc("/tmp/torchinductor_jovyan/75/c75kq5wxnpekebh5gvgkjr6rffk6ub47rqvknmtvenmyhq2jxbt2.py":489:34)
#loc116 = loc("/tmp/torchinductor_jovyan/75/c75kq5wxnpekebh5gvgkjr6rffk6ub47rqvknmtvenmyhq2jxbt2.py":239:12)
#loc144 = loc(callsite(#loc40 at #loc41))
#loc152 = loc(callsite(#loc40 at #loc116))
#loc177 = loc(callsite(#loc63 at #loc144))
#loc187 = loc(callsite(#loc75 at #loc144))
#loc217 = loc(callsite(#loc63 at #loc152))
#loc227 = loc(callsite(#loc75 at #loc152))
#loc255 = loc(callsite(#loc1 at #loc177))
#loc257 = loc(callsite(#loc1 at #loc187))
#loc261 = loc(callsite(#loc1 at #loc217))
#loc263 = loc(callsite(#loc1 at #loc227))
module {
  tt.func public @triton_tem_fused__to_copy_add_cat_cos_mul_neg_sin_unsqueeze_4(%arg0: !tt.ptr<bf16> {tt.divisibility = 16 : i32} loc("/tmp/torchinductor_jovyan/75/c75kq5wxnpekebh5gvgkjr6rffk6ub47rqvknmtvenmyhq2jxbt2.py":18:0), %arg1: !tt.ptr<bf16> {tt.divisibility = 16 : i32} loc("/tmp/torchinductor_jovyan/75/c75kq5wxnpekebh5gvgkjr6rffk6ub47rqvknmtvenmyhq2jxbt2.py":18:0), %arg2: !tt.ptr<bf16> {tt.divisibility = 16 : i32} loc("/tmp/torchinductor_jovyan/75/c75kq5wxnpekebh5gvgkjr6rffk6ub47rqvknmtvenmyhq2jxbt2.py":18:0), %arg3: !tt.ptr<f32> {tt.divisibility = 16 : i32} loc("/tmp/torchinductor_jovyan/75/c75kq5wxnpekebh5gvgkjr6rffk6ub47rqvknmtvenmyhq2jxbt2.py":18:0), %arg4: !tt.ptr<i32> {tt.divisibility = 16 : i32} loc("/tmp/torchinductor_jovyan/75/c75kq5wxnpekebh5gvgkjr6rffk6ub47rqvknmtvenmyhq2jxbt2.py":18:0), %arg5: !tt.ptr<i32> {tt.divisibility = 16 : i32} loc("/tmp/torchinductor_jovyan/75/c75kq5wxnpekebh5gvgkjr6rffk6ub47rqvknmtvenmyhq2jxbt2.py":18:0), %arg6: !tt.ptr<i32> {tt.divisibility = 16 : i32} loc("/tmp/torchinductor_jovyan/75/c75kq5wxnpekebh5gvgkjr6rffk6ub47rqvknmtvenmyhq2jxbt2.py":18:0), %arg7: !tt.ptr<i32> {tt.divisibility = 16 : i32} loc("/tmp/torchinductor_jovyan/75/c75kq5wxnpekebh5gvgkjr6rffk6ub47rqvknmtvenmyhq2jxbt2.py":18:0), %arg8: !tt.ptr<i64> {tt.divisibility = 16 : i32} loc("/tmp/torchinductor_jovyan/75/c75kq5wxnpekebh5gvgkjr6rffk6ub47rqvknmtvenmyhq2jxbt2.py":18:0), %arg9: !tt.ptr<i1> {tt.divisibility = 16 : i32} loc("/tmp/torchinductor_jovyan/75/c75kq5wxnpekebh5gvgkjr6rffk6ub47rqvknmtvenmyhq2jxbt2.py":18:0), %arg10: !tt.ptr<bf16> {tt.divisibility = 16 : i32} loc("/tmp/torchinductor_jovyan/75/c75kq5wxnpekebh5gvgkjr6rffk6ub47rqvknmtvenmyhq2jxbt2.py":18:0), %arg11: i32 loc("/tmp/torchinductor_jovyan/75/c75kq5wxnpekebh5gvgkjr6rffk6ub47rqvknmtvenmyhq2jxbt2.py":18:0), %arg12: i32 loc("/tmp/torchinductor_jovyan/75/c75kq5wxnpekebh5gvgkjr6rffk6ub47rqvknmtvenmyhq2jxbt2.py":18:0), %arg13: i32 loc("/tmp/torchinductor_jovyan/75/c75kq5wxnpekebh5gvgkjr6rffk6ub47rqvknmtvenmyhq2jxbt2.py":18:0), %arg14: i32 loc("/tmp/torchinductor_jovyan/75/c75kq5wxnpekebh5gvgkjr6rffk6ub47rqvknmtvenmyhq2jxbt2.py":18:0), %arg15: i32 loc("/tmp/torchinductor_jovyan/75/c75kq5wxnpekebh5gvgkjr6rffk6ub47rqvknmtvenmyhq2jxbt2.py":18:0)) attributes {noinline = false} {
    %cst = arith.constant dense<0xFF800000> : tensor<128xf32> loc(#loc1)
    %cst_0 = arith.constant dense<1.44269502> : tensor<128x64xf32> loc(#loc1)
    %cst_1 = arith.constant dense<false> : tensor<128x64xi1> loc(#loc1)
    %cst_2 = arith.constant dense<0> : tensor<1x64xi8> loc(#loc1)
    %cst_3 = arith.constant dense<0xFF800000> : tensor<128x64xf32> loc(#loc1)
    %cst_4 = arith.constant dense<0.0883883461> : tensor<128x64xf32> loc(#loc1)
    %cst_5 = arith.constant dense<0.000000e+00> : tensor<128x64xf32> loc(#loc1)
    %c63_i32 = arith.constant 63 : i32 loc(#loc1)
    %c64_i32 = arith.constant 64 : i32 loc(#loc1)
    %cst_6 = arith.constant dense<0.000000e+00> : tensor<128x128xf32> loc(#loc1)
    %c1024_i64 = arith.constant 1024 : i64 loc(#loc1)
    %c1_i64 = arith.constant 1 : i64 loc(#loc1)
    %c4096_i64 = arith.constant 4096 : i64 loc(#loc1)
    %cst_7 = arith.constant dense<128> : tensor<128x1xi32> loc(#loc1)
    %cst_8 = arith.constant dense<128> : tensor<1x128xi32> loc(#loc1)
    %cst_9 = arith.constant dense<1.000000e+00> : tensor<128xf32> loc(#loc1)
    %cst_10 = arith.constant dense<0.000000e+00> : tensor<128xf32> loc(#loc1)
    %c2_i32 = arith.constant 2 : i32 loc(#loc1)
    %c0_i32 = arith.constant 0 : i32 loc(#loc1)
    %c128_i64 = arith.constant 128 : i64 loc(#loc1)
    %c4_i32 = arith.constant 4 : i32 loc(#loc1)
    %c32_i32 = arith.constant 32 : i32 loc(#loc1)
    %c1_i32 = arith.constant 1 : i32 loc(#loc1)
    %c128_i32 = arith.constant 128 : i32 loc(#loc1)
    %c4096_i32 = arith.constant 4096 : i32 loc(#loc1)
    %0 = arith.muli %arg11, %c4096_i32 : i32 loc(#loc2)
    %1 = tt.get_program_id x : i32 loc(#loc3)
    %2 = tt.get_program_id y : i32 loc(#loc4)
    %3 = tt.get_program_id z : i32 loc(#loc5)
    %4 = arith.divsi %3, %c4_i32 : i32 loc(#loc6)
    %5 = arith.muli %2, %0 : i32 loc(#loc7)
    %6 = arith.muli %3, %c128_i32 : i32 loc(#loc8)
    %7 = arith.addi %5, %6 : i32 loc(#loc9)
    %8 = arith.muli %4, %c128_i32 : i32 loc(#loc10)
    %9 = tt.addptr %arg0, %7 : !tt.ptr<bf16>, i32 loc(#loc11)
    %10 = tt.addptr %arg1, %8 : !tt.ptr<bf16>, i32 loc(#loc12)
    %11 = tt.addptr %arg2, %8 : !tt.ptr<bf16>, i32 loc(#loc13)
    %12 = arith.muli %1, %c128_i32 : i32 loc(#loc14)
    %13 = tt.make_range {end = 128 : i32, start = 0 : i32} : tensor<128xi32> loc(#loc15)
    %14 = tt.splat %12 : i32 -> tensor<128xi32> loc(#loc16)
    %15 = arith.addi %14, %13 : tensor<128xi32> loc(#loc16)
    %16 = arith.muli %1, %arg13 : i32 loc(#loc17)
    %17 = arith.extsi %arg11 : i32 to i64 loc(#loc18)
    %18 = tt.make_tensor_ptr %9, [%17, %c128_i64], [%c4096_i64, %c1_i64], [%12, %c0_i32] {order = array<i32: 1, 0>} : <tensor<128x128xbf16>> loc(#loc18)
    %19 = tt.load %18 {boundaryCheck = array<i32: 0>, padding = 1 : i32} : !tt.ptr<tensor<128x128xbf16>> loc(#loc141)
    %20 = tt.addptr %arg5, %16 : !tt.ptr<i32>, i32 loc(#loc21)
    %21 = tt.load %20 : !tt.ptr<i32> loc(#loc22)
    %22 = arith.muli %21, %c128_i32 : i32 loc(#loc23)
    %23 = tt.addptr %arg4, %1 : !tt.ptr<i32>, i32 loc(#loc24)
    %24 = tt.load %23 : !tt.ptr<i32> loc(#loc25)
    %25 = arith.muli %24, %c2_i32 : i32 loc(#loc26)
    %26 = arith.addi %arg11, %c63_i32 : i32 loc(#loc142)
    %27 = arith.divsi %26, %c64_i32 : i32 loc(#loc143)
    %28 = arith.maxsi %27, %c1_i32 : i32 loc(#loc30)
    %29 = arith.minsi %25, %28 : i32 loc(#loc31)
    %30 = tt.make_tensor_ptr %10, [%c128_i64, %17], [%c1_i64, %c1024_i64], [%c0_i32, %22] {order = array<i32: 0, 1>} : <tensor<128x64xbf16>> loc(#loc32)
    %31 = tt.make_tensor_ptr %11, [%17, %c128_i64], [%c1024_i64, %c1_i64], [%22, %c0_i32] {order = array<i32: 1, 0>} : <tensor<64x128xbf16>> loc(#loc33)
    %32 = tt.make_range {end = 64 : i32, start = 0 : i32} : tensor<64xi32> loc(#loc34)
    %33 = tt.splat %22 : i32 -> tensor<64xi32> loc(#loc35)
    %34 = arith.addi %33, %32 : tensor<64xi32> loc(#loc35)
    %35 = tt.expand_dims %15 {axis = 1 : i32} : tensor<128xi32> -> tensor<128x1xi32> loc(#loc36)
    %36 = tt.expand_dims %34 {axis = 0 : i32} : tensor<64xi32> -> tensor<1x64xi32> loc(#loc37)
    %37 = tt.splat %arg11 : i32 -> tensor<128x1xi32> loc(#loc251)
    %38 = arith.remsi %35, %37 : tensor<128x1xi32> loc(#loc251)
    %39 = tt.splat %arg11 : i32 -> tensor<1x64xi32> loc(#loc252)
    %40 = tt.splat %arg15 : i32 -> tensor<1x64xi32> loc(#loc160)
    %41 = arith.extsi %38 : tensor<128x1xi32> to tensor<128x1xi64> loc(#loc161)
    %42 = tt.splat %arg9 : !tt.ptr<i1> -> tensor<1x64x!tt.ptr<i1>> loc(#loc162)
    %43:6 = scf.for %arg16 = %c0_i32 to %29 step %c1_i32 iter_args(%arg17 = %30, %arg18 = %31, %arg19 = %cst_6, %arg20 = %cst_10, %arg21 = %cst, %arg22 = %36) -> (!tt.ptr<tensor<128x64xbf16>>, !tt.ptr<tensor<64x128xbf16>>, tensor<128x128xf32>, tensor<128xf32>, tensor<128xf32>, tensor<1x64xi32>)  : i32 {
      %88 = tt.load %arg17 {boundaryCheck = array<i32: 1>, padding = 1 : i32} : !tt.ptr<tensor<128x64xbf16>> loc(#loc253)
      %89 = tt.dot %19, %88, %cst_5 : tensor<128x128xbf16> * tensor<128x64xbf16> -> tensor<128x64xf32> loc(#loc164)
      %90 = arith.mulf %89, %cst_4 : tensor<128x64xf32> loc(#loc165)
      %91 = arith.remsi %arg22, %39 : tensor<1x64xi32> loc(#loc252)
      %92 = arith.cmpi slt, %arg22, %39 : tensor<1x64xi32> loc(#loc166)
      %93 = tt.broadcast %92 : tensor<1x64xi1> -> tensor<128x64xi1> loc(#loc167)
      %94 = arith.select %93, %90, %cst_3 : tensor<128x64xi1>, tensor<128x64xf32> loc(#loc167)
      %95 = arith.addi %91, %40 : tensor<1x64xi32> loc(#loc160)
      %96 = arith.extsi %95 : tensor<1x64xi32> to tensor<1x64xi64> loc(#loc168)
      %97 = tt.load %arg8 : !tt.ptr<i64> loc(#loc169)
      %98 = tt.splat %97 : i64 -> tensor<128x1xi64> loc(#loc170)
      %99 = arith.addi %41, %98 : tensor<128x1xi64> loc(#loc170)
      %100 = tt.broadcast %96 : tensor<1x64xi64> -> tensor<128x64xi64> loc(#loc171)
      %101 = tt.broadcast %99 : tensor<128x1xi64> -> tensor<128x64xi64> loc(#loc171)
      %102 = arith.cmpi sle, %100, %101 : tensor<128x64xi64> loc(#loc171)
      %103 = tt.addptr %42, %95 : tensor<1x64x!tt.ptr<i1>>, tensor<1x64xi32> loc(#loc162)
      %104 = tt.bitcast %103 : tensor<1x64x!tt.ptr<i1>> -> tensor<1x64x!tt.ptr<i8>> loc(#loc172)
      %105 = tt.load %104 : tensor<1x64x!tt.ptr<i8>> loc(#loc172)
      %106 = arith.cmpi ne, %105, %cst_2 : tensor<1x64xi8> loc(#loc172)
      %107 = tt.broadcast %106 : tensor<1x64xi1> -> tensor<128x64xi1> loc(#loc173)
      %108 = arith.andi %102, %107 : tensor<128x64xi1> loc(#loc173)
      %109 = arith.select %93, %108, %cst_1 : tensor<128x64xi1>, tensor<128x64xi1> loc(#loc174)
      %110 = arith.select %109, %94, %cst_3 : tensor<128x64xi1>, tensor<128x64xf32> loc(#loc175)
      %111 = arith.mulf %110, %cst_0 : tensor<128x64xf32> loc(#loc176)
      %112 = "tt.reduce"(%111) <{axis = 1 : i32}> ({
      ^bb0(%arg23: f32 loc(callsite(#loc1 at #loc177)), %arg24: f32 loc(callsite(#loc1 at #loc177))):
        %153 = arith.maxnumf %arg23, %arg24 : f32 loc(#loc265)
        tt.reduce.return %153 : f32 loc(#loc254)
      }) : (tensor<128x64xf32>) -> tensor<128xf32> loc(#loc254)
      %113 = arith.maxnumf %arg21, %112 : tensor<128xf32> loc(#loc178)
      %114 = arith.cmpf oeq, %113, %cst : tensor<128xf32> loc(#loc179)
      %115 = arith.select %114, %cst_10, %113 : tensor<128xi1>, tensor<128xf32> loc(#loc180)
      %116 = arith.subf %arg21, %115 : tensor<128xf32> loc(#loc181)
      %117 = math.exp2 %116 : tensor<128xf32> loc(#loc182)
      %118 = tt.expand_dims %115 {axis = 1 : i32} : tensor<128xf32> -> tensor<128x1xf32> loc(#loc183)
      %119 = tt.broadcast %118 : tensor<128x1xf32> -> tensor<128x64xf32> loc(#loc184)
      %120 = arith.subf %111, %119 : tensor<128x64xf32> loc(#loc184)
      %121 = math.exp2 %120 : tensor<128x64xf32> loc(#loc185)
      %122 = arith.mulf %arg20, %117 : tensor<128xf32> loc(#loc186)
      %123 = "tt.reduce"(%121) <{axis = 1 : i32}> ({
      ^bb0(%arg23: f32 loc(callsite(#loc1 at #loc187)), %arg24: f32 loc(callsite(#loc1 at #loc187))):
        %153 = arith.addf %arg23, %arg24 : f32 loc(#loc266)
        tt.reduce.return %153 : f32 loc(#loc256)
      }) : (tensor<128x64xf32>) -> tensor<128xf32> loc(#loc256)
      %124 = arith.addf %122, %123 : tensor<128xf32> loc(#loc188)
      %125 = tt.expand_dims %117 {axis = 1 : i32} : tensor<128xf32> -> tensor<128x1xf32> loc(#loc189)
      %126 = tt.broadcast %125 : tensor<128x1xf32> -> tensor<128x128xf32> loc(#loc190)
      %127 = arith.mulf %arg19, %126 : tensor<128x128xf32> loc(#loc190)
      %128 = tt.load %arg18 {boundaryCheck = array<i32: 0>, padding = 1 : i32} : !tt.ptr<tensor<64x128xbf16>> loc(#loc258)
      %129 = arith.truncf %121 : tensor<128x64xf32> to tensor<128x64xbf16> loc(#loc192)
      %130 = tt.dot %129, %128, %127 : tensor<128x64xbf16> * tensor<64x128xbf16> -> tensor<128x128xf32> loc(#loc193)
      %131 = arith.divsi %arg16, %c2_i32 : i32 loc(#loc194)
      %132 = tt.addptr %20, %131 : !tt.ptr<i32>, i32 loc(#loc195)
      %133 = tt.load %132 evictionPolicy = evict_last : !tt.ptr<i32> loc(#loc196)
      %134 = arith.addi %131, %c1_i32 : i32 loc(#loc197)
      %135 = arith.cmpi slt, %134, %24 : i32 loc(#loc198)
      %136 = tt.addptr %132, %c1_i32 : !tt.ptr<i32>, i32 loc(#loc199)
      %137 = tt.load %136, %135 evictionPolicy = evict_last : !tt.ptr<i32> loc(#loc200)
      %138 = arith.addi %arg16, %c1_i32 : i32 loc(#loc201)
      %139 = arith.remsi %138, %c2_i32 : i32 loc(#loc202)
      %140 = arith.cmpi eq, %139, %c0_i32 : i32 loc(#loc203)
      %141 = arith.subi %137, %133 : i32 loc(#loc204)
      %142 = arith.muli %141, %c128_i32 : i32 loc(#loc205)
      %143 = arith.subi %142, %c64_i32 : i32 loc(#loc206)
      %144 = arith.extui %140 : i1 to i32 loc(#loc207)
      %145 = arith.muli %143, %144 : i32 loc(#loc207)
      %146 = arith.subi %c1_i32, %144 : i32 loc(#loc208)
      %147 = arith.muli %146, %c64_i32 : i32 loc(#loc209)
      %148 = arith.addi %145, %147 : i32 loc(#loc210)
      %149 = tt.splat %148 : i32 -> tensor<1x64xi32> loc(#loc147)
      %150 = arith.addi %arg22, %149 : tensor<1x64xi32> loc(#loc147)
      %151 = tt.advance %arg17, [%c0_i32, %148] : <tensor<128x64xbf16>> loc(#loc148)
      %152 = tt.advance %arg18, [%148, %c0_i32] : <tensor<64x128xbf16>> loc(#loc149)
      scf.yield %151, %152, %130, %124, %113, %150 : !tt.ptr<tensor<128x64xbf16>>, !tt.ptr<tensor<64x128xbf16>>, tensor<128x128xf32>, tensor<128xf32>, tensor<128xf32>, tensor<1x64xi32> loc(#loc150)
    } loc(#loc145)
    %44 = tt.addptr %arg7, %16 : !tt.ptr<i32>, i32 loc(#loc105)
    %45 = tt.load %44 : !tt.ptr<i32> loc(#loc106)
    %46 = arith.muli %45, %c128_i32 : i32 loc(#loc107)
    %47 = tt.addptr %arg6, %1 : !tt.ptr<i32>, i32 loc(#loc108)
    %48 = tt.load %47 : !tt.ptr<i32> loc(#loc109)
    %49 = arith.muli %48, %c2_i32 : i32 loc(#loc110)
    %50 = arith.minsi %49, %28 : i32 loc(#loc111)
    %51 = tt.make_tensor_ptr %10, [%c128_i64, %17], [%c1_i64, %c1024_i64], [%c0_i32, %46] {order = array<i32: 0, 1>} : <tensor<128x64xbf16>> loc(#loc112)
    %52 = tt.make_tensor_ptr %11, [%17, %c128_i64], [%c1024_i64, %c1_i64], [%46, %c0_i32] {order = array<i32: 1, 0>} : <tensor<64x128xbf16>> loc(#loc113)
    %53 = tt.splat %46 : i32 -> tensor<64xi32> loc(#loc114)
    %54 = arith.addi %53, %32 : tensor<64xi32> loc(#loc114)
    %55 = tt.expand_dims %54 {axis = 0 : i32} : tensor<64xi32> -> tensor<1x64xi32> loc(#loc115)
    %56:6 = scf.for %arg16 = %c0_i32 to %50 step %c1_i32 iter_args(%arg17 = %51, %arg18 = %52, %arg19 = %43#2, %arg20 = %43#3, %arg21 = %43#4, %arg22 = %55) -> (!tt.ptr<tensor<128x64xbf16>>, !tt.ptr<tensor<64x128xbf16>>, tensor<128x128xf32>, tensor<128xf32>, tensor<128xf32>, tensor<1x64xi32>)  : i32 {
      %88 = tt.load %arg17 {boundaryCheck = array<i32: 1>, padding = 1 : i32} : !tt.ptr<tensor<128x64xbf16>> loc(#loc259)
      %89 = tt.dot %19, %88, %cst_5 : tensor<128x128xbf16> * tensor<128x64xbf16> -> tensor<128x64xf32> loc(#loc212)
      %90 = arith.mulf %89, %cst_4 : tensor<128x64xf32> loc(#loc213)
      %91 = arith.cmpi slt, %arg22, %39 : tensor<1x64xi32> loc(#loc214)
      %92 = tt.broadcast %91 : tensor<1x64xi1> -> tensor<128x64xi1> loc(#loc215)
      %93 = arith.select %92, %90, %cst_3 : tensor<128x64xi1>, tensor<128x64xf32> loc(#loc215)
      %94 = arith.mulf %93, %cst_0 : tensor<128x64xf32> loc(#loc216)
      %95 = "tt.reduce"(%94) <{axis = 1 : i32}> ({
      ^bb0(%arg23: f32 loc(callsite(#loc1 at #loc217)), %arg24: f32 loc(callsite(#loc1 at #loc217))):
        %136 = arith.maxnumf %arg23, %arg24 : f32 loc(#loc267)
        tt.reduce.return %136 : f32 loc(#loc260)
      }) : (tensor<128x64xf32>) -> tensor<128xf32> loc(#loc260)
      %96 = arith.maxnumf %arg21, %95 : tensor<128xf32> loc(#loc218)
      %97 = arith.cmpf oeq, %96, %cst : tensor<128xf32> loc(#loc219)
      %98 = arith.select %97, %cst_10, %96 : tensor<128xi1>, tensor<128xf32> loc(#loc220)
      %99 = arith.subf %arg21, %98 : tensor<128xf32> loc(#loc221)
      %100 = math.exp2 %99 : tensor<128xf32> loc(#loc222)
      %101 = tt.expand_dims %98 {axis = 1 : i32} : tensor<128xf32> -> tensor<128x1xf32> loc(#loc223)
      %102 = tt.broadcast %101 : tensor<128x1xf32> -> tensor<128x64xf32> loc(#loc224)
      %103 = arith.subf %94, %102 : tensor<128x64xf32> loc(#loc224)
      %104 = math.exp2 %103 : tensor<128x64xf32> loc(#loc225)
      %105 = arith.mulf %arg20, %100 : tensor<128xf32> loc(#loc226)
      %106 = "tt.reduce"(%104) <{axis = 1 : i32}> ({
      ^bb0(%arg23: f32 loc(callsite(#loc1 at #loc227)), %arg24: f32 loc(callsite(#loc1 at #loc227))):
        %136 = arith.addf %arg23, %arg24 : f32 loc(#loc268)
        tt.reduce.return %136 : f32 loc(#loc262)
      }) : (tensor<128x64xf32>) -> tensor<128xf32> loc(#loc262)
      %107 = arith.addf %105, %106 : tensor<128xf32> loc(#loc228)
      %108 = tt.expand_dims %100 {axis = 1 : i32} : tensor<128xf32> -> tensor<128x1xf32> loc(#loc229)
      %109 = tt.broadcast %108 : tensor<128x1xf32> -> tensor<128x128xf32> loc(#loc230)
      %110 = arith.mulf %arg19, %109 : tensor<128x128xf32> loc(#loc230)
      %111 = tt.load %arg18 {boundaryCheck = array<i32: 0>, padding = 1 : i32} : !tt.ptr<tensor<64x128xbf16>> loc(#loc264)
      %112 = arith.truncf %104 : tensor<128x64xf32> to tensor<128x64xbf16> loc(#loc232)
      %113 = tt.dot %112, %111, %110 : tensor<128x64xbf16> * tensor<64x128xbf16> -> tensor<128x128xf32> loc(#loc233)
      %114 = arith.divsi %arg16, %c2_i32 : i32 loc(#loc234)
      %115 = tt.addptr %44, %114 : !tt.ptr<i32>, i32 loc(#loc235)
      %116 = tt.load %115 evictionPolicy = evict_last : !tt.ptr<i32> loc(#loc236)
      %117 = arith.addi %114, %c1_i32 : i32 loc(#loc237)
      %118 = arith.cmpi slt, %117, %48 : i32 loc(#loc238)
      %119 = tt.addptr %115, %c1_i32 : !tt.ptr<i32>, i32 loc(#loc239)
      %120 = tt.load %119, %118 evictionPolicy = evict_last : !tt.ptr<i32> loc(#loc240)
      %121 = arith.addi %arg16, %c1_i32 : i32 loc(#loc241)
      %122 = arith.remsi %121, %c2_i32 : i32 loc(#loc242)
      %123 = arith.cmpi eq, %122, %c0_i32 : i32 loc(#loc243)
      %124 = arith.subi %120, %116 : i32 loc(#loc244)
      %125 = arith.muli %124, %c128_i32 : i32 loc(#loc245)
      %126 = arith.subi %125, %c64_i32 : i32 loc(#loc246)
      %127 = arith.extui %123 : i1 to i32 loc(#loc247)
      %128 = arith.muli %126, %127 : i32 loc(#loc247)
      %129 = arith.subi %c1_i32, %127 : i32 loc(#loc248)
      %130 = arith.muli %129, %c64_i32 : i32 loc(#loc249)
      %131 = arith.addi %128, %130 : i32 loc(#loc250)
      %132 = tt.splat %131 : i32 -> tensor<1x64xi32> loc(#loc154)
      %133 = arith.addi %arg22, %132 : tensor<1x64xi32> loc(#loc154)
      %134 = tt.advance %arg17, [%c0_i32, %131] : <tensor<128x64xbf16>> loc(#loc155)
      %135 = tt.advance %arg18, [%131, %c0_i32] : <tensor<64x128xbf16>> loc(#loc156)
      scf.yield %134, %135, %113, %107, %96, %133 : !tt.ptr<tensor<128x64xbf16>>, !tt.ptr<tensor<64x128xbf16>>, tensor<128x128xf32>, tensor<128xf32>, tensor<128xf32>, tensor<1x64xi32> loc(#loc157)
    } loc(#loc151)
    %57 = arith.cmpf oeq, %56#3, %cst_10 : tensor<128xf32> loc(#loc117)
    %58 = arith.select %57, %cst_9, %56#3 : tensor<128xi1>, tensor<128xf32> loc(#loc118)
    %59 = tt.expand_dims %58 {axis = 1 : i32} : tensor<128xf32> -> tensor<128x1xf32> loc(#loc119)
    %60 = tt.broadcast %59 : tensor<128x1xf32> -> tensor<128x128xf32> loc(#loc120)
    %61 = arith.divf %56#2, %60 : tensor<128x128xf32> loc(#loc120)
    %62 = tt.expand_dims %13 {axis = 0 : i32} : tensor<128xi32> -> tensor<1x128xi32> loc(#loc121)
    %63 = arith.cmpi slt, %35, %37 : tensor<128x1xi32> loc(#loc122)
    %64 = arith.cmpi slt, %62, %cst_8 : tensor<1x128xi32> loc(#loc123)
    %65 = tt.broadcast %63 : tensor<128x1xi1> -> tensor<128x128xi1> loc(#loc124)
    %66 = tt.broadcast %64 : tensor<1x128xi1> -> tensor<128x128xi1> loc(#loc124)
    %67 = arith.andi %65, %66 : tensor<128x128xi1> loc(#loc124)
    %68 = arith.muli %35, %cst_7 : tensor<128x1xi32> loc(#loc125)
    %69 = tt.broadcast %62 : tensor<1x128xi32> -> tensor<128x128xi32> loc(#loc126)
    %70 = tt.broadcast %68 : tensor<128x1xi32> -> tensor<128x128xi32> loc(#loc126)
    %71 = arith.addi %69, %70 : tensor<128x128xi32> loc(#loc126)
    %72 = arith.muli %6, %arg11 : i32 loc(#loc127)
    %73 = tt.splat %72 : i32 -> tensor<128x128xi32> loc(#loc128)
    %74 = arith.addi %71, %73 : tensor<128x128xi32> loc(#loc128)
    %75 = tt.splat %arg10 : !tt.ptr<bf16> -> tensor<128x128x!tt.ptr<bf16>> loc(#loc129)
    %76 = tt.addptr %75, %74 : tensor<128x128x!tt.ptr<bf16>>, tensor<128x128xi32> loc(#loc129)
    %77 = arith.truncf %61 : tensor<128x128xf32> to tensor<128x128xbf16> loc(#loc130)
    tt.store %76, %77, %67 : tensor<128x128x!tt.ptr<bf16>> loc(#loc130)
    %78 = arith.muli %2, %c32_i32 : i32 loc(#loc131)
    %79 = arith.addi %78, %3 : i32 loc(#loc132)
    %80 = arith.muli %79, %arg11 : i32 loc(#loc133)
    %81 = tt.addptr %arg3, %80 : !tt.ptr<f32>, i32 loc(#loc134)
    %82 = tt.splat %81 : !tt.ptr<f32> -> tensor<128x!tt.ptr<f32>> loc(#loc135)
    %83 = tt.addptr %82, %15 : tensor<128x!tt.ptr<f32>>, tensor<128xi32> loc(#loc135)
    %84 = math.log2 %58 : tensor<128xf32> loc(#loc136)
    %85 = arith.addf %56#4, %84 : tensor<128xf32> loc(#loc137)
    %86 = tt.splat %arg11 : i32 -> tensor<128xi32> loc(#loc138)
    %87 = arith.cmpi slt, %15, %86 : tensor<128xi32> loc(#loc138)
    tt.store %83, %85, %87 : tensor<128x!tt.ptr<f32>> loc(#loc139)
    tt.return loc(#loc140)
  } loc(#loc)
} loc(#loc)
#loc2 = loc("/tmp/torchinductor_jovyan/75/c75kq5wxnpekebh5gvgkjr6rffk6ub47rqvknmtvenmyhq2jxbt2.py":82:54)
#loc3 = loc("/tmp/torchinductor_jovyan/75/c75kq5wxnpekebh5gvgkjr6rffk6ub47rqvknmtvenmyhq2jxbt2.py":94:28)
#loc4 = loc("/tmp/torchinductor_jovyan/75/c75kq5wxnpekebh5gvgkjr6rffk6ub47rqvknmtvenmyhq2jxbt2.py":95:27)
#loc5 = loc("/tmp/torchinductor_jovyan/75/c75kq5wxnpekebh5gvgkjr6rffk6ub47rqvknmtvenmyhq2jxbt2.py":96:27)
#loc6 = loc("/tmp/torchinductor_jovyan/75/c75kq5wxnpekebh5gvgkjr6rffk6ub47rqvknmtvenmyhq2jxbt2.py":108:24)
#loc7 = loc("/tmp/torchinductor_jovyan/75/c75kq5wxnpekebh5gvgkjr6rffk6ub47rqvknmtvenmyhq2jxbt2.py":111:24)
#loc8 = loc("/tmp/torchinductor_jovyan/75/c75kq5wxnpekebh5gvgkjr6rffk6ub47rqvknmtvenmyhq2jxbt2.py":111:45)
#loc9 = loc("/tmp/torchinductor_jovyan/75/c75kq5wxnpekebh5gvgkjr6rffk6ub47rqvknmtvenmyhq2jxbt2.py":111:36)
#loc10 = loc("/tmp/torchinductor_jovyan/75/c75kq5wxnpekebh5gvgkjr6rffk6ub47rqvknmtvenmyhq2jxbt2.py":112:47)
#loc11 = loc("/tmp/torchinductor_jovyan/75/c75kq5wxnpekebh5gvgkjr6rffk6ub47rqvknmtvenmyhq2jxbt2.py":115:12)
#loc12 = loc("/tmp/torchinductor_jovyan/75/c75kq5wxnpekebh5gvgkjr6rffk6ub47rqvknmtvenmyhq2jxbt2.py":116:12)
#loc13 = loc("/tmp/torchinductor_jovyan/75/c75kq5wxnpekebh5gvgkjr6rffk6ub47rqvknmtvenmyhq2jxbt2.py":117:12)
#loc14 = loc("/tmp/torchinductor_jovyan/75/c75kq5wxnpekebh5gvgkjr6rffk6ub47rqvknmtvenmyhq2jxbt2.py":137:23)
#loc15 = loc("/tmp/torchinductor_jovyan/75/c75kq5wxnpekebh5gvgkjr6rffk6ub47rqvknmtvenmyhq2jxbt2.py":137:46)
#loc16 = loc("/tmp/torchinductor_jovyan/75/c75kq5wxnpekebh5gvgkjr6rffk6ub47rqvknmtvenmyhq2jxbt2.py":137:33)
#loc17 = loc("/tmp/torchinductor_jovyan/75/c75kq5wxnpekebh5gvgkjr6rffk6ub47rqvknmtvenmyhq2jxbt2.py":142:97)
#loc18 = loc("/tmp/torchinductor_jovyan/75/c75kq5wxnpekebh5gvgkjr6rffk6ub47rqvknmtvenmyhq2jxbt2.py":154:12)
#loc19 = loc("/tmp/torchinductor_jovyan/75/c75kq5wxnpekebh5gvgkjr6rffk6ub47rqvknmtvenmyhq2jxbt2.py":508:21)
#loc20 = loc("/tmp/torchinductor_jovyan/75/c75kq5wxnpekebh5gvgkjr6rffk6ub47rqvknmtvenmyhq2jxbt2.py":156:58)
#loc21 = loc("/tmp/torchinductor_jovyan/75/c75kq5wxnpekebh5gvgkjr6rffk6ub47rqvknmtvenmyhq2jxbt2.py":161:26)
#loc22 = loc("/tmp/torchinductor_jovyan/75/c75kq5wxnpekebh5gvgkjr6rffk6ub47rqvknmtvenmyhq2jxbt2.py":162:23)
#loc23 = loc("/tmp/torchinductor_jovyan/75/c75kq5wxnpekebh5gvgkjr6rffk6ub47rqvknmtvenmyhq2jxbt2.py":162:37)
#loc24 = loc("/tmp/torchinductor_jovyan/75/c75kq5wxnpekebh5gvgkjr6rffk6ub47rqvknmtvenmyhq2jxbt2.py":163:42)
#loc25 = loc("/tmp/torchinductor_jovyan/75/c75kq5wxnpekebh5gvgkjr6rffk6ub47rqvknmtvenmyhq2jxbt2.py":163:28)
#loc26 = loc("/tmp/torchinductor_jovyan/75/c75kq5wxnpekebh5gvgkjr6rffk6ub47rqvknmtvenmyhq2jxbt2.py":164:45)
#loc27 = loc("/home/jovyan/intel-xpu-backend-for-triton/python/triton/language/standard.py":40:22)
#loc28 = loc("/tmp/torchinductor_jovyan/75/c75kq5wxnpekebh5gvgkjr6rffk6ub47rqvknmtvenmyhq2jxbt2.py":164:92)
#loc29 = loc("/home/jovyan/intel-xpu-backend-for-triton/python/triton/language/standard.py":40:28)
#loc30 = loc("/tmp/torchinductor_jovyan/75/c75kq5wxnpekebh5gvgkjr6rffk6ub47rqvknmtvenmyhq2jxbt2.py":164:102)
#loc31 = loc("/tmp/torchinductor_jovyan/75/c75kq5wxnpekebh5gvgkjr6rffk6ub47rqvknmtvenmyhq2jxbt2.py":164:65)
#loc32 = loc("/tmp/torchinductor_jovyan/75/c75kq5wxnpekebh5gvgkjr6rffk6ub47rqvknmtvenmyhq2jxbt2.py":174:12)
#loc33 = loc("/tmp/torchinductor_jovyan/75/c75kq5wxnpekebh5gvgkjr6rffk6ub47rqvknmtvenmyhq2jxbt2.py":183:12)
#loc34 = loc("/tmp/torchinductor_jovyan/75/c75kq5wxnpekebh5gvgkjr6rffk6ub47rqvknmtvenmyhq2jxbt2.py":186:37)
#loc35 = loc("/tmp/torchinductor_jovyan/75/c75kq5wxnpekebh5gvgkjr6rffk6ub47rqvknmtvenmyhq2jxbt2.py":186:24)
#loc36 = loc("/tmp/torchinductor_jovyan/75/c75kq5wxnpekebh5gvgkjr6rffk6ub47rqvknmtvenmyhq2jxbt2.py":194:31)
#loc37 = loc("/tmp/torchinductor_jovyan/75/c75kq5wxnpekebh5gvgkjr6rffk6ub47rqvknmtvenmyhq2jxbt2.py":194:48)
#loc38 = loc("/tmp/torchinductor_jovyan/75/c75kq5wxnpekebh5gvgkjr6rffk6ub47rqvknmtvenmyhq2jxbt2.py":514:21)
#loc39 = loc("/tmp/torchinductor_jovyan/75/c75kq5wxnpekebh5gvgkjr6rffk6ub47rqvknmtvenmyhq2jxbt2.py":437:36)
#loc42 = loc("/tmp/torchinductor_jovyan/75/c75kq5wxnpekebh5gvgkjr6rffk6ub47rqvknmtvenmyhq2jxbt2.py":438:36)
#loc43 = loc("/tmp/torchinductor_jovyan/75/c75kq5wxnpekebh5gvgkjr6rffk6ub47rqvknmtvenmyhq2jxbt2.py":452:22)
#loc44 = loc("/tmp/torchinductor_jovyan/75/c75kq5wxnpekebh5gvgkjr6rffk6ub47rqvknmtvenmyhq2jxbt2.py":455:23)
#loc45 = loc("/tmp/torchinductor_jovyan/75/c75kq5wxnpekebh5gvgkjr6rffk6ub47rqvknmtvenmyhq2jxbt2.py":461:34)
#loc46 = loc("/tmp/torchinductor_jovyan/75/c75kq5wxnpekebh5gvgkjr6rffk6ub47rqvknmtvenmyhq2jxbt2.py":318:40)
#loc47 = loc("/tmp/torchinductor_jovyan/75/c75kq5wxnpekebh5gvgkjr6rffk6ub47rqvknmtvenmyhq2jxbt2.py":506:19)
#loc48 = loc("/tmp/torchinductor_jovyan/75/c75kq5wxnpekebh5gvgkjr6rffk6ub47rqvknmtvenmyhq2jxbt2.py":425:55)
#loc49 = loc("/tmp/torchinductor_jovyan/75/c75kq5wxnpekebh5gvgkjr6rffk6ub47rqvknmtvenmyhq2jxbt2.py":430:19)
#loc50 = loc("/tmp/torchinductor_jovyan/75/c75kq5wxnpekebh5gvgkjr6rffk6ub47rqvknmtvenmyhq2jxbt2.py":432:14)
#loc51 = loc("/tmp/torchinductor_jovyan/75/c75kq5wxnpekebh5gvgkjr6rffk6ub47rqvknmtvenmyhq2jxbt2.py":446:44)
#loc52 = loc("/tmp/torchinductor_jovyan/75/c75kq5wxnpekebh5gvgkjr6rffk6ub47rqvknmtvenmyhq2jxbt2.py":446:69)
#loc53 = loc("/tmp/torchinductor_jovyan/75/c75kq5wxnpekebh5gvgkjr6rffk6ub47rqvknmtvenmyhq2jxbt2.py":453:23)
#loc54 = loc("/tmp/torchinductor_jovyan/75/c75kq5wxnpekebh5gvgkjr6rffk6ub47rqvknmtvenmyhq2jxbt2.py":456:23)
#loc55 = loc("/tmp/torchinductor_jovyan/75/c75kq5wxnpekebh5gvgkjr6rffk6ub47rqvknmtvenmyhq2jxbt2.py":457:22)
#loc56 = loc("/tmp/torchinductor_jovyan/75/c75kq5wxnpekebh5gvgkjr6rffk6ub47rqvknmtvenmyhq2jxbt2.py":458:24)
#loc57 = loc("/tmp/torchinductor_jovyan/75/c75kq5wxnpekebh5gvgkjr6rffk6ub47rqvknmtvenmyhq2jxbt2.py":461:24)
#loc58 = loc("/tmp/torchinductor_jovyan/75/c75kq5wxnpekebh5gvgkjr6rffk6ub47rqvknmtvenmyhq2jxbt2.py":462:24)
#loc59 = loc("/tmp/torchinductor_jovyan/75/c75kq5wxnpekebh5gvgkjr6rffk6ub47rqvknmtvenmyhq2jxbt2.py":467:73)
#loc60 = loc("/tmp/torchinductor_jovyan/75/c75kq5wxnpekebh5gvgkjr6rffk6ub47rqvknmtvenmyhq2jxbt2.py":469:69)
#loc61 = loc("/tmp/torchinductor_jovyan/75/c75kq5wxnpekebh5gvgkjr6rffk6ub47rqvknmtvenmyhq2jxbt2.py":472:27)
#loc62 = loc("/home/jovyan/intel-xpu-backend-for-triton/python/triton/language/standard.py":188:40)
#loc64 = loc("/home/jovyan/intel-xpu-backend-for-triton/python/triton/language/standard.py":167:27)
#loc65 = loc("/tmp/torchinductor_jovyan/75/c75kq5wxnpekebh5gvgkjr6rffk6ub47rqvknmtvenmyhq2jxbt2.py":476:27)
#loc66 = loc("/tmp/torchinductor_jovyan/75/c75kq5wxnpekebh5gvgkjr6rffk6ub47rqvknmtvenmyhq2jxbt2.py":478:35)
#loc67 = loc("/tmp/torchinductor_jovyan/75/c75kq5wxnpekebh5gvgkjr6rffk6ub47rqvknmtvenmyhq2jxbt2.py":479:51)
#loc68 = loc("/tmp/torchinductor_jovyan/75/c75kq5wxnpekebh5gvgkjr6rffk6ub47rqvknmtvenmyhq2jxbt2.py":483:31)
#loc69 = loc("/tmp/torchinductor_jovyan/75/c75kq5wxnpekebh5gvgkjr6rffk6ub47rqvknmtvenmyhq2jxbt2.py":483:25)
#loc70 = loc("/tmp/torchinductor_jovyan/75/c75kq5wxnpekebh5gvgkjr6rffk6ub47rqvknmtvenmyhq2jxbt2.py":484:51)
#loc71 = loc("/tmp/torchinductor_jovyan/75/c75kq5wxnpekebh5gvgkjr6rffk6ub47rqvknmtvenmyhq2jxbt2.py":484:39)
#loc72 = loc("/tmp/torchinductor_jovyan/75/c75kq5wxnpekebh5gvgkjr6rffk6ub47rqvknmtvenmyhq2jxbt2.py":484:21)
#loc73 = loc("/tmp/torchinductor_jovyan/75/c75kq5wxnpekebh5gvgkjr6rffk6ub47rqvknmtvenmyhq2jxbt2.py":489:16)
#loc74 = loc("/home/jovyan/intel-xpu-backend-for-triton/python/triton/language/standard.py":290:36)
#loc76 = loc("/home/jovyan/intel-xpu-backend-for-triton/python/triton/language/standard.py":260:15)
#loc77 = loc("/tmp/torchinductor_jovyan/75/c75kq5wxnpekebh5gvgkjr6rffk6ub47rqvknmtvenmyhq2jxbt2.py":489:24)
#loc78 = loc("/tmp/torchinductor_jovyan/75/c75kq5wxnpekebh5gvgkjr6rffk6ub47rqvknmtvenmyhq2jxbt2.py":491:22)
#loc79 = loc("/tmp/torchinductor_jovyan/75/c75kq5wxnpekebh5gvgkjr6rffk6ub47rqvknmtvenmyhq2jxbt2.py":491:16)
#loc80 = loc("/tmp/torchinductor_jovyan/75/c75kq5wxnpekebh5gvgkjr6rffk6ub47rqvknmtvenmyhq2jxbt2.py":492:54)
#loc81 = loc("/tmp/torchinductor_jovyan/75/c75kq5wxnpekebh5gvgkjr6rffk6ub47rqvknmtvenmyhq2jxbt2.py":493:22)
#loc82 = loc("/tmp/torchinductor_jovyan/75/c75kq5wxnpekebh5gvgkjr6rffk6ub47rqvknmtvenmyhq2jxbt2.py":493:44)
#loc83 = loc("/tmp/torchinductor_jovyan/75/c75kq5wxnpekebh5gvgkjr6rffk6ub47rqvknmtvenmyhq2jxbt2.py":377:33)
#loc84 = loc("/tmp/torchinductor_jovyan/75/c75kq5wxnpekebh5gvgkjr6rffk6ub47rqvknmtvenmyhq2jxbt2.py":357:63)
#loc85 = loc("/tmp/torchinductor_jovyan/75/c75kq5wxnpekebh5gvgkjr6rffk6ub47rqvknmtvenmyhq2jxbt2.py":378:38)
#loc86 = loc("/tmp/torchinductor_jovyan/75/c75kq5wxnpekebh5gvgkjr6rffk6ub47rqvknmtvenmyhq2jxbt2.py":378:24)
#loc87 = loc("/tmp/torchinductor_jovyan/75/c75kq5wxnpekebh5gvgkjr6rffk6ub47rqvknmtvenmyhq2jxbt2.py":379:109)
#loc88 = loc("/tmp/torchinductor_jovyan/75/c75kq5wxnpekebh5gvgkjr6rffk6ub47rqvknmtvenmyhq2jxbt2.py":379:113)
#loc89 = loc("/tmp/torchinductor_jovyan/75/c75kq5wxnpekebh5gvgkjr6rffk6ub47rqvknmtvenmyhq2jxbt2.py":379:55)
#loc90 = loc("/tmp/torchinductor_jovyan/75/c75kq5wxnpekebh5gvgkjr6rffk6ub47rqvknmtvenmyhq2jxbt2.py":379:25)
#loc91 = loc("/tmp/torchinductor_jovyan/75/c75kq5wxnpekebh5gvgkjr6rffk6ub47rqvknmtvenmyhq2jxbt2.py":380:30)
#loc92 = loc("/tmp/torchinductor_jovyan/75/c75kq5wxnpekebh5gvgkjr6rffk6ub47rqvknmtvenmyhq2jxbt2.py":380:35)
#loc93 = loc("/tmp/torchinductor_jovyan/75/c75kq5wxnpekebh5gvgkjr6rffk6ub47rqvknmtvenmyhq2jxbt2.py":380:60)
#loc94 = loc("/tmp/torchinductor_jovyan/75/c75kq5wxnpekebh5gvgkjr6rffk6ub47rqvknmtvenmyhq2jxbt2.py":381:34)
#loc95 = loc("/tmp/torchinductor_jovyan/75/c75kq5wxnpekebh5gvgkjr6rffk6ub47rqvknmtvenmyhq2jxbt2.py":381:48)
#loc96 = loc("/tmp/torchinductor_jovyan/75/c75kq5wxnpekebh5gvgkjr6rffk6ub47rqvknmtvenmyhq2jxbt2.py":381:63)
#loc97 = loc("/tmp/torchinductor_jovyan/75/c75kq5wxnpekebh5gvgkjr6rffk6ub47rqvknmtvenmyhq2jxbt2.py":382:29)
#loc98 = loc("/tmp/torchinductor_jovyan/75/c75kq5wxnpekebh5gvgkjr6rffk6ub47rqvknmtvenmyhq2jxbt2.py":382:47)
#loc99 = loc("/tmp/torchinductor_jovyan/75/c75kq5wxnpekebh5gvgkjr6rffk6ub47rqvknmtvenmyhq2jxbt2.py":382:61)
#loc100 = loc("/tmp/torchinductor_jovyan/75/c75kq5wxnpekebh5gvgkjr6rffk6ub47rqvknmtvenmyhq2jxbt2.py":382:42)
#loc101 = loc("/tmp/torchinductor_jovyan/75/c75kq5wxnpekebh5gvgkjr6rffk6ub47rqvknmtvenmyhq2jxbt2.py":360:26)
#loc102 = loc("/tmp/torchinductor_jovyan/75/c75kq5wxnpekebh5gvgkjr6rffk6ub47rqvknmtvenmyhq2jxbt2.py":362:50)
#loc103 = loc("/tmp/torchinductor_jovyan/75/c75kq5wxnpekebh5gvgkjr6rffk6ub47rqvknmtvenmyhq2jxbt2.py":363:50)
#loc104 = loc("/tmp/torchinductor_jovyan/75/c75kq5wxnpekebh5gvgkjr6rffk6ub47rqvknmtvenmyhq2jxbt2.py":361:8)
#loc105 = loc("/tmp/torchinductor_jovyan/75/c75kq5wxnpekebh5gvgkjr6rffk6ub47rqvknmtvenmyhq2jxbt2.py":207:35)
#loc106 = loc("/tmp/torchinductor_jovyan/75/c75kq5wxnpekebh5gvgkjr6rffk6ub47rqvknmtvenmyhq2jxbt2.py":208:27)
#loc107 = loc("/tmp/torchinductor_jovyan/75/c75kq5wxnpekebh5gvgkjr6rffk6ub47rqvknmtvenmyhq2jxbt2.py":208:41)
#loc108 = loc("/tmp/torchinductor_jovyan/75/c75kq5wxnpekebh5gvgkjr6rffk6ub47rqvknmtvenmyhq2jxbt2.py":209:51)
#loc109 = loc("/tmp/torchinductor_jovyan/75/c75kq5wxnpekebh5gvgkjr6rffk6ub47rqvknmtvenmyhq2jxbt2.py":209:32)
#loc110 = loc("/tmp/torchinductor_jovyan/75/c75kq5wxnpekebh5gvgkjr6rffk6ub47rqvknmtvenmyhq2jxbt2.py":210:49)
#loc111 = loc("/tmp/torchinductor_jovyan/75/c75kq5wxnpekebh5gvgkjr6rffk6ub47rqvknmtvenmyhq2jxbt2.py":210:69)
#loc112 = loc("/tmp/torchinductor_jovyan/75/c75kq5wxnpekebh5gvgkjr6rffk6ub47rqvknmtvenmyhq2jxbt2.py":218:16)
#loc113 = loc("/tmp/torchinductor_jovyan/75/c75kq5wxnpekebh5gvgkjr6rffk6ub47rqvknmtvenmyhq2jxbt2.py":226:16)
#loc114 = loc("/tmp/torchinductor_jovyan/75/c75kq5wxnpekebh5gvgkjr6rffk6ub47rqvknmtvenmyhq2jxbt2.py":228:28)
#loc115 = loc("/tmp/torchinductor_jovyan/75/c75kq5wxnpekebh5gvgkjr6rffk6ub47rqvknmtvenmyhq2jxbt2.py":235:52)
#loc117 = loc("/tmp/torchinductor_jovyan/75/c75kq5wxnpekebh5gvgkjr6rffk6ub47rqvknmtvenmyhq2jxbt2.py":247:26)
#loc118 = loc("/tmp/torchinductor_jovyan/75/c75kq5wxnpekebh5gvgkjr6rffk6ub47rqvknmtvenmyhq2jxbt2.py":247:34)
#loc119 = loc("/tmp/torchinductor_jovyan/75/c75kq5wxnpekebh5gvgkjr6rffk6ub47rqvknmtvenmyhq2jxbt2.py":249:20)
#loc120 = loc("/tmp/torchinductor_jovyan/75/c75kq5wxnpekebh5gvgkjr6rffk6ub47rqvknmtvenmyhq2jxbt2.py":249:16)
#loc121 = loc("/tmp/torchinductor_jovyan/75/c75kq5wxnpekebh5gvgkjr6rffk6ub47rqvknmtvenmyhq2jxbt2.py":253:45)
#loc122 = loc("/tmp/torchinductor_jovyan/75/c75kq5wxnpekebh5gvgkjr6rffk6ub47rqvknmtvenmyhq2jxbt2.py":255:20)
#loc123 = loc("/tmp/torchinductor_jovyan/75/c75kq5wxnpekebh5gvgkjr6rffk6ub47rqvknmtvenmyhq2jxbt2.py":255:38)
#loc124 = loc("/tmp/torchinductor_jovyan/75/c75kq5wxnpekebh5gvgkjr6rffk6ub47rqvknmtvenmyhq2jxbt2.py":255:30)
#loc125 = loc("/tmp/torchinductor_jovyan/75/c75kq5wxnpekebh5gvgkjr6rffk6ub47rqvknmtvenmyhq2jxbt2.py":258:53)
#loc126 = loc("/tmp/torchinductor_jovyan/75/c75kq5wxnpekebh5gvgkjr6rffk6ub47rqvknmtvenmyhq2jxbt2.py":258:49)
#loc127 = loc("/tmp/torchinductor_jovyan/75/c75kq5wxnpekebh5gvgkjr6rffk6ub47rqvknmtvenmyhq2jxbt2.py":258:72)
#loc128 = loc("/tmp/torchinductor_jovyan/75/c75kq5wxnpekebh5gvgkjr6rffk6ub47rqvknmtvenmyhq2jxbt2.py":258:61)
#loc129 = loc("/tmp/torchinductor_jovyan/75/c75kq5wxnpekebh5gvgkjr6rffk6ub47rqvknmtvenmyhq2jxbt2.py":258:25)
#loc130 = loc("/tmp/torchinductor_jovyan/75/c75kq5wxnpekebh5gvgkjr6rffk6ub47rqvknmtvenmyhq2jxbt2.py":258:95)
#loc131 = loc("/tmp/torchinductor_jovyan/75/c75kq5wxnpekebh5gvgkjr6rffk6ub47rqvknmtvenmyhq2jxbt2.py":261:26)
#loc132 = loc("/tmp/torchinductor_jovyan/75/c75kq5wxnpekebh5gvgkjr6rffk6ub47rqvknmtvenmyhq2jxbt2.py":261:31)
#loc133 = loc("/tmp/torchinductor_jovyan/75/c75kq5wxnpekebh5gvgkjr6rffk6ub47rqvknmtvenmyhq2jxbt2.py":262:32)
#loc134 = loc("/tmp/torchinductor_jovyan/75/c75kq5wxnpekebh5gvgkjr6rffk6ub47rqvknmtvenmyhq2jxbt2.py":262:23)
#loc135 = loc("/tmp/torchinductor_jovyan/75/c75kq5wxnpekebh5gvgkjr6rffk6ub47rqvknmtvenmyhq2jxbt2.py":262:40)
#loc136 = loc("/tmp/torchinductor_jovyan/75/c75kq5wxnpekebh5gvgkjr6rffk6ub47rqvknmtvenmyhq2jxbt2.py":263:33)
#loc137 = loc("/tmp/torchinductor_jovyan/75/c75kq5wxnpekebh5gvgkjr6rffk6ub47rqvknmtvenmyhq2jxbt2.py":263:20)
#loc138 = loc("/tmp/torchinductor_jovyan/75/c75kq5wxnpekebh5gvgkjr6rffk6ub47rqvknmtvenmyhq2jxbt2.py":267:48)
#loc139 = loc("/tmp/torchinductor_jovyan/75/c75kq5wxnpekebh5gvgkjr6rffk6ub47rqvknmtvenmyhq2jxbt2.py":267:29)
#loc140 = loc("/tmp/torchinductor_jovyan/75/c75kq5wxnpekebh5gvgkjr6rffk6ub47rqvknmtvenmyhq2jxbt2.py":260:4)
#loc141 = loc(callsite(#loc19 at #loc20))
#loc142 = loc(callsite(#loc27 at #loc28))
#loc143 = loc(callsite(#loc29 at #loc28))
#loc145 = loc(callsite(#loc46 at #loc41))
#loc146 = loc(callsite(#loc84 at #loc41))
#loc147 = loc(callsite(#loc101 at #loc41))
#loc148 = loc(callsite(#loc102 at #loc41))
#loc149 = loc(callsite(#loc103 at #loc41))
#loc150 = loc(callsite(#loc104 at #loc41))
#loc151 = loc(callsite(#loc46 at #loc116))
#loc153 = loc(callsite(#loc84 at #loc116))
#loc154 = loc(callsite(#loc101 at #loc116))
#loc155 = loc(callsite(#loc102 at #loc116))
#loc156 = loc(callsite(#loc103 at #loc116))
#loc157 = loc(callsite(#loc104 at #loc116))
#loc158 = loc(callsite(#loc39 at #loc144))
#loc159 = loc(callsite(#loc42 at #loc144))
#loc160 = loc(callsite(#loc43 at #loc144))
#loc161 = loc(callsite(#loc44 at #loc144))
#loc162 = loc(callsite(#loc45 at #loc144))
#loc163 = loc(callsite(#loc48 at #loc144))
#loc164 = loc(callsite(#loc49 at #loc144))
#loc165 = loc(callsite(#loc50 at #loc144))
#loc166 = loc(callsite(#loc51 at #loc144))
#loc167 = loc(callsite(#loc52 at #loc144))
#loc168 = loc(callsite(#loc53 at #loc144))
#loc169 = loc(callsite(#loc54 at #loc144))
#loc170 = loc(callsite(#loc55 at #loc144))
#loc171 = loc(callsite(#loc56 at #loc144))
#loc172 = loc(callsite(#loc57 at #loc144))
#loc173 = loc(callsite(#loc58 at #loc144))
#loc174 = loc(callsite(#loc59 at #loc144))
#loc175 = loc(callsite(#loc60 at #loc144))
#loc176 = loc(callsite(#loc61 at #loc144))
#loc178 = loc(callsite(#loc65 at #loc144))
#loc179 = loc(callsite(#loc66 at #loc144))
#loc180 = loc(callsite(#loc67 at #loc144))
#loc181 = loc(callsite(#loc68 at #loc144))
#loc182 = loc(callsite(#loc69 at #loc144))
#loc183 = loc(callsite(#loc70 at #loc144))
#loc184 = loc(callsite(#loc71 at #loc144))
#loc185 = loc(callsite(#loc72 at #loc144))
#loc186 = loc(callsite(#loc73 at #loc144))
#loc188 = loc(callsite(#loc77 at #loc144))
#loc189 = loc(callsite(#loc78 at #loc144))
#loc190 = loc(callsite(#loc79 at #loc144))
#loc191 = loc(callsite(#loc80 at #loc144))
#loc192 = loc(callsite(#loc81 at #loc144))
#loc193 = loc(callsite(#loc82 at #loc144))
#loc194 = loc(callsite(#loc83 at #loc146))
#loc195 = loc(callsite(#loc85 at #loc146))
#loc196 = loc(callsite(#loc86 at #loc146))
#loc197 = loc(callsite(#loc87 at #loc146))
#loc198 = loc(callsite(#loc88 at #loc146))
#loc199 = loc(callsite(#loc89 at #loc146))
#loc200 = loc(callsite(#loc90 at #loc146))
#loc201 = loc(callsite(#loc91 at #loc146))
#loc202 = loc(callsite(#loc92 at #loc146))
#loc203 = loc(callsite(#loc93 at #loc146))
#loc204 = loc(callsite(#loc94 at #loc146))
#loc205 = loc(callsite(#loc95 at #loc146))
#loc206 = loc(callsite(#loc96 at #loc146))
#loc207 = loc(callsite(#loc97 at #loc146))
#loc208 = loc(callsite(#loc98 at #loc146))
#loc209 = loc(callsite(#loc99 at #loc146))
#loc210 = loc(callsite(#loc100 at #loc146))
#loc211 = loc(callsite(#loc48 at #loc152))
#loc212 = loc(callsite(#loc49 at #loc152))
#loc213 = loc(callsite(#loc50 at #loc152))
#loc214 = loc(callsite(#loc51 at #loc152))
#loc215 = loc(callsite(#loc52 at #loc152))
#loc216 = loc(callsite(#loc61 at #loc152))
#loc218 = loc(callsite(#loc65 at #loc152))
#loc219 = loc(callsite(#loc66 at #loc152))
#loc220 = loc(callsite(#loc67 at #loc152))
#loc221 = loc(callsite(#loc68 at #loc152))
#loc222 = loc(callsite(#loc69 at #loc152))
#loc223 = loc(callsite(#loc70 at #loc152))
#loc224 = loc(callsite(#loc71 at #loc152))
#loc225 = loc(callsite(#loc72 at #loc152))
#loc226 = loc(callsite(#loc73 at #loc152))
#loc228 = loc(callsite(#loc77 at #loc152))
#loc229 = loc(callsite(#loc78 at #loc152))
#loc230 = loc(callsite(#loc79 at #loc152))
#loc231 = loc(callsite(#loc80 at #loc152))
#loc232 = loc(callsite(#loc81 at #loc152))
#loc233 = loc(callsite(#loc82 at #loc152))
#loc234 = loc(callsite(#loc83 at #loc153))
#loc235 = loc(callsite(#loc85 at #loc153))
#loc236 = loc(callsite(#loc86 at #loc153))
#loc237 = loc(callsite(#loc87 at #loc153))
#loc238 = loc(callsite(#loc88 at #loc153))
#loc239 = loc(callsite(#loc89 at #loc153))
#loc240 = loc(callsite(#loc90 at #loc153))
#loc241 = loc(callsite(#loc91 at #loc153))
#loc242 = loc(callsite(#loc92 at #loc153))
#loc243 = loc(callsite(#loc93 at #loc153))
#loc244 = loc(callsite(#loc94 at #loc153))
#loc245 = loc(callsite(#loc95 at #loc153))
#loc246 = loc(callsite(#loc96 at #loc153))
#loc247 = loc(callsite(#loc97 at #loc153))
#loc248 = loc(callsite(#loc98 at #loc153))
#loc249 = loc(callsite(#loc99 at #loc153))
#loc250 = loc(callsite(#loc100 at #loc153))
#loc251 = loc(callsite(#loc38 at #loc158))
#loc252 = loc(callsite(#loc38 at #loc159))
#loc253 = loc(callsite(#loc47 at #loc163))
#loc254 = loc(callsite(#loc62 at #loc177))
#loc256 = loc(callsite(#loc74 at #loc187))
#loc258 = loc(callsite(#loc19 at #loc191))
#loc259 = loc(callsite(#loc47 at #loc211))
#loc260 = loc(callsite(#loc62 at #loc217))
#loc262 = loc(callsite(#loc74 at #loc227))
#loc264 = loc(callsite(#loc19 at #loc231))
#loc265 = loc(callsite(#loc64 at #loc254))
#loc266 = loc(callsite(#loc76 at #loc256))
#loc267 = loc(callsite(#loc64 at #loc260))
#loc268 = loc(callsite(#loc76 at #loc262))
