#loc = loc("/tmp/torchinductor_jovyan/yw/cywlt3ppclpy7d7af2tdqtvblsr6v5sxssp6gyca6umxmws3gjqt.py":18:0)
#loc1 = loc(unknown)
#loc64 = loc("/tmp/torchinductor_jovyan/yw/cywlt3ppclpy7d7af2tdqtvblsr6v5sxssp6gyca6umxmws3gjqt.py":387:16)
#loc65 = loc("/tmp/torchinductor_jovyan/yw/cywlt3ppclpy7d7af2tdqtvblsr6v5sxssp6gyca6umxmws3gjqt.py":208:8)
#loc84 = loc("/tmp/torchinductor_jovyan/yw/cywlt3ppclpy7d7af2tdqtvblsr6v5sxssp6gyca6umxmws3gjqt.py":556:51)
#loc96 = loc("/tmp/torchinductor_jovyan/yw/cywlt3ppclpy7d7af2tdqtvblsr6v5sxssp6gyca6umxmws3gjqt.py":569:34)
#loc146 = loc("/tmp/torchinductor_jovyan/yw/cywlt3ppclpy7d7af2tdqtvblsr6v5sxssp6gyca6umxmws3gjqt.py":258:12)
#loc176 = loc(callsite(#loc64 at #loc65))
#loc184 = loc(callsite(#loc64 at #loc146))
#loc206 = loc(callsite(#loc84 at #loc176))
#loc216 = loc(callsite(#loc96 at #loc176))
#loc246 = loc(callsite(#loc84 at #loc184))
#loc256 = loc(callsite(#loc96 at #loc184))
#loc283 = loc(callsite(#loc1 at #loc206))
#loc285 = loc(callsite(#loc1 at #loc216))
#loc289 = loc(callsite(#loc1 at #loc246))
#loc291 = loc(callsite(#loc1 at #loc256))
module {
  tt.func public @triton_tem_fused__to_copy_add_cat_cos_mul_neg_sin_unsqueeze_5(%arg0: !tt.ptr<bf16> {tt.divisibility = 16 : i32} loc("/tmp/torchinductor_jovyan/yw/cywlt3ppclpy7d7af2tdqtvblsr6v5sxssp6gyca6umxmws3gjqt.py":18:0), %arg1: !tt.ptr<bf16> {tt.divisibility = 16 : i32} loc("/tmp/torchinductor_jovyan/yw/cywlt3ppclpy7d7af2tdqtvblsr6v5sxssp6gyca6umxmws3gjqt.py":18:0), %arg2: !tt.ptr<bf16> {tt.divisibility = 16 : i32} loc("/tmp/torchinductor_jovyan/yw/cywlt3ppclpy7d7af2tdqtvblsr6v5sxssp6gyca6umxmws3gjqt.py":18:0), %arg3: !tt.ptr<f32> {tt.divisibility = 16 : i32} loc("/tmp/torchinductor_jovyan/yw/cywlt3ppclpy7d7af2tdqtvblsr6v5sxssp6gyca6umxmws3gjqt.py":18:0), %arg4: !tt.ptr<f32> {tt.divisibility = 16 : i32} loc("/tmp/torchinductor_jovyan/yw/cywlt3ppclpy7d7af2tdqtvblsr6v5sxssp6gyca6umxmws3gjqt.py":18:0), %arg5: !tt.ptr<i32> {tt.divisibility = 16 : i32} loc("/tmp/torchinductor_jovyan/yw/cywlt3ppclpy7d7af2tdqtvblsr6v5sxssp6gyca6umxmws3gjqt.py":18:0), %arg6: !tt.ptr<i32> {tt.divisibility = 16 : i32} loc("/tmp/torchinductor_jovyan/yw/cywlt3ppclpy7d7af2tdqtvblsr6v5sxssp6gyca6umxmws3gjqt.py":18:0), %arg7: !tt.ptr<i32> {tt.divisibility = 16 : i32} loc("/tmp/torchinductor_jovyan/yw/cywlt3ppclpy7d7af2tdqtvblsr6v5sxssp6gyca6umxmws3gjqt.py":18:0), %arg8: !tt.ptr<i32> {tt.divisibility = 16 : i32} loc("/tmp/torchinductor_jovyan/yw/cywlt3ppclpy7d7af2tdqtvblsr6v5sxssp6gyca6umxmws3gjqt.py":18:0), %arg9: !tt.ptr<i64> {tt.divisibility = 16 : i32} loc("/tmp/torchinductor_jovyan/yw/cywlt3ppclpy7d7af2tdqtvblsr6v5sxssp6gyca6umxmws3gjqt.py":18:0), %arg10: !tt.ptr<i1> {tt.divisibility = 16 : i32} loc("/tmp/torchinductor_jovyan/yw/cywlt3ppclpy7d7af2tdqtvblsr6v5sxssp6gyca6umxmws3gjqt.py":18:0), %arg11: !tt.ptr<f32> {tt.divisibility = 16 : i32} loc("/tmp/torchinductor_jovyan/yw/cywlt3ppclpy7d7af2tdqtvblsr6v5sxssp6gyca6umxmws3gjqt.py":18:0), %arg12: i32 loc("/tmp/torchinductor_jovyan/yw/cywlt3ppclpy7d7af2tdqtvblsr6v5sxssp6gyca6umxmws3gjqt.py":18:0), %arg13: i32 loc("/tmp/torchinductor_jovyan/yw/cywlt3ppclpy7d7af2tdqtvblsr6v5sxssp6gyca6umxmws3gjqt.py":18:0), %arg14: i32 loc("/tmp/torchinductor_jovyan/yw/cywlt3ppclpy7d7af2tdqtvblsr6v5sxssp6gyca6umxmws3gjqt.py":18:0), %arg15: i32 loc("/tmp/torchinductor_jovyan/yw/cywlt3ppclpy7d7af2tdqtvblsr6v5sxssp6gyca6umxmws3gjqt.py":18:0)) attributes {noinline = false} {
    %cst = arith.constant dense<false> : tensor<1x64xi1> loc(#loc1)
    %cst_0 = arith.constant dense<0xFF800000> : tensor<8xf32> loc(#loc1)
    %cst_1 = arith.constant dense<1.44269502> : tensor<8x64xf32> loc(#loc1)
    %cst_2 = arith.constant dense<0> : tensor<1x64xi8> loc(#loc1)
    %cst_3 = arith.constant dense<0xFF800000> : tensor<8x64xf32> loc(#loc1)
    %cst_4 = arith.constant dense<0.0883883461> : tensor<8x64xf32> loc(#loc1)
    %cst_5 = arith.constant dense<0.000000e+00> : tensor<8x64xf32> loc(#loc1)
    %cst_6 = arith.constant dense<0.000000e+00> : tensor<8x128xf32> loc(#loc1)
    %cst_7 = arith.constant dense<0.000000e+00> : tensor<8xf32> loc(#loc1)
    %c63_i32 = arith.constant 63 : i32 loc(#loc1)
    %c14_i32 = arith.constant 14 : i32 loc(#loc1)
    %c13_i32 = arith.constant 13 : i32 loc(#loc1)
    %c1_i64 = arith.constant 1 : i64 loc(#loc1)
    %cst_8 = arith.constant dense<128> : tensor<1x1x128xi32> loc(#loc1)
    %c4_i64 = arith.constant 4 : i64 loc(#loc1)
    %c0_i32 = arith.constant 0 : i32 loc(#loc1)
    %c128_i64 = arith.constant 128 : i64 loc(#loc1)
    %c2_i32 = arith.constant 2 : i32 loc(#loc1)
    %cst_9 = arith.constant dense<1> : tensor<1x2x1xi32> loc(#loc1)
    %cst_10 = arith.constant dense<128> : tensor<1x2x1xi32> loc(#loc1)
    %cst_11 = arith.constant dense<128> : tensor<4x1x1xi32> loc(#loc1)
    %true = arith.constant true loc(#loc1)
    %c64_i32 = arith.constant 64 : i32 loc(#loc1)
    %c4_i32 = arith.constant 4 : i32 loc(#loc1)
    %c8_i32 = arith.constant 8 : i32 loc(#loc1)
    %c32_i32 = arith.constant 32 : i32 loc(#loc1)
    %c448_i32 = arith.constant 448 : i32 loc(#loc1)
    %c4096_i32 = arith.constant 4096 : i32 loc(#loc1)
    %c512_i32 = arith.constant 512 : i32 loc(#loc2)
    %c128_i32 = arith.constant 128 : i32 loc(#loc1)
    %c1_i32 = arith.constant 1 : i32 loc(#loc1)
    %0 = arith.muli %arg12, %c128_i32 : i32 loc(#loc3)
    %1 = arith.addi %0, %c128_i32 : i32 loc(#loc4)
    %2 = arith.muli %arg13, %c128_i32 : i32 loc(#loc5)
    %3 = arith.addi %2, %c128_i32 : i32 loc(#loc6)
    %4 = arith.addi %arg12, %c1_i32 : i32 loc(#loc7)
    %5 = arith.addi %arg12, %c14_i32 : i32 loc(#loc170)
    %6 = arith.divsi %5, %c14_i32 : i32 loc(#loc171)
    %7 = arith.addi %6, %c63_i32 : i32 loc(#loc172)
    %8 = arith.divsi %7, %c64_i32 : i32 loc(#loc173)
    %9 = arith.muli %8, %c64_i32 : i32 loc(#loc12)
    %10 = arith.divsi %9, %c64_i32 : i32 loc(#loc13)
    %11 = tt.get_program_id x : i32 loc(#loc14)
    %12 = arith.divsi %11, %c8_i32 : i32 loc(#loc15)
    %13 = arith.remsi %11, %c8_i32 : i32 loc(#loc16)
    %14 = tt.get_program_id y : i32 loc(#loc17)
    %15 = arith.muli %12, %c4096_i32 : i32 loc(#loc18)
    %16 = arith.muli %13, %c512_i32 : i32 loc(#loc19)
    %17 = arith.addi %15, %16 : i32 loc(#loc20)
    %18 = arith.muli %13, %1 : i32 loc(#loc21)
    %19 = arith.muli %13, %3 : i32 loc(#loc22)
    tt.assert %true, "" : i1 loc(#loc23)
    %20 = tt.make_range {end = 4 : i32, start = 0 : i32} : tensor<4xi32> loc(#loc24)
    %21 = tt.make_range {end = 2 : i32, start = 0 : i32} : tensor<2xi32> loc(#loc25)
    %22 = tt.make_range {end = 128 : i32, start = 0 : i32} : tensor<128xi32> loc(#loc26)
    %23 = arith.muli %14, %10 : i32 loc(#loc27)
    %24 = arith.addi %23, %10 : i32 loc(#loc28)
    %25 = tt.expand_dims %20 {axis = 1 : i32} : tensor<4xi32> -> tensor<4x1xi32> loc(#loc29)
    %26 = tt.expand_dims %25 {axis = 2 : i32} : tensor<4x1xi32> -> tensor<4x1x1xi32> loc(#loc29)
    %27 = arith.muli %26, %cst_11 : tensor<4x1x1xi32> loc(#loc30)
    %28 = tt.expand_dims %21 {axis = 0 : i32} : tensor<2xi32> -> tensor<1x2xi32> loc(#loc31)
    %29 = tt.expand_dims %28 {axis = 2 : i32} : tensor<1x2xi32> -> tensor<1x2x1xi32> loc(#loc31)
    %30 = arith.muli %29, %cst_10 : tensor<1x2x1xi32> loc(#loc32)
    %31 = tt.broadcast %27 : tensor<4x1x1xi32> -> tensor<4x2x1xi32> loc(#loc33)
    %32 = tt.broadcast %30 : tensor<1x2x1xi32> -> tensor<4x2x1xi32> loc(#loc33)
    %33 = arith.addi %31, %32 : tensor<4x2x1xi32> loc(#loc33)
    %34 = tt.expand_dims %22 {axis = 0 : i32} : tensor<128xi32> -> tensor<1x128xi32> loc(#loc34)
    %35 = tt.expand_dims %34 {axis = 1 : i32} : tensor<1x128xi32> -> tensor<1x1x128xi32> loc(#loc34)
    %36 = tt.broadcast %33 : tensor<4x2x1xi32> -> tensor<4x2x128xi32> loc(#loc35)
    %37 = tt.broadcast %35 : tensor<1x1x128xi32> -> tensor<4x2x128xi32> loc(#loc35)
    %38 = arith.addi %36, %37 : tensor<4x2x128xi32> loc(#loc35)
    %39 = arith.cmpi slt, %29, %cst_9 : tensor<1x2x1xi32> loc(#loc36)
    %40 = tt.addptr %arg0, %17 : !tt.ptr<bf16>, i32 loc(#loc37)
    %41 = tt.splat %40 : !tt.ptr<bf16> -> tensor<4x2x128x!tt.ptr<bf16>> loc(#loc38)
    %42 = tt.addptr %41, %38 : tensor<4x2x128x!tt.ptr<bf16>>, tensor<4x2x128xi32> loc(#loc38)
    %43 = tt.broadcast %39 : tensor<1x2x1xi1> -> tensor<4x2x128xi1> loc(#loc39)
    %44 = tt.load %42, %43 : tensor<4x2x128x!tt.ptr<bf16>> loc(#loc39)
    %45 = tt.reshape %44 : tensor<4x2x128xbf16> -> tensor<8x128xbf16> loc(#loc40)
    %46 = tt.load %arg5 : !tt.ptr<i32> loc(#loc41)
    %47 = arith.divsi %23, %c2_i32 : i32 loc(#loc42)
    %48 = arith.remsi %23, %c2_i32 : i32 loc(#loc43)
    %49 = tt.addptr %arg6, %47 : !tt.ptr<i32>, i32 loc(#loc44)
    %50 = tt.load %49 : !tt.ptr<i32> loc(#loc45)
    %51 = arith.muli %50, %c128_i32 : i32 loc(#loc46)
    %52 = arith.muli %48, %c64_i32 : i32 loc(#loc47)
    %53 = arith.addi %51, %52 : i32 loc(#loc48)
    %54 = arith.muli %46, %c2_i32 : i32 loc(#loc49)
    %55 = arith.addi %arg12, %c64_i32 : i32 loc(#loc174)
    %56 = arith.divsi %55, %c64_i32 : i32 loc(#loc175)
    %57 = arith.maxsi %56, %c1_i32 : i32 loc(#loc51)
    %58 = arith.minsi %54, %57 : i32 loc(#loc52)
    %59 = tt.addptr %arg1, %18 : !tt.ptr<bf16>, i32 loc(#loc53)
    %60 = arith.extsi %4 : i32 to i64 loc(#loc54)
    %61 = tt.make_tensor_ptr %59, [%c128_i64, %60], [%c1_i64, %c128_i64], [%c0_i32, %53] {order = array<i32: 0, 1>} : <tensor<128x64xbf16>> loc(#loc54)
    %62 = tt.addptr %arg2, %19 : !tt.ptr<bf16>, i32 loc(#loc55)
    %63 = tt.make_tensor_ptr %62, [%60, %c128_i64], [%c128_i64, %c1_i64], [%53, %c0_i32] {order = array<i32: 1, 0>} : <tensor<64x128xbf16>> loc(#loc56)
    %64 = tt.make_range {end = 64 : i32, start = 0 : i32} : tensor<64xi32> loc(#loc57)
    %65 = tt.splat %53 : i32 -> tensor<64xi32> loc(#loc58)
    %66 = arith.addi %64, %65 : tensor<64xi32> loc(#loc58)
    %67 = tt.expand_dims %66 {axis = 0 : i32} : tensor<64xi32> -> tensor<1x64xi32> loc(#loc59)
    %68 = arith.cmpi sle, %24, %58 : i32 loc(#loc60)
    %69 = arith.select %68, %24, %58 : i32 loc(#loc61)
    %70 = tt.splat %4 : i32 -> tensor<1x64xi32> loc(#loc280)
    %71 = tt.splat %arg15 : i32 -> tensor<1x64xi32> loc(#loc191)
    %72 = tt.splat %arg10 : !tt.ptr<i1> -> tensor<1x64x!tt.ptr<i1>> loc(#loc192)
    %73:6 = scf.for %arg16 = %23 to %69 step %c1_i32 iter_args(%arg17 = %61, %arg18 = %63, %arg19 = %cst_6, %arg20 = %cst_7, %arg21 = %cst_0, %arg22 = %67) -> (!tt.ptr<tensor<128x64xbf16>>, !tt.ptr<tensor<64x128xbf16>>, tensor<8x128xf32>, tensor<8xf32>, tensor<8xf32>, tensor<1x64xi32>)  : i32 {
      %123 = tt.load %arg17 {boundaryCheck = array<i32: 1>, padding = 1 : i32} : !tt.ptr<tensor<128x64xbf16>> loc(#loc281)
      %124 = tt.dot %45, %123, %cst_5 : tensor<8x128xbf16> * tensor<128x64xbf16> -> tensor<8x64xf32> loc(#loc194)
      %125 = arith.mulf %124, %cst_4 : tensor<8x64xf32> loc(#loc195)
      %126 = arith.remsi %arg22, %70 : tensor<1x64xi32> loc(#loc280)
      %127 = arith.cmpi slt, %arg22, %70 : tensor<1x64xi32> loc(#loc196)
      %128 = tt.broadcast %127 : tensor<1x64xi1> -> tensor<8x64xi1> loc(#loc197)
      %129 = arith.select %128, %125, %cst_3 : tensor<8x64xi1>, tensor<8x64xf32> loc(#loc197)
      %130 = arith.addi %126, %71 : tensor<1x64xi32> loc(#loc191)
      %131 = arith.extsi %130 : tensor<1x64xi32> to tensor<1x64xi64> loc(#loc198)
      %132 = tt.load %arg9 : !tt.ptr<i64> loc(#loc199)
      %133 = tt.splat %132 : i64 -> tensor<1x64xi64> loc(#loc200)
      %134 = arith.cmpi sle, %131, %133 : tensor<1x64xi64> loc(#loc200)
      %135 = tt.addptr %72, %130 : tensor<1x64x!tt.ptr<i1>>, tensor<1x64xi32> loc(#loc192)
      %136 = tt.bitcast %135 : tensor<1x64x!tt.ptr<i1>> -> tensor<1x64x!tt.ptr<i8>> loc(#loc201)
      %137 = tt.load %136 : tensor<1x64x!tt.ptr<i8>> loc(#loc201)
      %138 = arith.cmpi ne, %137, %cst_2 : tensor<1x64xi8> loc(#loc201)
      %139 = arith.andi %134, %138 : tensor<1x64xi1> loc(#loc202)
      %140 = arith.select %127, %139, %cst : tensor<1x64xi1>, tensor<1x64xi1> loc(#loc203)
      %141 = tt.broadcast %140 : tensor<1x64xi1> -> tensor<8x64xi1> loc(#loc203)
      %142 = arith.select %141, %129, %cst_3 : tensor<8x64xi1>, tensor<8x64xf32> loc(#loc204)
      %143 = arith.mulf %142, %cst_1 : tensor<8x64xf32> loc(#loc205)
      %144 = "tt.reduce"(%143) <{axis = 1 : i32}> ({
      ^bb0(%arg23: f32 loc(callsite(#loc1 at #loc206)), %arg24: f32 loc(callsite(#loc1 at #loc206))):
        %185 = arith.maxnumf %arg23, %arg24 : f32 loc(#loc293)
        tt.reduce.return %185 : f32 loc(#loc282)
      }) : (tensor<8x64xf32>) -> tensor<8xf32> loc(#loc282)
      %145 = arith.maxnumf %arg21, %144 : tensor<8xf32> loc(#loc207)
      %146 = arith.cmpf oeq, %145, %cst_0 : tensor<8xf32> loc(#loc208)
      %147 = arith.select %146, %cst_7, %145 : tensor<8xi1>, tensor<8xf32> loc(#loc209)
      %148 = arith.subf %arg21, %147 : tensor<8xf32> loc(#loc210)
      %149 = math.exp2 %148 : tensor<8xf32> loc(#loc211)
      %150 = tt.expand_dims %147 {axis = 1 : i32} : tensor<8xf32> -> tensor<8x1xf32> loc(#loc212)
      %151 = tt.broadcast %150 : tensor<8x1xf32> -> tensor<8x64xf32> loc(#loc213)
      %152 = arith.subf %143, %151 : tensor<8x64xf32> loc(#loc213)
      %153 = math.exp2 %152 : tensor<8x64xf32> loc(#loc214)
      %154 = arith.mulf %arg20, %149 : tensor<8xf32> loc(#loc215)
      %155 = "tt.reduce"(%153) <{axis = 1 : i32}> ({
      ^bb0(%arg23: f32 loc(callsite(#loc1 at #loc216)), %arg24: f32 loc(callsite(#loc1 at #loc216))):
        %185 = arith.addf %arg23, %arg24 : f32 loc(#loc294)
        tt.reduce.return %185 : f32 loc(#loc284)
      }) : (tensor<8x64xf32>) -> tensor<8xf32> loc(#loc284)
      %156 = arith.addf %154, %155 : tensor<8xf32> loc(#loc217)
      %157 = tt.expand_dims %149 {axis = 1 : i32} : tensor<8xf32> -> tensor<8x1xf32> loc(#loc218)
      %158 = tt.broadcast %157 : tensor<8x1xf32> -> tensor<8x128xf32> loc(#loc219)
      %159 = arith.mulf %arg19, %158 : tensor<8x128xf32> loc(#loc219)
      %160 = tt.load %arg18 {boundaryCheck = array<i32: 0>, padding = 1 : i32} : !tt.ptr<tensor<64x128xbf16>> loc(#loc286)
      %161 = arith.truncf %153 : tensor<8x64xf32> to tensor<8x64xbf16> loc(#loc221)
      %162 = tt.dot %161, %160, %159 : tensor<8x64xbf16> * tensor<64x128xbf16> -> tensor<8x128xf32> loc(#loc222)
      %163 = arith.divsi %arg16, %c2_i32 : i32 loc(#loc223)
      %164 = tt.addptr %arg6, %163 : !tt.ptr<i32>, i32 loc(#loc224)
      %165 = tt.load %164 evictionPolicy = evict_last : !tt.ptr<i32> loc(#loc225)
      %166 = arith.addi %163, %c1_i32 : i32 loc(#loc226)
      %167 = arith.cmpi slt, %166, %46 : i32 loc(#loc227)
      %168 = tt.addptr %164, %c1_i32 : !tt.ptr<i32>, i32 loc(#loc228)
      %169 = tt.load %168, %167 evictionPolicy = evict_last : !tt.ptr<i32> loc(#loc229)
      %170 = arith.addi %arg16, %c1_i32 : i32 loc(#loc230)
      %171 = arith.remsi %170, %c2_i32 : i32 loc(#loc231)
      %172 = arith.cmpi eq, %171, %c0_i32 : i32 loc(#loc232)
      %173 = arith.subi %169, %165 : i32 loc(#loc233)
      %174 = arith.muli %173, %c128_i32 : i32 loc(#loc234)
      %175 = arith.subi %174, %c64_i32 : i32 loc(#loc235)
      %176 = arith.extui %172 : i1 to i32 loc(#loc236)
      %177 = arith.muli %175, %176 : i32 loc(#loc236)
      %178 = arith.subi %c1_i32, %176 : i32 loc(#loc237)
      %179 = arith.muli %178, %c64_i32 : i32 loc(#loc238)
      %180 = arith.addi %177, %179 : i32 loc(#loc239)
      %181 = tt.splat %180 : i32 -> tensor<1x64xi32> loc(#loc179)
      %182 = arith.addi %arg22, %181 : tensor<1x64xi32> loc(#loc179)
      %183 = tt.advance %arg17, [%c0_i32, %180] : <tensor<128x64xbf16>> loc(#loc180)
      %184 = tt.advance %arg18, [%180, %c0_i32] : <tensor<64x128xbf16>> loc(#loc181)
      scf.yield %183, %184, %162, %156, %145, %182 : !tt.ptr<tensor<128x64xbf16>>, !tt.ptr<tensor<64x128xbf16>>, tensor<8x128xf32>, tensor<8xf32>, tensor<8xf32>, tensor<1x64xi32> loc(#loc182)
    } loc(#loc177)
    %74 = tt.load %arg7 : !tt.ptr<i32> loc(#loc127)
    %75 = arith.subi %c13_i32, %14 : i32 loc(#loc128)
    %76 = arith.muli %75, %10 : i32 loc(#loc129)
    %77 = arith.addi %76, %10 : i32 loc(#loc130)
    %78 = arith.divsi %76, %c2_i32 : i32 loc(#loc131)
    %79 = arith.remsi %76, %c2_i32 : i32 loc(#loc132)
    %80 = tt.addptr %arg8, %78 : !tt.ptr<i32>, i32 loc(#loc133)
    %81 = tt.load %80 : !tt.ptr<i32> loc(#loc134)
    %82 = arith.muli %81, %c128_i32 : i32 loc(#loc135)
    %83 = arith.muli %79, %c64_i32 : i32 loc(#loc136)
    %84 = arith.addi %82, %83 : i32 loc(#loc137)
    %85 = arith.muli %74, %c2_i32 : i32 loc(#loc138)
    %86 = arith.minsi %85, %57 : i32 loc(#loc139)
    %87 = tt.make_tensor_ptr %59, [%c128_i64, %60], [%c1_i64, %c128_i64], [%c0_i32, %84] {order = array<i32: 0, 1>} : <tensor<128x64xbf16>> loc(#loc140)
    %88 = tt.make_tensor_ptr %62, [%60, %c128_i64], [%c128_i64, %c1_i64], [%84, %c0_i32] {order = array<i32: 1, 0>} : <tensor<64x128xbf16>> loc(#loc141)
    %89 = tt.splat %84 : i32 -> tensor<64xi32> loc(#loc142)
    %90 = arith.addi %64, %89 : tensor<64xi32> loc(#loc142)
    %91 = tt.expand_dims %90 {axis = 0 : i32} : tensor<64xi32> -> tensor<1x64xi32> loc(#loc143)
    %92 = arith.cmpi sle, %77, %86 : i32 loc(#loc144)
    %93 = arith.select %92, %77, %86 : i32 loc(#loc145)
    %94:6 = scf.for %arg16 = %76 to %93 step %c1_i32 iter_args(%arg17 = %87, %arg18 = %88, %arg19 = %73#2, %arg20 = %73#3, %arg21 = %73#4, %arg22 = %91) -> (!tt.ptr<tensor<128x64xbf16>>, !tt.ptr<tensor<64x128xbf16>>, tensor<8x128xf32>, tensor<8xf32>, tensor<8xf32>, tensor<1x64xi32>)  : i32 {
      %123 = tt.load %arg17 {boundaryCheck = array<i32: 1>, padding = 1 : i32} : !tt.ptr<tensor<128x64xbf16>> loc(#loc287)
      %124 = tt.dot %45, %123, %cst_5 : tensor<8x128xbf16> * tensor<128x64xbf16> -> tensor<8x64xf32> loc(#loc241)
      %125 = arith.mulf %124, %cst_4 : tensor<8x64xf32> loc(#loc242)
      %126 = arith.cmpi slt, %arg22, %70 : tensor<1x64xi32> loc(#loc243)
      %127 = tt.broadcast %126 : tensor<1x64xi1> -> tensor<8x64xi1> loc(#loc244)
      %128 = arith.select %127, %125, %cst_3 : tensor<8x64xi1>, tensor<8x64xf32> loc(#loc244)
      %129 = arith.mulf %128, %cst_1 : tensor<8x64xf32> loc(#loc245)
      %130 = "tt.reduce"(%129) <{axis = 1 : i32}> ({
      ^bb0(%arg23: f32 loc(callsite(#loc1 at #loc246)), %arg24: f32 loc(callsite(#loc1 at #loc246))):
        %171 = arith.maxnumf %arg23, %arg24 : f32 loc(#loc295)
        tt.reduce.return %171 : f32 loc(#loc288)
      }) : (tensor<8x64xf32>) -> tensor<8xf32> loc(#loc288)
      %131 = arith.maxnumf %arg21, %130 : tensor<8xf32> loc(#loc247)
      %132 = arith.cmpf oeq, %131, %cst_0 : tensor<8xf32> loc(#loc248)
      %133 = arith.select %132, %cst_7, %131 : tensor<8xi1>, tensor<8xf32> loc(#loc249)
      %134 = arith.subf %arg21, %133 : tensor<8xf32> loc(#loc250)
      %135 = math.exp2 %134 : tensor<8xf32> loc(#loc251)
      %136 = tt.expand_dims %133 {axis = 1 : i32} : tensor<8xf32> -> tensor<8x1xf32> loc(#loc252)
      %137 = tt.broadcast %136 : tensor<8x1xf32> -> tensor<8x64xf32> loc(#loc253)
      %138 = arith.subf %129, %137 : tensor<8x64xf32> loc(#loc253)
      %139 = math.exp2 %138 : tensor<8x64xf32> loc(#loc254)
      %140 = arith.mulf %arg20, %135 : tensor<8xf32> loc(#loc255)
      %141 = "tt.reduce"(%139) <{axis = 1 : i32}> ({
      ^bb0(%arg23: f32 loc(callsite(#loc1 at #loc256)), %arg24: f32 loc(callsite(#loc1 at #loc256))):
        %171 = arith.addf %arg23, %arg24 : f32 loc(#loc296)
        tt.reduce.return %171 : f32 loc(#loc290)
      }) : (tensor<8x64xf32>) -> tensor<8xf32> loc(#loc290)
      %142 = arith.addf %140, %141 : tensor<8xf32> loc(#loc257)
      %143 = tt.expand_dims %135 {axis = 1 : i32} : tensor<8xf32> -> tensor<8x1xf32> loc(#loc258)
      %144 = tt.broadcast %143 : tensor<8x1xf32> -> tensor<8x128xf32> loc(#loc259)
      %145 = arith.mulf %arg19, %144 : tensor<8x128xf32> loc(#loc259)
      %146 = tt.load %arg18 {boundaryCheck = array<i32: 0>, padding = 1 : i32} : !tt.ptr<tensor<64x128xbf16>> loc(#loc292)
      %147 = arith.truncf %139 : tensor<8x64xf32> to tensor<8x64xbf16> loc(#loc261)
      %148 = tt.dot %147, %146, %145 : tensor<8x64xbf16> * tensor<64x128xbf16> -> tensor<8x128xf32> loc(#loc262)
      %149 = arith.divsi %arg16, %c2_i32 : i32 loc(#loc263)
      %150 = tt.addptr %arg8, %149 : !tt.ptr<i32>, i32 loc(#loc264)
      %151 = tt.load %150 evictionPolicy = evict_last : !tt.ptr<i32> loc(#loc265)
      %152 = arith.addi %149, %c1_i32 : i32 loc(#loc266)
      %153 = arith.cmpi slt, %152, %74 : i32 loc(#loc267)
      %154 = tt.addptr %150, %c1_i32 : !tt.ptr<i32>, i32 loc(#loc268)
      %155 = tt.load %154, %153 evictionPolicy = evict_last : !tt.ptr<i32> loc(#loc269)
      %156 = arith.addi %arg16, %c1_i32 : i32 loc(#loc270)
      %157 = arith.remsi %156, %c2_i32 : i32 loc(#loc271)
      %158 = arith.cmpi eq, %157, %c0_i32 : i32 loc(#loc272)
      %159 = arith.subi %155, %151 : i32 loc(#loc273)
      %160 = arith.muli %159, %c128_i32 : i32 loc(#loc274)
      %161 = arith.subi %160, %c64_i32 : i32 loc(#loc275)
      %162 = arith.extui %158 : i1 to i32 loc(#loc276)
      %163 = arith.muli %161, %162 : i32 loc(#loc276)
      %164 = arith.subi %c1_i32, %162 : i32 loc(#loc277)
      %165 = arith.muli %164, %c64_i32 : i32 loc(#loc278)
      %166 = arith.addi %163, %165 : i32 loc(#loc279)
      %167 = tt.splat %166 : i32 -> tensor<1x64xi32> loc(#loc186)
      %168 = arith.addi %arg22, %167 : tensor<1x64xi32> loc(#loc186)
      %169 = tt.advance %arg17, [%c0_i32, %166] : <tensor<128x64xbf16>> loc(#loc187)
      %170 = tt.advance %arg18, [%166, %c0_i32] : <tensor<64x128xbf16>> loc(#loc188)
      scf.yield %169, %170, %148, %142, %131, %168 : !tt.ptr<tensor<128x64xbf16>>, !tt.ptr<tensor<64x128xbf16>>, tensor<8x128xf32>, tensor<8xf32>, tensor<8xf32>, tensor<1x64xi32> loc(#loc189)
    } loc(#loc183)
    %95 = arith.muli %14, %c32_i32 : i32 loc(#loc147)
    %96 = arith.muli %12, %c448_i32 : i32 loc(#loc148)
    %97 = arith.addi %95, %96 : i32 loc(#loc149)
    %98 = tt.addptr %arg3, %97 : !tt.ptr<f32>, i32 loc(#loc150)
    %99 = arith.muli %13, %c4_i32 : i32 loc(#loc151)
    %100 = tt.make_tensor_ptr %98, [%c4_i64, %c1_i64], [%c1_i64, %c1_i64], [%99, %c0_i32] {order = array<i32: 1, 0>} : <tensor<4x2xf32>> loc(#loc152)
    %101 = tt.addptr %arg4, %97 : !tt.ptr<f32>, i32 loc(#loc153)
    %102 = tt.make_tensor_ptr %101, [%c4_i64, %c1_i64], [%c1_i64, %c1_i64], [%99, %c0_i32] {order = array<i32: 1, 0>} : <tensor<4x2xf32>> loc(#loc154)
    %103 = tt.reshape %94#4 : tensor<8xf32> -> tensor<4x2xf32> loc(#loc155)
    %104 = tt.reshape %94#3 : tensor<8xf32> -> tensor<4x2xf32> loc(#loc156)
    tt.store %100, %103 {boundaryCheck = array<i32: 1>} : !tt.ptr<tensor<4x2xf32>> loc(#loc157)
    tt.store %102, %104 {boundaryCheck = array<i32: 1>} : !tt.ptr<tensor<4x2xf32>> loc(#loc158)
    %105 = tt.splat %99 : i32 -> tensor<4x1x1xi32> loc(#loc159)
    %106 = arith.addi %105, %26 : tensor<4x1x1xi32> loc(#loc159)
    %107 = arith.cmpi slt, %35, %cst_8 : tensor<1x1x128xi32> loc(#loc160)
    %108 = tt.broadcast %39 : tensor<1x2x1xi1> -> tensor<1x2x128xi1> loc(#loc161)
    %109 = tt.broadcast %107 : tensor<1x1x128xi1> -> tensor<1x2x128xi1> loc(#loc161)
    %110 = arith.andi %108, %109 : tensor<1x2x128xi1> loc(#loc161)
    %111 = tt.reshape %94#2 : tensor<8x128xf32> -> tensor<4x2x128xf32> loc(#loc162)
    %112 = arith.muli %106, %cst_11 : tensor<4x1x1xi32> loc(#loc163)
    %113 = tt.broadcast %35 : tensor<1x1x128xi32> -> tensor<4x1x128xi32> loc(#loc164)
    %114 = tt.broadcast %112 : tensor<4x1x1xi32> -> tensor<4x1x128xi32> loc(#loc164)
    %115 = arith.addi %113, %114 : tensor<4x1x128xi32> loc(#loc164)
    %116 = arith.muli %14, %c4096_i32 : i32 loc(#loc165)
    %117 = tt.splat %116 : i32 -> tensor<4x1x128xi32> loc(#loc166)
    %118 = arith.addi %115, %117 : tensor<4x1x128xi32> loc(#loc166)
    %119 = tt.splat %arg11 : !tt.ptr<f32> -> tensor<4x1x128x!tt.ptr<f32>> loc(#loc167)
    %120 = tt.addptr %119, %118 : tensor<4x1x128x!tt.ptr<f32>>, tensor<4x1x128xi32> loc(#loc167)
    %121 = tt.broadcast %120 : tensor<4x1x128x!tt.ptr<f32>> -> tensor<4x2x128x!tt.ptr<f32>> loc(#loc167)
    %122 = tt.broadcast %110 : tensor<1x2x128xi1> -> tensor<4x2x128xi1> loc(#loc168)
    tt.store %121, %111, %122 : tensor<4x2x128x!tt.ptr<f32>> loc(#loc168)
    tt.return loc(#loc169)
  } loc(#loc)
} loc(#loc)
#loc2 = loc("/tmp/torchinductor_jovyan/yw/cywlt3ppclpy7d7af2tdqtvblsr6v5sxssp6gyca6umxmws3gjqt.py":84:60)
#loc3 = loc("/tmp/torchinductor_jovyan/yw/cywlt3ppclpy7d7af2tdqtvblsr6v5sxssp6gyca6umxmws3gjqt.py":85:76)
#loc4 = loc("/tmp/torchinductor_jovyan/yw/cywlt3ppclpy7d7af2tdqtvblsr6v5sxssp6gyca6umxmws3gjqt.py":85:72)
#loc5 = loc("/tmp/torchinductor_jovyan/yw/cywlt3ppclpy7d7af2tdqtvblsr6v5sxssp6gyca6umxmws3gjqt.py":86:76)
#loc6 = loc("/tmp/torchinductor_jovyan/yw/cywlt3ppclpy7d7af2tdqtvblsr6v5sxssp6gyca6umxmws3gjqt.py":86:72)
#loc7 = loc("/tmp/torchinductor_jovyan/yw/cywlt3ppclpy7d7af2tdqtvblsr6v5sxssp6gyca6umxmws3gjqt.py":97:17)
#loc8 = loc("/home/jovyan/intel-xpu-backend-for-triton/python/triton/language/standard.py":40:22)
#loc9 = loc("/tmp/torchinductor_jovyan/yw/cywlt3ppclpy7d7af2tdqtvblsr6v5sxssp6gyca6umxmws3gjqt.py":102:33)
#loc10 = loc("/home/jovyan/intel-xpu-backend-for-triton/python/triton/language/standard.py":40:28)
#loc11 = loc("/tmp/torchinductor_jovyan/yw/cywlt3ppclpy7d7af2tdqtvblsr6v5sxssp6gyca6umxmws3gjqt.py":103:34)
#loc12 = loc("/tmp/torchinductor_jovyan/yw/cywlt3ppclpy7d7af2tdqtvblsr6v5sxssp6gyca6umxmws3gjqt.py":103:45)
#loc13 = loc("/tmp/torchinductor_jovyan/yw/cywlt3ppclpy7d7af2tdqtvblsr6v5sxssp6gyca6umxmws3gjqt.py":104:49)
#loc14 = loc("/tmp/torchinductor_jovyan/yw/cywlt3ppclpy7d7af2tdqtvblsr6v5sxssp6gyca6umxmws3gjqt.py":106:26)
#loc15 = loc("/tmp/torchinductor_jovyan/yw/cywlt3ppclpy7d7af2tdqtvblsr6v5sxssp6gyca6umxmws3gjqt.py":106:32)
#loc16 = loc("/tmp/torchinductor_jovyan/yw/cywlt3ppclpy7d7af2tdqtvblsr6v5sxssp6gyca6umxmws3gjqt.py":108:33)
#loc17 = loc("/tmp/torchinductor_jovyan/yw/cywlt3ppclpy7d7af2tdqtvblsr6v5sxssp6gyca6umxmws3gjqt.py":109:26)
#loc18 = loc("/tmp/torchinductor_jovyan/yw/cywlt3ppclpy7d7af2tdqtvblsr6v5sxssp6gyca6umxmws3gjqt.py":111:23)
#loc19 = loc("/tmp/torchinductor_jovyan/yw/cywlt3ppclpy7d7af2tdqtvblsr6v5sxssp6gyca6umxmws3gjqt.py":111:45)
#loc20 = loc("/tmp/torchinductor_jovyan/yw/cywlt3ppclpy7d7af2tdqtvblsr6v5sxssp6gyca6umxmws3gjqt.py":111:35)
#loc21 = loc("/tmp/torchinductor_jovyan/yw/cywlt3ppclpy7d7af2tdqtvblsr6v5sxssp6gyca6umxmws3gjqt.py":112:47)
#loc22 = loc("/tmp/torchinductor_jovyan/yw/cywlt3ppclpy7d7af2tdqtvblsr6v5sxssp6gyca6umxmws3gjqt.py":113:47)
#loc23 = loc("/tmp/torchinductor_jovyan/yw/cywlt3ppclpy7d7af2tdqtvblsr6v5sxssp6gyca6umxmws3gjqt.py":130:21)
#loc24 = loc("/tmp/torchinductor_jovyan/yw/cywlt3ppclpy7d7af2tdqtvblsr6v5sxssp6gyca6umxmws3gjqt.py":132:25)
#loc25 = loc("/tmp/torchinductor_jovyan/yw/cywlt3ppclpy7d7af2tdqtvblsr6v5sxssp6gyca6umxmws3gjqt.py":135:25)
#loc26 = loc("/tmp/torchinductor_jovyan/yw/cywlt3ppclpy7d7af2tdqtvblsr6v5sxssp6gyca6umxmws3gjqt.py":137:26)
#loc27 = loc("/tmp/torchinductor_jovyan/yw/cywlt3ppclpy7d7af2tdqtvblsr6v5sxssp6gyca6umxmws3gjqt.py":147:28)
#loc28 = loc("/tmp/torchinductor_jovyan/yw/cywlt3ppclpy7d7af2tdqtvblsr6v5sxssp6gyca6umxmws3gjqt.py":148:34)
#loc29 = loc("/tmp/torchinductor_jovyan/yw/cywlt3ppclpy7d7af2tdqtvblsr6v5sxssp6gyca6umxmws3gjqt.py":150:32)
#loc30 = loc("/tmp/torchinductor_jovyan/yw/cywlt3ppclpy7d7af2tdqtvblsr6v5sxssp6gyca6umxmws3gjqt.py":150:26)
#loc31 = loc("/tmp/torchinductor_jovyan/yw/cywlt3ppclpy7d7af2tdqtvblsr6v5sxssp6gyca6umxmws3gjqt.py":150:67)
#loc32 = loc("/tmp/torchinductor_jovyan/yw/cywlt3ppclpy7d7af2tdqtvblsr6v5sxssp6gyca6umxmws3gjqt.py":150:61)
#loc33 = loc("/tmp/torchinductor_jovyan/yw/cywlt3ppclpy7d7af2tdqtvblsr6v5sxssp6gyca6umxmws3gjqt.py":150:49)
#loc34 = loc("/tmp/torchinductor_jovyan/yw/cywlt3ppclpy7d7af2tdqtvblsr6v5sxssp6gyca6umxmws3gjqt.py":150:103)
#loc35 = loc("/tmp/torchinductor_jovyan/yw/cywlt3ppclpy7d7af2tdqtvblsr6v5sxssp6gyca6umxmws3gjqt.py":150:84)
#loc36 = loc("/tmp/torchinductor_jovyan/yw/cywlt3ppclpy7d7af2tdqtvblsr6v5sxssp6gyca6umxmws3gjqt.py":157:72)
#loc37 = loc("/tmp/torchinductor_jovyan/yw/cywlt3ppclpy7d7af2tdqtvblsr6v5sxssp6gyca6umxmws3gjqt.py":157:24)
#loc38 = loc("/tmp/torchinductor_jovyan/yw/cywlt3ppclpy7d7af2tdqtvblsr6v5sxssp6gyca6umxmws3gjqt.py":157:35)
#loc39 = loc("/tmp/torchinductor_jovyan/yw/cywlt3ppclpy7d7af2tdqtvblsr6v5sxssp6gyca6umxmws3gjqt.py":157:20)
#loc40 = loc("/tmp/torchinductor_jovyan/yw/cywlt3ppclpy7d7af2tdqtvblsr6v5sxssp6gyca6umxmws3gjqt.py":161:22)
#loc41 = loc("/tmp/torchinductor_jovyan/yw/cywlt3ppclpy7d7af2tdqtvblsr6v5sxssp6gyca6umxmws3gjqt.py":170:28)
#loc42 = loc("/tmp/torchinductor_jovyan/yw/cywlt3ppclpy7d7af2tdqtvblsr6v5sxssp6gyca6umxmws3gjqt.py":171:35)
#loc43 = loc("/tmp/torchinductor_jovyan/yw/cywlt3ppclpy7d7af2tdqtvblsr6v5sxssp6gyca6umxmws3gjqt.py":172:44)
#loc44 = loc("/tmp/torchinductor_jovyan/yw/cywlt3ppclpy7d7af2tdqtvblsr6v5sxssp6gyca6umxmws3gjqt.py":173:33)
#loc45 = loc("/tmp/torchinductor_jovyan/yw/cywlt3ppclpy7d7af2tdqtvblsr6v5sxssp6gyca6umxmws3gjqt.py":173:20)
#loc46 = loc("/tmp/torchinductor_jovyan/yw/cywlt3ppclpy7d7af2tdqtvblsr6v5sxssp6gyca6umxmws3gjqt.py":173:48)
#loc47 = loc("/tmp/torchinductor_jovyan/yw/cywlt3ppclpy7d7af2tdqtvblsr6v5sxssp6gyca6umxmws3gjqt.py":173:95)
#loc48 = loc("/tmp/torchinductor_jovyan/yw/cywlt3ppclpy7d7af2tdqtvblsr6v5sxssp6gyca6umxmws3gjqt.py":173:71)
#loc49 = loc("/tmp/torchinductor_jovyan/yw/cywlt3ppclpy7d7af2tdqtvblsr6v5sxssp6gyca6umxmws3gjqt.py":177:52)
#loc50 = loc("/tmp/torchinductor_jovyan/yw/cywlt3ppclpy7d7af2tdqtvblsr6v5sxssp6gyca6umxmws3gjqt.py":177:99)
#loc51 = loc("/tmp/torchinductor_jovyan/yw/cywlt3ppclpy7d7af2tdqtvblsr6v5sxssp6gyca6umxmws3gjqt.py":177:109)
#loc52 = loc("/tmp/torchinductor_jovyan/yw/cywlt3ppclpy7d7af2tdqtvblsr6v5sxssp6gyca6umxmws3gjqt.py":177:72)
#loc53 = loc("/tmp/torchinductor_jovyan/yw/cywlt3ppclpy7d7af2tdqtvblsr6v5sxssp6gyca6umxmws3gjqt.py":180:17)
#loc54 = loc("/tmp/torchinductor_jovyan/yw/cywlt3ppclpy7d7af2tdqtvblsr6v5sxssp6gyca6umxmws3gjqt.py":185:8)
#loc55 = loc("/tmp/torchinductor_jovyan/yw/cywlt3ppclpy7d7af2tdqtvblsr6v5sxssp6gyca6umxmws3gjqt.py":188:17)
#loc56 = loc("/tmp/torchinductor_jovyan/yw/cywlt3ppclpy7d7af2tdqtvblsr6v5sxssp6gyca6umxmws3gjqt.py":193:8)
#loc57 = loc("/tmp/torchinductor_jovyan/yw/cywlt3ppclpy7d7af2tdqtvblsr6v5sxssp6gyca6umxmws3gjqt.py":195:26)
#loc58 = loc("/tmp/torchinductor_jovyan/yw/cywlt3ppclpy7d7af2tdqtvblsr6v5sxssp6gyca6umxmws3gjqt.py":195:37)
#loc59 = loc("/tmp/torchinductor_jovyan/yw/cywlt3ppclpy7d7af2tdqtvblsr6v5sxssp6gyca6umxmws3gjqt.py":203:57)
#loc60 = loc("/tmp/torchinductor_jovyan/yw/cywlt3ppclpy7d7af2tdqtvblsr6v5sxssp6gyca6umxmws3gjqt.py":207:53)
#loc61 = loc("/tmp/torchinductor_jovyan/yw/cywlt3ppclpy7d7af2tdqtvblsr6v5sxssp6gyca6umxmws3gjqt.py":207:38)
#loc62 = loc("/tmp/torchinductor_jovyan/yw/cywlt3ppclpy7d7af2tdqtvblsr6v5sxssp6gyca6umxmws3gjqt.py":408:21)
#loc63 = loc("/tmp/torchinductor_jovyan/yw/cywlt3ppclpy7d7af2tdqtvblsr6v5sxssp6gyca6umxmws3gjqt.py":518:36)
#loc66 = loc("/tmp/torchinductor_jovyan/yw/cywlt3ppclpy7d7af2tdqtvblsr6v5sxssp6gyca6umxmws3gjqt.py":532:22)
#loc67 = loc("/tmp/torchinductor_jovyan/yw/cywlt3ppclpy7d7af2tdqtvblsr6v5sxssp6gyca6umxmws3gjqt.py":541:35)
#loc68 = loc("/tmp/torchinductor_jovyan/yw/cywlt3ppclpy7d7af2tdqtvblsr6v5sxssp6gyca6umxmws3gjqt.py":355:40)
#loc69 = loc("/tmp/torchinductor_jovyan/yw/cywlt3ppclpy7d7af2tdqtvblsr6v5sxssp6gyca6umxmws3gjqt.py":415:19)
#loc70 = loc("/tmp/torchinductor_jovyan/yw/cywlt3ppclpy7d7af2tdqtvblsr6v5sxssp6gyca6umxmws3gjqt.py":505:55)
#loc71 = loc("/tmp/torchinductor_jovyan/yw/cywlt3ppclpy7d7af2tdqtvblsr6v5sxssp6gyca6umxmws3gjqt.py":510:19)
#loc72 = loc("/tmp/torchinductor_jovyan/yw/cywlt3ppclpy7d7af2tdqtvblsr6v5sxssp6gyca6umxmws3gjqt.py":512:14)
#loc73 = loc("/tmp/torchinductor_jovyan/yw/cywlt3ppclpy7d7af2tdqtvblsr6v5sxssp6gyca6umxmws3gjqt.py":526:44)
#loc74 = loc("/tmp/torchinductor_jovyan/yw/cywlt3ppclpy7d7af2tdqtvblsr6v5sxssp6gyca6umxmws3gjqt.py":526:69)
#loc75 = loc("/tmp/torchinductor_jovyan/yw/cywlt3ppclpy7d7af2tdqtvblsr6v5sxssp6gyca6umxmws3gjqt.py":533:23)
#loc76 = loc("/tmp/torchinductor_jovyan/yw/cywlt3ppclpy7d7af2tdqtvblsr6v5sxssp6gyca6umxmws3gjqt.py":536:23)
#loc77 = loc("/tmp/torchinductor_jovyan/yw/cywlt3ppclpy7d7af2tdqtvblsr6v5sxssp6gyca6umxmws3gjqt.py":538:24)
#loc78 = loc("/tmp/torchinductor_jovyan/yw/cywlt3ppclpy7d7af2tdqtvblsr6v5sxssp6gyca6umxmws3gjqt.py":541:24)
#loc79 = loc("/tmp/torchinductor_jovyan/yw/cywlt3ppclpy7d7af2tdqtvblsr6v5sxssp6gyca6umxmws3gjqt.py":542:24)
#loc80 = loc("/tmp/torchinductor_jovyan/yw/cywlt3ppclpy7d7af2tdqtvblsr6v5sxssp6gyca6umxmws3gjqt.py":547:73)
#loc81 = loc("/tmp/torchinductor_jovyan/yw/cywlt3ppclpy7d7af2tdqtvblsr6v5sxssp6gyca6umxmws3gjqt.py":549:69)
#loc82 = loc("/tmp/torchinductor_jovyan/yw/cywlt3ppclpy7d7af2tdqtvblsr6v5sxssp6gyca6umxmws3gjqt.py":552:27)
#loc83 = loc("/home/jovyan/intel-xpu-backend-for-triton/python/triton/language/standard.py":188:40)
#loc85 = loc("/home/jovyan/intel-xpu-backend-for-triton/python/triton/language/standard.py":167:27)
#loc86 = loc("/tmp/torchinductor_jovyan/yw/cywlt3ppclpy7d7af2tdqtvblsr6v5sxssp6gyca6umxmws3gjqt.py":556:27)
#loc87 = loc("/tmp/torchinductor_jovyan/yw/cywlt3ppclpy7d7af2tdqtvblsr6v5sxssp6gyca6umxmws3gjqt.py":558:35)
#loc88 = loc("/tmp/torchinductor_jovyan/yw/cywlt3ppclpy7d7af2tdqtvblsr6v5sxssp6gyca6umxmws3gjqt.py":559:51)
#loc89 = loc("/tmp/torchinductor_jovyan/yw/cywlt3ppclpy7d7af2tdqtvblsr6v5sxssp6gyca6umxmws3gjqt.py":563:31)
#loc90 = loc("/tmp/torchinductor_jovyan/yw/cywlt3ppclpy7d7af2tdqtvblsr6v5sxssp6gyca6umxmws3gjqt.py":563:25)
#loc91 = loc("/tmp/torchinductor_jovyan/yw/cywlt3ppclpy7d7af2tdqtvblsr6v5sxssp6gyca6umxmws3gjqt.py":564:51)
#loc92 = loc("/tmp/torchinductor_jovyan/yw/cywlt3ppclpy7d7af2tdqtvblsr6v5sxssp6gyca6umxmws3gjqt.py":564:39)
#loc93 = loc("/tmp/torchinductor_jovyan/yw/cywlt3ppclpy7d7af2tdqtvblsr6v5sxssp6gyca6umxmws3gjqt.py":564:21)
#loc94 = loc("/tmp/torchinductor_jovyan/yw/cywlt3ppclpy7d7af2tdqtvblsr6v5sxssp6gyca6umxmws3gjqt.py":569:16)
#loc95 = loc("/home/jovyan/intel-xpu-backend-for-triton/python/triton/language/standard.py":290:36)
#loc97 = loc("/home/jovyan/intel-xpu-backend-for-triton/python/triton/language/standard.py":260:15)
#loc98 = loc("/tmp/torchinductor_jovyan/yw/cywlt3ppclpy7d7af2tdqtvblsr6v5sxssp6gyca6umxmws3gjqt.py":569:24)
#loc99 = loc("/tmp/torchinductor_jovyan/yw/cywlt3ppclpy7d7af2tdqtvblsr6v5sxssp6gyca6umxmws3gjqt.py":571:22)
#loc100 = loc("/tmp/torchinductor_jovyan/yw/cywlt3ppclpy7d7af2tdqtvblsr6v5sxssp6gyca6umxmws3gjqt.py":571:16)
#loc101 = loc("/tmp/torchinductor_jovyan/yw/cywlt3ppclpy7d7af2tdqtvblsr6v5sxssp6gyca6umxmws3gjqt.py":417:21)
#loc102 = loc("/tmp/torchinductor_jovyan/yw/cywlt3ppclpy7d7af2tdqtvblsr6v5sxssp6gyca6umxmws3gjqt.py":572:54)
#loc103 = loc("/tmp/torchinductor_jovyan/yw/cywlt3ppclpy7d7af2tdqtvblsr6v5sxssp6gyca6umxmws3gjqt.py":573:22)
#loc104 = loc("/tmp/torchinductor_jovyan/yw/cywlt3ppclpy7d7af2tdqtvblsr6v5sxssp6gyca6umxmws3gjqt.py":573:44)
#loc105 = loc("/tmp/torchinductor_jovyan/yw/cywlt3ppclpy7d7af2tdqtvblsr6v5sxssp6gyca6umxmws3gjqt.py":455:33)
#loc106 = loc("/tmp/torchinductor_jovyan/yw/cywlt3ppclpy7d7af2tdqtvblsr6v5sxssp6gyca6umxmws3gjqt.py":394:63)
#loc107 = loc("/tmp/torchinductor_jovyan/yw/cywlt3ppclpy7d7af2tdqtvblsr6v5sxssp6gyca6umxmws3gjqt.py":456:38)
#loc108 = loc("/tmp/torchinductor_jovyan/yw/cywlt3ppclpy7d7af2tdqtvblsr6v5sxssp6gyca6umxmws3gjqt.py":456:24)
#loc109 = loc("/tmp/torchinductor_jovyan/yw/cywlt3ppclpy7d7af2tdqtvblsr6v5sxssp6gyca6umxmws3gjqt.py":457:109)
#loc110 = loc("/tmp/torchinductor_jovyan/yw/cywlt3ppclpy7d7af2tdqtvblsr6v5sxssp6gyca6umxmws3gjqt.py":457:113)
#loc111 = loc("/tmp/torchinductor_jovyan/yw/cywlt3ppclpy7d7af2tdqtvblsr6v5sxssp6gyca6umxmws3gjqt.py":457:55)
#loc112 = loc("/tmp/torchinductor_jovyan/yw/cywlt3ppclpy7d7af2tdqtvblsr6v5sxssp6gyca6umxmws3gjqt.py":457:25)
#loc113 = loc("/tmp/torchinductor_jovyan/yw/cywlt3ppclpy7d7af2tdqtvblsr6v5sxssp6gyca6umxmws3gjqt.py":458:30)
#loc114 = loc("/tmp/torchinductor_jovyan/yw/cywlt3ppclpy7d7af2tdqtvblsr6v5sxssp6gyca6umxmws3gjqt.py":458:35)
#loc115 = loc("/tmp/torchinductor_jovyan/yw/cywlt3ppclpy7d7af2tdqtvblsr6v5sxssp6gyca6umxmws3gjqt.py":458:60)
#loc116 = loc("/tmp/torchinductor_jovyan/yw/cywlt3ppclpy7d7af2tdqtvblsr6v5sxssp6gyca6umxmws3gjqt.py":459:34)
#loc117 = loc("/tmp/torchinductor_jovyan/yw/cywlt3ppclpy7d7af2tdqtvblsr6v5sxssp6gyca6umxmws3gjqt.py":459:48)
#loc118 = loc("/tmp/torchinductor_jovyan/yw/cywlt3ppclpy7d7af2tdqtvblsr6v5sxssp6gyca6umxmws3gjqt.py":459:63)
#loc119 = loc("/tmp/torchinductor_jovyan/yw/cywlt3ppclpy7d7af2tdqtvblsr6v5sxssp6gyca6umxmws3gjqt.py":460:29)
#loc120 = loc("/tmp/torchinductor_jovyan/yw/cywlt3ppclpy7d7af2tdqtvblsr6v5sxssp6gyca6umxmws3gjqt.py":460:47)
#loc121 = loc("/tmp/torchinductor_jovyan/yw/cywlt3ppclpy7d7af2tdqtvblsr6v5sxssp6gyca6umxmws3gjqt.py":460:61)
#loc122 = loc("/tmp/torchinductor_jovyan/yw/cywlt3ppclpy7d7af2tdqtvblsr6v5sxssp6gyca6umxmws3gjqt.py":460:42)
#loc123 = loc("/tmp/torchinductor_jovyan/yw/cywlt3ppclpy7d7af2tdqtvblsr6v5sxssp6gyca6umxmws3gjqt.py":397:26)
#loc124 = loc("/tmp/torchinductor_jovyan/yw/cywlt3ppclpy7d7af2tdqtvblsr6v5sxssp6gyca6umxmws3gjqt.py":399:50)
#loc125 = loc("/tmp/torchinductor_jovyan/yw/cywlt3ppclpy7d7af2tdqtvblsr6v5sxssp6gyca6umxmws3gjqt.py":400:50)
#loc126 = loc("/tmp/torchinductor_jovyan/yw/cywlt3ppclpy7d7af2tdqtvblsr6v5sxssp6gyca6umxmws3gjqt.py":398:8)
#loc127 = loc("/tmp/torchinductor_jovyan/yw/cywlt3ppclpy7d7af2tdqtvblsr6v5sxssp6gyca6umxmws3gjqt.py":218:32)
#loc128 = loc("/tmp/torchinductor_jovyan/yw/cywlt3ppclpy7d7af2tdqtvblsr6v5sxssp6gyca6umxmws3gjqt.py":220:44)
#loc129 = loc("/tmp/torchinductor_jovyan/yw/cywlt3ppclpy7d7af2tdqtvblsr6v5sxssp6gyca6umxmws3gjqt.py":220:49)
#loc130 = loc("/tmp/torchinductor_jovyan/yw/cywlt3ppclpy7d7af2tdqtvblsr6v5sxssp6gyca6umxmws3gjqt.py":221:38)
#loc131 = loc("/tmp/torchinductor_jovyan/yw/cywlt3ppclpy7d7af2tdqtvblsr6v5sxssp6gyca6umxmws3gjqt.py":222:39)
#loc132 = loc("/tmp/torchinductor_jovyan/yw/cywlt3ppclpy7d7af2tdqtvblsr6v5sxssp6gyca6umxmws3gjqt.py":223:48)
#loc133 = loc("/tmp/torchinductor_jovyan/yw/cywlt3ppclpy7d7af2tdqtvblsr6v5sxssp6gyca6umxmws3gjqt.py":224:37)
#loc134 = loc("/tmp/torchinductor_jovyan/yw/cywlt3ppclpy7d7af2tdqtvblsr6v5sxssp6gyca6umxmws3gjqt.py":224:24)
#loc135 = loc("/tmp/torchinductor_jovyan/yw/cywlt3ppclpy7d7af2tdqtvblsr6v5sxssp6gyca6umxmws3gjqt.py":224:52)
#loc136 = loc("/tmp/torchinductor_jovyan/yw/cywlt3ppclpy7d7af2tdqtvblsr6v5sxssp6gyca6umxmws3gjqt.py":224:99)
#loc137 = loc("/tmp/torchinductor_jovyan/yw/cywlt3ppclpy7d7af2tdqtvblsr6v5sxssp6gyca6umxmws3gjqt.py":224:75)
#loc138 = loc("/tmp/torchinductor_jovyan/yw/cywlt3ppclpy7d7af2tdqtvblsr6v5sxssp6gyca6umxmws3gjqt.py":227:56)
#loc139 = loc("/tmp/torchinductor_jovyan/yw/cywlt3ppclpy7d7af2tdqtvblsr6v5sxssp6gyca6umxmws3gjqt.py":227:76)
#loc140 = loc("/tmp/torchinductor_jovyan/yw/cywlt3ppclpy7d7af2tdqtvblsr6v5sxssp6gyca6umxmws3gjqt.py":235:12)
#loc141 = loc("/tmp/torchinductor_jovyan/yw/cywlt3ppclpy7d7af2tdqtvblsr6v5sxssp6gyca6umxmws3gjqt.py":243:12)
#loc142 = loc("/tmp/torchinductor_jovyan/yw/cywlt3ppclpy7d7af2tdqtvblsr6v5sxssp6gyca6umxmws3gjqt.py":245:41)
#loc143 = loc("/tmp/torchinductor_jovyan/yw/cywlt3ppclpy7d7af2tdqtvblsr6v5sxssp6gyca6umxmws3gjqt.py":253:61)
#loc144 = loc("/tmp/torchinductor_jovyan/yw/cywlt3ppclpy7d7af2tdqtvblsr6v5sxssp6gyca6umxmws3gjqt.py":257:57)
#loc145 = loc("/tmp/torchinductor_jovyan/yw/cywlt3ppclpy7d7af2tdqtvblsr6v5sxssp6gyca6umxmws3gjqt.py":257:42)
#loc147 = loc("/tmp/torchinductor_jovyan/yw/cywlt3ppclpy7d7af2tdqtvblsr6v5sxssp6gyca6umxmws3gjqt.py":262:23)
#loc148 = loc("/tmp/torchinductor_jovyan/yw/cywlt3ppclpy7d7af2tdqtvblsr6v5sxssp6gyca6umxmws3gjqt.py":262:43)
#loc149 = loc("/tmp/torchinductor_jovyan/yw/cywlt3ppclpy7d7af2tdqtvblsr6v5sxssp6gyca6umxmws3gjqt.py":262:35)
#loc150 = loc("/tmp/torchinductor_jovyan/yw/cywlt3ppclpy7d7af2tdqtvblsr6v5sxssp6gyca6umxmws3gjqt.py":266:17)
#loc151 = loc("/tmp/torchinductor_jovyan/yw/cywlt3ppclpy7d7af2tdqtvblsr6v5sxssp6gyca6umxmws3gjqt.py":269:25)
#loc152 = loc("/tmp/torchinductor_jovyan/yw/cywlt3ppclpy7d7af2tdqtvblsr6v5sxssp6gyca6umxmws3gjqt.py":271:8)
#loc153 = loc("/tmp/torchinductor_jovyan/yw/cywlt3ppclpy7d7af2tdqtvblsr6v5sxssp6gyca6umxmws3gjqt.py":274:17)
#loc154 = loc("/tmp/torchinductor_jovyan/yw/cywlt3ppclpy7d7af2tdqtvblsr6v5sxssp6gyca6umxmws3gjqt.py":279:8)
#loc155 = loc("/tmp/torchinductor_jovyan/yw/cywlt3ppclpy7d7af2tdqtvblsr6v5sxssp6gyca6umxmws3gjqt.py":283:25)
#loc156 = loc("/tmp/torchinductor_jovyan/yw/cywlt3ppclpy7d7af2tdqtvblsr6v5sxssp6gyca6umxmws3gjqt.py":284:25)
#loc157 = loc("/tmp/torchinductor_jovyan/yw/cywlt3ppclpy7d7af2tdqtvblsr6v5sxssp6gyca6umxmws3gjqt.py":289:30)
#loc158 = loc("/tmp/torchinductor_jovyan/yw/cywlt3ppclpy7d7af2tdqtvblsr6v5sxssp6gyca6umxmws3gjqt.py":290:30)
#loc159 = loc("/tmp/torchinductor_jovyan/yw/cywlt3ppclpy7d7af2tdqtvblsr6v5sxssp6gyca6umxmws3gjqt.py":295:25)
#loc160 = loc("/tmp/torchinductor_jovyan/yw/cywlt3ppclpy7d7af2tdqtvblsr6v5sxssp6gyca6umxmws3gjqt.py":299:38)
#loc161 = loc("/tmp/torchinductor_jovyan/yw/cywlt3ppclpy7d7af2tdqtvblsr6v5sxssp6gyca6umxmws3gjqt.py":299:30)
#loc162 = loc("/tmp/torchinductor_jovyan/yw/cywlt3ppclpy7d7af2tdqtvblsr6v5sxssp6gyca6umxmws3gjqt.py":300:41)
#loc163 = loc("/tmp/torchinductor_jovyan/yw/cywlt3ppclpy7d7af2tdqtvblsr6v5sxssp6gyca6umxmws3gjqt.py":302:53)
#loc164 = loc("/tmp/torchinductor_jovyan/yw/cywlt3ppclpy7d7af2tdqtvblsr6v5sxssp6gyca6umxmws3gjqt.py":302:49)
#loc165 = loc("/tmp/torchinductor_jovyan/yw/cywlt3ppclpy7d7af2tdqtvblsr6v5sxssp6gyca6umxmws3gjqt.py":302:67)
#loc166 = loc("/tmp/torchinductor_jovyan/yw/cywlt3ppclpy7d7af2tdqtvblsr6v5sxssp6gyca6umxmws3gjqt.py":302:62)
#loc167 = loc("/tmp/torchinductor_jovyan/yw/cywlt3ppclpy7d7af2tdqtvblsr6v5sxssp6gyca6umxmws3gjqt.py":302:25)
#loc168 = loc("/tmp/torchinductor_jovyan/yw/cywlt3ppclpy7d7af2tdqtvblsr6v5sxssp6gyca6umxmws3gjqt.py":302:92)
#loc169 = loc("/tmp/torchinductor_jovyan/yw/cywlt3ppclpy7d7af2tdqtvblsr6v5sxssp6gyca6umxmws3gjqt.py":302:4)
#loc170 = loc(callsite(#loc8 at #loc9))
#loc171 = loc(callsite(#loc10 at #loc9))
#loc172 = loc(callsite(#loc8 at #loc11))
#loc173 = loc(callsite(#loc10 at #loc11))
#loc174 = loc(callsite(#loc8 at #loc50))
#loc175 = loc(callsite(#loc10 at #loc50))
#loc177 = loc(callsite(#loc68 at #loc65))
#loc178 = loc(callsite(#loc106 at #loc65))
#loc179 = loc(callsite(#loc123 at #loc65))
#loc180 = loc(callsite(#loc124 at #loc65))
#loc181 = loc(callsite(#loc125 at #loc65))
#loc182 = loc(callsite(#loc126 at #loc65))
#loc183 = loc(callsite(#loc68 at #loc146))
#loc185 = loc(callsite(#loc106 at #loc146))
#loc186 = loc(callsite(#loc123 at #loc146))
#loc187 = loc(callsite(#loc124 at #loc146))
#loc188 = loc(callsite(#loc125 at #loc146))
#loc189 = loc(callsite(#loc126 at #loc146))
#loc190 = loc(callsite(#loc63 at #loc176))
#loc191 = loc(callsite(#loc66 at #loc176))
#loc192 = loc(callsite(#loc67 at #loc176))
#loc193 = loc(callsite(#loc70 at #loc176))
#loc194 = loc(callsite(#loc71 at #loc176))
#loc195 = loc(callsite(#loc72 at #loc176))
#loc196 = loc(callsite(#loc73 at #loc176))
#loc197 = loc(callsite(#loc74 at #loc176))
#loc198 = loc(callsite(#loc75 at #loc176))
#loc199 = loc(callsite(#loc76 at #loc176))
#loc200 = loc(callsite(#loc77 at #loc176))
#loc201 = loc(callsite(#loc78 at #loc176))
#loc202 = loc(callsite(#loc79 at #loc176))
#loc203 = loc(callsite(#loc80 at #loc176))
#loc204 = loc(callsite(#loc81 at #loc176))
#loc205 = loc(callsite(#loc82 at #loc176))
#loc207 = loc(callsite(#loc86 at #loc176))
#loc208 = loc(callsite(#loc87 at #loc176))
#loc209 = loc(callsite(#loc88 at #loc176))
#loc210 = loc(callsite(#loc89 at #loc176))
#loc211 = loc(callsite(#loc90 at #loc176))
#loc212 = loc(callsite(#loc91 at #loc176))
#loc213 = loc(callsite(#loc92 at #loc176))
#loc214 = loc(callsite(#loc93 at #loc176))
#loc215 = loc(callsite(#loc94 at #loc176))
#loc217 = loc(callsite(#loc98 at #loc176))
#loc218 = loc(callsite(#loc99 at #loc176))
#loc219 = loc(callsite(#loc100 at #loc176))
#loc220 = loc(callsite(#loc102 at #loc176))
#loc221 = loc(callsite(#loc103 at #loc176))
#loc222 = loc(callsite(#loc104 at #loc176))
#loc223 = loc(callsite(#loc105 at #loc178))
#loc224 = loc(callsite(#loc107 at #loc178))
#loc225 = loc(callsite(#loc108 at #loc178))
#loc226 = loc(callsite(#loc109 at #loc178))
#loc227 = loc(callsite(#loc110 at #loc178))
#loc228 = loc(callsite(#loc111 at #loc178))
#loc229 = loc(callsite(#loc112 at #loc178))
#loc230 = loc(callsite(#loc113 at #loc178))
#loc231 = loc(callsite(#loc114 at #loc178))
#loc232 = loc(callsite(#loc115 at #loc178))
#loc233 = loc(callsite(#loc116 at #loc178))
#loc234 = loc(callsite(#loc117 at #loc178))
#loc235 = loc(callsite(#loc118 at #loc178))
#loc236 = loc(callsite(#loc119 at #loc178))
#loc237 = loc(callsite(#loc120 at #loc178))
#loc238 = loc(callsite(#loc121 at #loc178))
#loc239 = loc(callsite(#loc122 at #loc178))
#loc240 = loc(callsite(#loc70 at #loc184))
#loc241 = loc(callsite(#loc71 at #loc184))
#loc242 = loc(callsite(#loc72 at #loc184))
#loc243 = loc(callsite(#loc73 at #loc184))
#loc244 = loc(callsite(#loc74 at #loc184))
#loc245 = loc(callsite(#loc82 at #loc184))
#loc247 = loc(callsite(#loc86 at #loc184))
#loc248 = loc(callsite(#loc87 at #loc184))
#loc249 = loc(callsite(#loc88 at #loc184))
#loc250 = loc(callsite(#loc89 at #loc184))
#loc251 = loc(callsite(#loc90 at #loc184))
#loc252 = loc(callsite(#loc91 at #loc184))
#loc253 = loc(callsite(#loc92 at #loc184))
#loc254 = loc(callsite(#loc93 at #loc184))
#loc255 = loc(callsite(#loc94 at #loc184))
#loc257 = loc(callsite(#loc98 at #loc184))
#loc258 = loc(callsite(#loc99 at #loc184))
#loc259 = loc(callsite(#loc100 at #loc184))
#loc260 = loc(callsite(#loc102 at #loc184))
#loc261 = loc(callsite(#loc103 at #loc184))
#loc262 = loc(callsite(#loc104 at #loc184))
#loc263 = loc(callsite(#loc105 at #loc185))
#loc264 = loc(callsite(#loc107 at #loc185))
#loc265 = loc(callsite(#loc108 at #loc185))
#loc266 = loc(callsite(#loc109 at #loc185))
#loc267 = loc(callsite(#loc110 at #loc185))
#loc268 = loc(callsite(#loc111 at #loc185))
#loc269 = loc(callsite(#loc112 at #loc185))
#loc270 = loc(callsite(#loc113 at #loc185))
#loc271 = loc(callsite(#loc114 at #loc185))
#loc272 = loc(callsite(#loc115 at #loc185))
#loc273 = loc(callsite(#loc116 at #loc185))
#loc274 = loc(callsite(#loc117 at #loc185))
#loc275 = loc(callsite(#loc118 at #loc185))
#loc276 = loc(callsite(#loc119 at #loc185))
#loc277 = loc(callsite(#loc120 at #loc185))
#loc278 = loc(callsite(#loc121 at #loc185))
#loc279 = loc(callsite(#loc122 at #loc185))
#loc280 = loc(callsite(#loc62 at #loc190))
#loc281 = loc(callsite(#loc69 at #loc193))
#loc282 = loc(callsite(#loc83 at #loc206))
#loc284 = loc(callsite(#loc95 at #loc216))
#loc286 = loc(callsite(#loc101 at #loc220))
#loc287 = loc(callsite(#loc69 at #loc240))
#loc288 = loc(callsite(#loc83 at #loc246))
#loc290 = loc(callsite(#loc95 at #loc256))
#loc292 = loc(callsite(#loc101 at #loc260))
#loc293 = loc(callsite(#loc85 at #loc282))
#loc294 = loc(callsite(#loc97 at #loc284))
#loc295 = loc(callsite(#loc85 at #loc288))
#loc296 = loc(callsite(#loc97 at #loc290))
