#loc = loc("/tmp/torchinductor_jovyan/75/c75kq5wxnpekebh5gvgkjr6rffk6ub47rqvknmtvenmyhq2jxbt2.py":18:0)
#loc130 = loc("/tmp/torchinductor_jovyan/75/c75kq5wxnpekebh5gvgkjr6rffk6ub47rqvknmtvenmyhq2jxbt2.py":502:0)
#loc134 = loc("/home/jovyan/intel-xpu-backend-for-triton/python/triton/language/standard.py":31:0)
#loc140 = loc("/tmp/torchinductor_jovyan/75/c75kq5wxnpekebh5gvgkjr6rffk6ub47rqvknmtvenmyhq2jxbt2.py":270:0)
#loc150 = loc("/tmp/torchinductor_jovyan/75/c75kq5wxnpekebh5gvgkjr6rffk6ub47rqvknmtvenmyhq2jxbt2.py":386:0)
#loc195 = loc("/tmp/torchinductor_jovyan/75/c75kq5wxnpekebh5gvgkjr6rffk6ub47rqvknmtvenmyhq2jxbt2.py":513:0)
#loc199 = loc("/home/jovyan/intel-xpu-backend-for-triton/python/triton/language/standard.py":174:0)
#loc201 = loc(unknown)
#loc204 = loc("/home/jovyan/intel-xpu-backend-for-triton/python/triton/language/standard.py":166:0)
#loc208 = loc("/home/jovyan/intel-xpu-backend-for-triton/python/triton/language/standard.py":284:0)
#loc212 = loc("/home/jovyan/intel-xpu-backend-for-triton/python/triton/language/standard.py":259:0)
#loc216 = loc("/tmp/torchinductor_jovyan/75/c75kq5wxnpekebh5gvgkjr6rffk6ub47rqvknmtvenmyhq2jxbt2.py":370:0)
module {
  tt.func public @triton_tem_fused__to_copy_add_cat_cos_mul_neg_sin_unsqueeze_4(%arg0: !tt.ptr<bf16> {tt.divisibility = 16 : i32} loc("/tmp/torchinductor_jovyan/75/c75kq5wxnpekebh5gvgkjr6rffk6ub47rqvknmtvenmyhq2jxbt2.py":18:0), %arg1: !tt.ptr<bf16> {tt.divisibility = 16 : i32} loc("/tmp/torchinductor_jovyan/75/c75kq5wxnpekebh5gvgkjr6rffk6ub47rqvknmtvenmyhq2jxbt2.py":18:0), %arg2: !tt.ptr<bf16> {tt.divisibility = 16 : i32} loc("/tmp/torchinductor_jovyan/75/c75kq5wxnpekebh5gvgkjr6rffk6ub47rqvknmtvenmyhq2jxbt2.py":18:0), %arg3: !tt.ptr<f32> {tt.divisibility = 16 : i32} loc("/tmp/torchinductor_jovyan/75/c75kq5wxnpekebh5gvgkjr6rffk6ub47rqvknmtvenmyhq2jxbt2.py":18:0), %arg4: !tt.ptr<i32> {tt.divisibility = 16 : i32} loc("/tmp/torchinductor_jovyan/75/c75kq5wxnpekebh5gvgkjr6rffk6ub47rqvknmtvenmyhq2jxbt2.py":18:0), %arg5: !tt.ptr<i32> {tt.divisibility = 16 : i32} loc("/tmp/torchinductor_jovyan/75/c75kq5wxnpekebh5gvgkjr6rffk6ub47rqvknmtvenmyhq2jxbt2.py":18:0), %arg6: !tt.ptr<i32> {tt.divisibility = 16 : i32} loc("/tmp/torchinductor_jovyan/75/c75kq5wxnpekebh5gvgkjr6rffk6ub47rqvknmtvenmyhq2jxbt2.py":18:0), %arg7: !tt.ptr<i32> {tt.divisibility = 16 : i32} loc("/tmp/torchinductor_jovyan/75/c75kq5wxnpekebh5gvgkjr6rffk6ub47rqvknmtvenmyhq2jxbt2.py":18:0), %arg8: !tt.ptr<i64> {tt.divisibility = 16 : i32} loc("/tmp/torchinductor_jovyan/75/c75kq5wxnpekebh5gvgkjr6rffk6ub47rqvknmtvenmyhq2jxbt2.py":18:0), %arg9: !tt.ptr<i1> {tt.divisibility = 16 : i32} loc("/tmp/torchinductor_jovyan/75/c75kq5wxnpekebh5gvgkjr6rffk6ub47rqvknmtvenmyhq2jxbt2.py":18:0), %arg10: !tt.ptr<bf16> {tt.divisibility = 16 : i32} loc("/tmp/torchinductor_jovyan/75/c75kq5wxnpekebh5gvgkjr6rffk6ub47rqvknmtvenmyhq2jxbt2.py":18:0), %arg11: i32 loc("/tmp/torchinductor_jovyan/75/c75kq5wxnpekebh5gvgkjr6rffk6ub47rqvknmtvenmyhq2jxbt2.py":18:0), %arg12: i32 loc("/tmp/torchinductor_jovyan/75/c75kq5wxnpekebh5gvgkjr6rffk6ub47rqvknmtvenmyhq2jxbt2.py":18:0), %arg13: i32 loc("/tmp/torchinductor_jovyan/75/c75kq5wxnpekebh5gvgkjr6rffk6ub47rqvknmtvenmyhq2jxbt2.py":18:0), %arg14: i32 loc("/tmp/torchinductor_jovyan/75/c75kq5wxnpekebh5gvgkjr6rffk6ub47rqvknmtvenmyhq2jxbt2.py":18:0), %arg15: i32 loc("/tmp/torchinductor_jovyan/75/c75kq5wxnpekebh5gvgkjr6rffk6ub47rqvknmtvenmyhq2jxbt2.py":18:0)) attributes {noinline = false} {
    %c4096_i32 = arith.constant 4096 : i32 loc(#loc1)
    %c4096_i32_0 = arith.constant 4096 : i32 loc(#loc1)
    %0 = arith.muli %c4096_i32_0, %arg11 : i32 loc(#loc1)
    %c128_i32 = arith.constant 128 : i32 loc(#loc2)
    %c4096_i32_1 = arith.constant 4096 : i32 loc(#loc2)
    %c1_i32 = arith.constant 1 : i32 loc(#loc2)
    %c1_i32_2 = arith.constant 1 : i32 loc(#loc3)
    %1 = arith.cmpi sge, %c1_i32_2, %arg11 : i32 loc(#loc3)
    %c1_i32_3 = arith.constant 1 : i32 loc(#loc4)
    %c1_i32_4 = arith.constant 1 : i32 loc(#loc4)
    %2 = arith.extui %1 : i1 to i32 loc(#loc4)
    %3 = arith.muli %c1_i32_4, %2 : i32 loc(#loc4)
    %c1_i32_5 = arith.constant 1 : i32 loc(#loc5)
    %4 = arith.cmpi sgt, %arg11, %c1_i32_5 : i32 loc(#loc5)
    %5 = arith.extui %4 : i1 to i32 loc(#loc6)
    %6 = arith.muli %arg11, %5 : i32 loc(#loc6)
    %7 = arith.addi %3, %6 : i32 loc(#loc7)
    %c1024_i32 = arith.constant 1024 : i32 loc(#loc8)
    %c1024_i32_6 = arith.constant 1024 : i32 loc(#loc8)
    %8 = arith.muli %c1024_i32_6, %7 : i32 loc(#loc8)
    %c128_i32_7 = arith.constant 128 : i32 loc(#loc9)
    %c1024_i32_8 = arith.constant 1024 : i32 loc(#loc9)
    %c1_i32_9 = arith.constant 1 : i32 loc(#loc9)
    %c1024_i32_10 = arith.constant 1024 : i32 loc(#loc10)
    %c1024_i32_11 = arith.constant 1024 : i32 loc(#loc10)
    %9 = arith.muli %c1024_i32_11, %arg11 : i32 loc(#loc10)
    %c128_i32_12 = arith.constant 128 : i32 loc(#loc11)
    %c1024_i32_13 = arith.constant 1024 : i32 loc(#loc11)
    %c1_i32_14 = arith.constant 1 : i32 loc(#loc11)
    %c1_i32_15 = arith.constant 1 : i32 loc(#loc12)
    %c32_i32 = arith.constant 32 : i32 loc(#loc13)
    %c1_i32_16 = arith.constant 1 : i32 loc(#loc14)
    %10 = tt.get_program_id x : i32 loc(#loc15)
    %11 = tt.get_program_id y : i32 loc(#loc16)
    %12 = tt.get_program_id z : i32 loc(#loc17)
    %13 = arith.remsi %11, %c1_i32_16 : i32 loc(#loc18)
    %c4_i32 = arith.constant 4 : i32 loc(#loc19)
    %c4_i32_17 = arith.constant 4 : i32 loc(#loc19)
    %14 = arith.divsi %12, %c4_i32_17 : i32 loc(#loc19)
    %c4_i32_18 = arith.constant 4 : i32 loc(#loc20)
    %c4_i32_19 = arith.constant 4 : i32 loc(#loc20)
    %15 = arith.remsi %12, %c4_i32_19 : i32 loc(#loc20)
    %16 = arith.muli %11, %0 : i32 loc(#loc21)
    %17 = arith.muli %12, %c128_i32 : i32 loc(#loc22)
    %18 = arith.addi %16, %17 : i32 loc(#loc23)
    %19 = arith.muli %13, %8 : i32 loc(#loc24)
    %20 = arith.muli %14, %c128_i32_7 : i32 loc(#loc25)
    %21 = arith.addi %19, %20 : i32 loc(#loc26)
    %22 = arith.muli %13, %9 : i32 loc(#loc27)
    %23 = arith.muli %14, %c128_i32_12 : i32 loc(#loc28)
    %24 = arith.addi %22, %23 : i32 loc(#loc29)
    %25 = tt.addptr %arg0, %18 : !tt.ptr<bf16>, i32 loc(#loc30)
    %26 = tt.addptr %arg1, %21 : !tt.ptr<bf16>, i32 loc(#loc31)
    %27 = tt.addptr %arg2, %24 : !tt.ptr<bf16>, i32 loc(#loc32)
    %c1_i32_20 = arith.constant 1 : i32 loc(#loc33)
    %c1_i32_21 = arith.constant 1 : i32 loc(#loc34)
    %28 = arith.remsi %11, %c1_i32_20 : i32 loc(#loc35)
    %29 = arith.remsi %12, %c1_i32_21 : i32 loc(#loc36)
    %30 = arith.muli %arg13, %arg14 : i32 loc(#loc37)
    %31 = tt.call @"triton.language.standard.zeros____(0, 0)cconstexpr_128__(1,)cconstexpr_fp32_"() : () -> tensor<128xf32> loc(#loc38)
    %cst = arith.constant 0x7F800000 : f32 loc(#loc39)
    %cst_22 = arith.constant 0x7F800000 : f32 loc(#loc39)
    %cst_23 = arith.constant dense<0x7F800000> : tensor<128xf32> loc(#loc39)
    %32 = arith.subf %31, %cst_23 : tensor<128xf32> loc(#loc39)
    %33 = tt.call @"triton.language.standard.zeros____(0, 0)cconstexpr_128__(1,)cconstexpr_fp32_"() : () -> tensor<128xf32> loc(#loc40)
    %34 = tt.call @"triton.language.standard.zeros____(0, 0)cconstexpr_128__(0, 1)cconstexpr_128__(1,)cconstexpr_fp32_"() : () -> tensor<128x128xf32> loc(#loc41)
    %c128_i32_24 = arith.constant 128 : i32 loc(#loc42)
    %c128_i32_25 = arith.constant 128 : i32 loc(#loc42)
    %35 = arith.muli %10, %c128_i32_25 : i32 loc(#loc42)
    %36 = tt.make_range {end = 128 : i32, start = 0 : i32} : tensor<128xi32> loc(#loc43)
    %37 = tt.splat %35 : i32 -> tensor<128xi32> loc(#loc44)
    %38 = arith.addi %37, %36 : tensor<128xi32> loc(#loc44)
    %39 = arith.muli %28, %c1_i32_21 : i32 loc(#loc45)
    %40 = arith.addi %39, %29 : i32 loc(#loc46)
    %41 = arith.muli %40, %arg12 : i32 loc(#loc47)
    %c1_i32_26 = arith.constant 1 : i32 loc(#loc48)
    %c1_i32_27 = arith.constant 1 : i32 loc(#loc48)
    %42 = arith.divsi %10, %c1_i32_27 : i32 loc(#loc48)
    %43 = arith.addi %41, %42 : i32 loc(#loc49)
    %44 = arith.muli %40, %30 : i32 loc(#loc50)
    %c1_i32_28 = arith.constant 1 : i32 loc(#loc51)
    %c1_i32_29 = arith.constant 1 : i32 loc(#loc51)
    %45 = arith.divsi %10, %c1_i32_29 : i32 loc(#loc51)
    %46 = arith.muli %45, %arg13 : i32 loc(#loc52)
    %47 = arith.addi %44, %46 : i32 loc(#loc53)
    %c128_i32_30 = arith.constant 128 : i32 loc(#loc54)
    %c128_i32_31 = arith.constant 128 : i32 loc(#loc54)
    %48 = arith.muli %10, %c128_i32_31 : i32 loc(#loc54)
    %49 = arith.extsi %arg11 : i32 to i64 loc(#loc55)
    %c128_i64 = arith.constant 128 : i64 loc(#loc55)
    %50 = arith.extsi %c4096_i32_1 : i32 to i64 loc(#loc55)
    %51 = arith.extsi %c1_i32 : i32 to i64 loc(#loc55)
    %c0_i32 = arith.constant 0 : i32 loc(#loc55)
    %52 = tt.make_tensor_ptr %25, [%49, %c128_i64], [%50, %51], [%48, %c0_i32] {order = array<i32: 1, 0>} : <tensor<128x128xbf16>> loc(#loc55)
    %53 = tt.call @"torch._inductor.runtime.compile_tasks.c75kq5wxnpekebh5gvgkjr6rffk6ub47rqvknmtvenmyhq2jxbt2.load_checked_block__Pbf16S128_128S__(1,)cconstexpr_False__(2,)cconstexpr_True_"(%52) : (!tt.ptr<tensor<128x128xbf16>>) -> tensor<128x128xbf16> loc(#loc56)
    %54 = tt.addptr %arg5, %47 : !tt.ptr<i32>, i32 loc(#loc57)
    %55 = tt.load %54 : !tt.ptr<i32> loc(#loc58)
    %c128_i32_32 = arith.constant 128 : i32 loc(#loc59)
    %c128_i32_33 = arith.constant 128 : i32 loc(#loc59)
    %56 = arith.muli %55, %c128_i32_33 : i32 loc(#loc59)
    %57 = tt.addptr %arg4, %43 : !tt.ptr<i32>, i32 loc(#loc60)
    %58 = tt.load %57 : !tt.ptr<i32> loc(#loc61)
    %c2_i32 = arith.constant 2 : i32 loc(#loc62)
    %c2_i32_34 = arith.constant 2 : i32 loc(#loc62)
    %59 = arith.muli %58, %c2_i32_34 : i32 loc(#loc62)
    %60 = tt.call @"triton.language.standard.cdiv__i32__(1,)cconstexpr_64_"(%arg11) : (i32) -> i32 loc(#loc63)
    %c1_i32_35 = arith.constant 1 : i32 loc(#loc64)
    %61 = arith.maxsi %60, %c1_i32_35 : i32 loc(#loc64)
    %62 = arith.minsi %59, %61 : i32 loc(#loc65)
    %c128_i64_36 = arith.constant 128 : i64 loc(#loc66)
    %63 = arith.extsi %arg11 : i32 to i64 loc(#loc66)
    %64 = arith.extsi %c1_i32_9 : i32 to i64 loc(#loc66)
    %65 = arith.extsi %c1024_i32_8 : i32 to i64 loc(#loc66)
    %c0_i32_37 = arith.constant 0 : i32 loc(#loc66)
    %66 = tt.make_tensor_ptr %26, [%c128_i64_36, %63], [%64, %65], [%c0_i32_37, %56] {order = array<i32: 0, 1>} : <tensor<128x64xbf16>> loc(#loc66)
    %67 = arith.extsi %arg11 : i32 to i64 loc(#loc67)
    %c128_i64_38 = arith.constant 128 : i64 loc(#loc67)
    %68 = arith.extsi %c1024_i32_13 : i32 to i64 loc(#loc67)
    %69 = arith.extsi %c1_i32_14 : i32 to i64 loc(#loc67)
    %c0_i32_39 = arith.constant 0 : i32 loc(#loc67)
    %70 = tt.make_tensor_ptr %27, [%67, %c128_i64_38], [%68, %69], [%56, %c0_i32_39] {order = array<i32: 1, 0>} : <tensor<64x128xbf16>> loc(#loc67)
    %71 = tt.make_range {end = 64 : i32, start = 0 : i32} : tensor<64xi32> loc(#loc68)
    %72 = tt.splat %56 : i32 -> tensor<64xi32> loc(#loc69)
    %73 = arith.addi %72, %71 : tensor<64xi32> loc(#loc69)
    %74 = tt.expand_dims %38 {axis = 1 : i32} : tensor<128xi32> -> tensor<128x1xi32> loc(#loc70)
    %75 = tt.expand_dims %73 {axis = 0 : i32} : tensor<64xi32> -> tensor<1x64xi32> loc(#loc71)
    %76:3 = tt.call @"torch._inductor.runtime.compile_tasks.c75kq5wxnpekebh5gvgkjr6rffk6ub47rqvknmtvenmyhq2jxbt2.forward_inner__Pbf16_Pbf16_Pbf16_Pfp32_Pi32_Pi32_Pi32_Pi32_Pi64_Pu1_Pbf16_i32_i32_i32_i32_i32_bf16S128_128S_Pbf16S128_64S_Pbf16S64_128S_i32_i32_fp32S128_128S_fp32S128S_fp32S128S_i32_i32_i32S128_1S_i32S1_64S_i32_Pi32_i32_i32__(19,)cNone_(20,)cNone_(33,)cconstexpr_0__(35,)cconstexpr_bf16__(36,)cconstexpr_False_"(%arg0, %arg1, %arg2, %arg3, %arg4, %arg5, %arg6, %arg7, %arg8, %arg9, %arg10, %arg11, %arg12, %arg13, %arg14, %arg15, %53, %66, %70, %arg11, %arg11, %34, %33, %32, %11, %12, %74, %75, %56, %54, %58, %62) : (!tt.ptr<bf16>, !tt.ptr<bf16>, !tt.ptr<bf16>, !tt.ptr<f32>, !tt.ptr<i32>, !tt.ptr<i32>, !tt.ptr<i32>, !tt.ptr<i32>, !tt.ptr<i64>, !tt.ptr<i1>, !tt.ptr<bf16>, i32, i32, i32, i32, i32, tensor<128x128xbf16>, !tt.ptr<tensor<128x64xbf16>>, !tt.ptr<tensor<64x128xbf16>>, i32, i32, tensor<128x128xf32>, tensor<128xf32>, tensor<128xf32>, i32, i32, tensor<128x1xi32>, tensor<1x64xi32>, i32, !tt.ptr<i32>, i32, i32) -> (tensor<128x128xf32>, tensor<128xf32>, tensor<128xf32>) loc(#loc72)
    %77 = tt.addptr %arg7, %47 : !tt.ptr<i32>, i32 loc(#loc73)
    %78 = tt.load %77 : !tt.ptr<i32> loc(#loc74)
    %c128_i32_40 = arith.constant 128 : i32 loc(#loc75)
    %c128_i32_41 = arith.constant 128 : i32 loc(#loc75)
    %79 = arith.muli %78, %c128_i32_41 : i32 loc(#loc75)
    %80 = tt.addptr %arg6, %43 : !tt.ptr<i32>, i32 loc(#loc76)
    %81 = tt.load %80 : !tt.ptr<i32> loc(#loc77)
    %c2_i32_42 = arith.constant 2 : i32 loc(#loc78)
    %c2_i32_43 = arith.constant 2 : i32 loc(#loc78)
    %82 = arith.muli %81, %c2_i32_43 : i32 loc(#loc78)
    %83 = tt.call @"triton.language.standard.cdiv__i32__(1,)cconstexpr_64_"(%arg11) : (i32) -> i32 loc(#loc79)
    %c1_i32_44 = arith.constant 1 : i32 loc(#loc80)
    %84 = arith.maxsi %83, %c1_i32_44 : i32 loc(#loc80)
    %85 = arith.minsi %82, %84 : i32 loc(#loc81)
    %c128_i64_45 = arith.constant 128 : i64 loc(#loc82)
    %86 = arith.extsi %arg11 : i32 to i64 loc(#loc82)
    %87 = arith.extsi %c1_i32_9 : i32 to i64 loc(#loc82)
    %88 = arith.extsi %c1024_i32_8 : i32 to i64 loc(#loc82)
    %c0_i32_46 = arith.constant 0 : i32 loc(#loc82)
    %89 = tt.make_tensor_ptr %26, [%c128_i64_45, %86], [%87, %88], [%c0_i32_46, %79] {order = array<i32: 0, 1>} : <tensor<128x64xbf16>> loc(#loc82)
    %90 = arith.extsi %arg11 : i32 to i64 loc(#loc83)
    %c128_i64_47 = arith.constant 128 : i64 loc(#loc83)
    %91 = arith.extsi %c1024_i32_13 : i32 to i64 loc(#loc83)
    %92 = arith.extsi %c1_i32_14 : i32 to i64 loc(#loc83)
    %c0_i32_48 = arith.constant 0 : i32 loc(#loc83)
    %93 = tt.make_tensor_ptr %27, [%90, %c128_i64_47], [%91, %92], [%79, %c0_i32_48] {order = array<i32: 1, 0>} : <tensor<64x128xbf16>> loc(#loc83)
    %94 = tt.make_range {end = 64 : i32, start = 0 : i32} : tensor<64xi32> loc(#loc84)
    %95 = tt.splat %79 : i32 -> tensor<64xi32> loc(#loc85)
    %96 = arith.addi %95, %94 : tensor<64xi32> loc(#loc85)
    %97 = tt.expand_dims %38 {axis = 1 : i32} : tensor<128xi32> -> tensor<128x1xi32> loc(#loc86)
    %98 = tt.expand_dims %96 {axis = 0 : i32} : tensor<64xi32> -> tensor<1x64xi32> loc(#loc87)
    %99:3 = tt.call @"torch._inductor.runtime.compile_tasks.c75kq5wxnpekebh5gvgkjr6rffk6ub47rqvknmtvenmyhq2jxbt2.forward_inner__Pbf16_Pbf16_Pbf16_Pfp32_Pi32_Pi32_Pi32_Pi32_Pi64_Pu1_Pbf16_i32_i32_i32_i32_i32_bf16S128_128S_Pbf16S128_64S_Pbf16S64_128S_i32_i32_fp32S128_128S_fp32S128S_fp32S128S_i32_i32_i32S128_1S_i32S1_64S_i32_Pi32_i32_i32__(19,)cNone_(20,)cNone_(33,)cconstexpr_0__(35,)cconstexpr_bf16__(36,)cconstexpr_True_"(%arg0, %arg1, %arg2, %arg3, %arg4, %arg5, %arg6, %arg7, %arg8, %arg9, %arg10, %arg11, %arg12, %arg13, %arg14, %arg15, %53, %89, %93, %arg11, %arg11, %76#0, %76#1, %76#2, %11, %12, %97, %98, %79, %77, %81, %85) : (!tt.ptr<bf16>, !tt.ptr<bf16>, !tt.ptr<bf16>, !tt.ptr<f32>, !tt.ptr<i32>, !tt.ptr<i32>, !tt.ptr<i32>, !tt.ptr<i32>, !tt.ptr<i64>, !tt.ptr<i1>, !tt.ptr<bf16>, i32, i32, i32, i32, i32, tensor<128x128xbf16>, !tt.ptr<tensor<128x64xbf16>>, !tt.ptr<tensor<64x128xbf16>>, i32, i32, tensor<128x128xf32>, tensor<128xf32>, tensor<128xf32>, i32, i32, tensor<128x1xi32>, tensor<1x64xi32>, i32, !tt.ptr<i32>, i32, i32) -> (tensor<128x128xf32>, tensor<128xf32>, tensor<128xf32>) loc(#loc88)
    %cst_49 = arith.constant 0.000000e+00 : f32 loc(#loc89)
    %cst_50 = arith.constant dense<0.000000e+00> : tensor<128xf32> loc(#loc89)
    %100 = arith.cmpf oeq, %99#1, %cst_50 : tensor<128xf32> loc(#loc89)
    %c1_i32_51 = arith.constant 1 : i32 loc(#loc90)
    %cst_52 = arith.constant 1.000000e+00 : f32 loc(#loc90)
    %cst_53 = arith.constant dense<1.000000e+00> : tensor<128xf32> loc(#loc90)
    %101 = arith.select %100, %cst_53, %99#1 : tensor<128xi1>, tensor<128xf32> loc(#loc90)
    %102 = tt.expand_dims %101 {axis = 1 : i32} : tensor<128xf32> -> tensor<128x1xf32> loc(#loc91)
    %103 = tt.broadcast %102 : tensor<128x1xf32> -> tensor<128x128xf32> loc(#loc92)
    %104 = arith.divf %99#0, %103 : tensor<128x128xf32> loc(#loc92)
    %105 = tt.get_program_id y : i32 loc(#loc93)
    %106 = tt.get_program_id z : i32 loc(#loc94)
    %107 = tt.expand_dims %38 {axis = 1 : i32} : tensor<128xi32> -> tensor<128x1xi32> loc(#loc95)
    %108 = tt.make_range {end = 128 : i32, start = 0 : i32} : tensor<128xi32> loc(#loc96)
    %109 = tt.expand_dims %108 {axis = 0 : i32} : tensor<128xi32> -> tensor<1x128xi32> loc(#loc97)
    %110 = tt.splat %arg11 : i32 -> tensor<128x1xi32> loc(#loc98)
    %111 = arith.cmpi slt, %107, %110 : tensor<128x1xi32> loc(#loc98)
    %c128_i32_54 = arith.constant 128 : i32 loc(#loc99)
    %cst_55 = arith.constant dense<128> : tensor<1x128xi32> loc(#loc99)
    %112 = arith.cmpi slt, %109, %cst_55 : tensor<1x128xi32> loc(#loc99)
    %113 = tt.broadcast %111 : tensor<128x1xi1> -> tensor<128x128xi1> loc(#loc100)
    %114 = tt.broadcast %112 : tensor<1x128xi1> -> tensor<128x128xi1> loc(#loc100)
    %115 = arith.andi %113, %114 : tensor<128x128xi1> loc(#loc100)
    %c128_i32_56 = arith.constant 128 : i32 loc(#loc101)
    %c128_i32_57 = arith.constant 128 : i32 loc(#loc101)
    %cst_58 = arith.constant dense<128> : tensor<128x1xi32> loc(#loc101)
    %116 = arith.muli %cst_58, %107 : tensor<128x1xi32> loc(#loc101)
    %117 = tt.broadcast %109 : tensor<1x128xi32> -> tensor<128x128xi32> loc(#loc102)
    %118 = tt.broadcast %116 : tensor<128x1xi32> -> tensor<128x128xi32> loc(#loc102)
    %119 = arith.addi %117, %118 : tensor<128x128xi32> loc(#loc102)
    %c128_i32_59 = arith.constant 128 : i32 loc(#loc103)
    %c128_i32_60 = arith.constant 128 : i32 loc(#loc103)
    %120 = arith.muli %c128_i32_60, %106 : i32 loc(#loc103)
    %121 = arith.muli %120, %arg11 : i32 loc(#loc104)
    %122 = tt.splat %121 : i32 -> tensor<128x128xi32> loc(#loc105)
    %123 = arith.addi %119, %122 : tensor<128x128xi32> loc(#loc105)
    %c4096_i32_61 = arith.constant 4096 : i32 loc(#loc106)
    %c4096_i32_62 = arith.constant 4096 : i32 loc(#loc106)
    %124 = arith.muli %c4096_i32_62, %105 : i32 loc(#loc106)
    %125 = arith.muli %124, %arg11 : i32 loc(#loc107)
    %126 = tt.splat %125 : i32 -> tensor<128x128xi32> loc(#loc108)
    %127 = arith.addi %123, %126 : tensor<128x128xi32> loc(#loc108)
    %c128_i32_63 = arith.constant 128 : i32 loc(#loc109)
    %c128_i32_64 = arith.constant 128 : i32 loc(#loc109)
    %cst_65 = arith.constant dense<128> : tensor<128x1xi32> loc(#loc109)
    %128 = arith.muli %cst_65, %107 : tensor<128x1xi32> loc(#loc109)
    %129 = tt.broadcast %109 : tensor<1x128xi32> -> tensor<128x128xi32> loc(#loc110)
    %130 = tt.broadcast %128 : tensor<128x1xi32> -> tensor<128x128xi32> loc(#loc110)
    %131 = arith.addi %129, %130 : tensor<128x128xi32> loc(#loc110)
    %c128_i32_66 = arith.constant 128 : i32 loc(#loc111)
    %c128_i32_67 = arith.constant 128 : i32 loc(#loc111)
    %132 = arith.muli %c128_i32_67, %106 : i32 loc(#loc111)
    %133 = arith.muli %132, %arg11 : i32 loc(#loc112)
    %134 = tt.splat %133 : i32 -> tensor<128x128xi32> loc(#loc113)
    %135 = arith.addi %131, %134 : tensor<128x128xi32> loc(#loc113)
    %136 = tt.splat %arg10 : !tt.ptr<bf16> -> tensor<128x128x!tt.ptr<bf16>> loc(#loc114)
    %137 = tt.addptr %136, %135 : tensor<128x128x!tt.ptr<bf16>>, tensor<128x128xi32> loc(#loc114)
    %138 = arith.truncf %104 : tensor<128x128xf32> to tensor<128x128xbf16> loc(#loc115)
    tt.store %137, %138, %115 : tensor<128x128x!tt.ptr<bf16>> loc(#loc115)
    %139 = arith.muli %11, %c32_i32 : i32 loc(#loc116)
    %140 = arith.addi %139, %12 : i32 loc(#loc117)
    %141 = arith.muli %140, %arg11 : i32 loc(#loc118)
    %142 = tt.addptr %arg3, %141 : !tt.ptr<f32>, i32 loc(#loc119)
    %143 = tt.splat %142 : !tt.ptr<f32> -> tensor<128x!tt.ptr<f32>> loc(#loc120)
    %144 = tt.addptr %143, %38 : tensor<128x!tt.ptr<f32>>, tensor<128xi32> loc(#loc120)
    %145 = math.log2 %101 : tensor<128xf32> loc(#loc121)
    %146 = arith.addf %99#2, %145 : tensor<128xf32> loc(#loc122)
    %147 = tt.splat %arg11 : i32 -> tensor<128xi32> loc(#loc123)
    %148 = arith.cmpi slt, %38, %147 : tensor<128xi32> loc(#loc123)
    tt.store %144, %146, %148 : tensor<128x!tt.ptr<f32>> loc(#loc124)
    tt.return loc(#loc125)
  } loc(#loc)
  tt.func private @"triton.language.standard.zeros____(0, 0)cconstexpr_128__(1,)cconstexpr_fp32_"() -> tensor<128xf32> attributes {noinline = false} {
    %cst = arith.constant 0.000000e+00 : f32 loc(#loc127)
    %cst_0 = arith.constant dense<0.000000e+00> : tensor<128xf32> loc(#loc127)
    tt.return %cst_0 : tensor<128xf32> loc(#loc128)
  ^bb1:  // no predecessors
    %0 = ub.poison : tensor<128xf32> loc(#loc129)
    tt.return %0 : tensor<128xf32> loc(#loc129)
  } loc(#loc126)
  tt.func private @"triton.language.standard.zeros____(0, 0)cconstexpr_128__(0, 1)cconstexpr_128__(1,)cconstexpr_fp32_"() -> tensor<128x128xf32> attributes {noinline = false} {
    %cst = arith.constant 0.000000e+00 : f32 loc(#loc127)
    %cst_0 = arith.constant dense<0.000000e+00> : tensor<128x128xf32> loc(#loc127)
    tt.return %cst_0 : tensor<128x128xf32> loc(#loc128)
  ^bb1:  // no predecessors
    %0 = ub.poison : tensor<128x128xf32> loc(#loc129)
    tt.return %0 : tensor<128x128xf32> loc(#loc129)
  } loc(#loc126)
  tt.func private @"torch._inductor.runtime.compile_tasks.c75kq5wxnpekebh5gvgkjr6rffk6ub47rqvknmtvenmyhq2jxbt2.load_checked_block__Pbf16S128_128S__(1,)cconstexpr_False__(2,)cconstexpr_True_"(%arg0: !tt.ptr<tensor<128x128xbf16>> loc("/tmp/torchinductor_jovyan/75/c75kq5wxnpekebh5gvgkjr6rffk6ub47rqvknmtvenmyhq2jxbt2.py":502:0)) -> tensor<128x128xbf16> attributes {noinline = false} {
    %0 = tt.load %arg0 {boundaryCheck = array<i32: 0>, padding = 1 : i32} : !tt.ptr<tensor<128x128xbf16>> loc(#loc131)
    tt.return %0 : tensor<128x128xbf16> loc(#loc132)
  ^bb1:  // no predecessors
    %1 = ub.poison : tensor<128x128xbf16> loc(#loc133)
    tt.return %1 : tensor<128x128xbf16> loc(#loc133)
  } loc(#loc130)
  tt.func private @"triton.language.standard.cdiv__i32__(1,)cconstexpr_64_"(%arg0: i32 loc("/home/jovyan/intel-xpu-backend-for-triton/python/triton/language/standard.py":31:0)) -> i32 attributes {noinline = false} {
    %c64_i32 = arith.constant 64 : i32 loc(#loc135)
    %c64_i32_0 = arith.constant 64 : i32 loc(#loc135)
    %0 = arith.addi %arg0, %c64_i32_0 : i32 loc(#loc135)
    %c1_i32 = arith.constant 1 : i32 loc(#loc136)
    %c1_i32_1 = arith.constant 1 : i32 loc(#loc136)
    %1 = arith.subi %0, %c1_i32_1 : i32 loc(#loc136)
    %c64_i32_2 = arith.constant 64 : i32 loc(#loc137)
    %c64_i32_3 = arith.constant 64 : i32 loc(#loc137)
    %2 = arith.divsi %1, %c64_i32_3 : i32 loc(#loc137)
    tt.return %2 : i32 loc(#loc138)
  ^bb1:  // no predecessors
    %3 = ub.poison : i32 loc(#loc139)
    tt.return %3 : i32 loc(#loc139)
  } loc(#loc134)
  tt.func private @"torch._inductor.runtime.compile_tasks.c75kq5wxnpekebh5gvgkjr6rffk6ub47rqvknmtvenmyhq2jxbt2.forward_inner__Pbf16_Pbf16_Pbf16_Pfp32_Pi32_Pi32_Pi32_Pi32_Pi64_Pu1_Pbf16_i32_i32_i32_i32_i32_bf16S128_128S_Pbf16S128_64S_Pbf16S64_128S_i32_i32_fp32S128_128S_fp32S128S_fp32S128S_i32_i32_i32S128_1S_i32S1_64S_i32_Pi32_i32_i32__(19,)cNone_(20,)cNone_(33,)cconstexpr_0__(35,)cconstexpr_bf16__(36,)cconstexpr_False_"(%arg0: !tt.ptr<bf16> loc("/tmp/torchinductor_jovyan/75/c75kq5wxnpekebh5gvgkjr6rffk6ub47rqvknmtvenmyhq2jxbt2.py":270:0), %arg1: !tt.ptr<bf16> loc("/tmp/torchinductor_jovyan/75/c75kq5wxnpekebh5gvgkjr6rffk6ub47rqvknmtvenmyhq2jxbt2.py":270:0), %arg2: !tt.ptr<bf16> loc("/tmp/torchinductor_jovyan/75/c75kq5wxnpekebh5gvgkjr6rffk6ub47rqvknmtvenmyhq2jxbt2.py":270:0), %arg3: !tt.ptr<f32> loc("/tmp/torchinductor_jovyan/75/c75kq5wxnpekebh5gvgkjr6rffk6ub47rqvknmtvenmyhq2jxbt2.py":270:0), %arg4: !tt.ptr<i32> loc("/tmp/torchinductor_jovyan/75/c75kq5wxnpekebh5gvgkjr6rffk6ub47rqvknmtvenmyhq2jxbt2.py":270:0), %arg5: !tt.ptr<i32> loc("/tmp/torchinductor_jovyan/75/c75kq5wxnpekebh5gvgkjr6rffk6ub47rqvknmtvenmyhq2jxbt2.py":270:0), %arg6: !tt.ptr<i32> loc("/tmp/torchinductor_jovyan/75/c75kq5wxnpekebh5gvgkjr6rffk6ub47rqvknmtvenmyhq2jxbt2.py":270:0), %arg7: !tt.ptr<i32> loc("/tmp/torchinductor_jovyan/75/c75kq5wxnpekebh5gvgkjr6rffk6ub47rqvknmtvenmyhq2jxbt2.py":270:0), %arg8: !tt.ptr<i64> loc("/tmp/torchinductor_jovyan/75/c75kq5wxnpekebh5gvgkjr6rffk6ub47rqvknmtvenmyhq2jxbt2.py":270:0), %arg9: !tt.ptr<i1> loc("/tmp/torchinductor_jovyan/75/c75kq5wxnpekebh5gvgkjr6rffk6ub47rqvknmtvenmyhq2jxbt2.py":270:0), %arg10: !tt.ptr<bf16> loc("/tmp/torchinductor_jovyan/75/c75kq5wxnpekebh5gvgkjr6rffk6ub47rqvknmtvenmyhq2jxbt2.py":270:0), %arg11: i32 loc("/tmp/torchinductor_jovyan/75/c75kq5wxnpekebh5gvgkjr6rffk6ub47rqvknmtvenmyhq2jxbt2.py":270:0), %arg12: i32 loc("/tmp/torchinductor_jovyan/75/c75kq5wxnpekebh5gvgkjr6rffk6ub47rqvknmtvenmyhq2jxbt2.py":270:0), %arg13: i32 loc("/tmp/torchinductor_jovyan/75/c75kq5wxnpekebh5gvgkjr6rffk6ub47rqvknmtvenmyhq2jxbt2.py":270:0), %arg14: i32 loc("/tmp/torchinductor_jovyan/75/c75kq5wxnpekebh5gvgkjr6rffk6ub47rqvknmtvenmyhq2jxbt2.py":270:0), %arg15: i32 loc("/tmp/torchinductor_jovyan/75/c75kq5wxnpekebh5gvgkjr6rffk6ub47rqvknmtvenmyhq2jxbt2.py":270:0), %arg16: tensor<128x128xbf16> loc("/tmp/torchinductor_jovyan/75/c75kq5wxnpekebh5gvgkjr6rffk6ub47rqvknmtvenmyhq2jxbt2.py":270:0), %arg17: !tt.ptr<tensor<128x64xbf16>> loc("/tmp/torchinductor_jovyan/75/c75kq5wxnpekebh5gvgkjr6rffk6ub47rqvknmtvenmyhq2jxbt2.py":270:0), %arg18: !tt.ptr<tensor<64x128xbf16>> loc("/tmp/torchinductor_jovyan/75/c75kq5wxnpekebh5gvgkjr6rffk6ub47rqvknmtvenmyhq2jxbt2.py":270:0), %arg19: i32 loc("/tmp/torchinductor_jovyan/75/c75kq5wxnpekebh5gvgkjr6rffk6ub47rqvknmtvenmyhq2jxbt2.py":270:0), %arg20: i32 loc("/tmp/torchinductor_jovyan/75/c75kq5wxnpekebh5gvgkjr6rffk6ub47rqvknmtvenmyhq2jxbt2.py":270:0), %arg21: tensor<128x128xf32> loc("/tmp/torchinductor_jovyan/75/c75kq5wxnpekebh5gvgkjr6rffk6ub47rqvknmtvenmyhq2jxbt2.py":270:0), %arg22: tensor<128xf32> loc("/tmp/torchinductor_jovyan/75/c75kq5wxnpekebh5gvgkjr6rffk6ub47rqvknmtvenmyhq2jxbt2.py":270:0), %arg23: tensor<128xf32> loc("/tmp/torchinductor_jovyan/75/c75kq5wxnpekebh5gvgkjr6rffk6ub47rqvknmtvenmyhq2jxbt2.py":270:0), %arg24: i32 loc("/tmp/torchinductor_jovyan/75/c75kq5wxnpekebh5gvgkjr6rffk6ub47rqvknmtvenmyhq2jxbt2.py":270:0), %arg25: i32 loc("/tmp/torchinductor_jovyan/75/c75kq5wxnpekebh5gvgkjr6rffk6ub47rqvknmtvenmyhq2jxbt2.py":270:0), %arg26: tensor<128x1xi32> loc("/tmp/torchinductor_jovyan/75/c75kq5wxnpekebh5gvgkjr6rffk6ub47rqvknmtvenmyhq2jxbt2.py":270:0), %arg27: tensor<1x64xi32> loc("/tmp/torchinductor_jovyan/75/c75kq5wxnpekebh5gvgkjr6rffk6ub47rqvknmtvenmyhq2jxbt2.py":270:0), %arg28: i32 loc("/tmp/torchinductor_jovyan/75/c75kq5wxnpekebh5gvgkjr6rffk6ub47rqvknmtvenmyhq2jxbt2.py":270:0), %arg29: !tt.ptr<i32> loc("/tmp/torchinductor_jovyan/75/c75kq5wxnpekebh5gvgkjr6rffk6ub47rqvknmtvenmyhq2jxbt2.py":270:0), %arg30: i32 loc("/tmp/torchinductor_jovyan/75/c75kq5wxnpekebh5gvgkjr6rffk6ub47rqvknmtvenmyhq2jxbt2.py":270:0), %arg31: i32 loc("/tmp/torchinductor_jovyan/75/c75kq5wxnpekebh5gvgkjr6rffk6ub47rqvknmtvenmyhq2jxbt2.py":270:0)) -> (tensor<128x128xf32>, tensor<128xf32>, tensor<128xf32>) attributes {noinline = false} {
    %c0_i32 = arith.constant 0 : i32 loc(#loc141)
    %c1_i32 = arith.constant 1 : i32 loc(#loc141)
    %0 = arith.bitcast %c0_i32 : i32 to i32 loc(#loc141)
    %1 = arith.bitcast %arg31 : i32 to i32 loc(#loc141)
    %2 = arith.bitcast %c1_i32 : i32 to i32 loc(#loc141)
    %3 = ub.poison : i32 loc(#loc141)
    %4:6 = scf.for %arg32 = %0 to %1 step %2 iter_args(%arg33 = %arg17, %arg34 = %arg18, %arg35 = %arg21, %arg36 = %arg22, %arg37 = %arg23, %arg38 = %arg27) -> (!tt.ptr<tensor<128x64xbf16>>, !tt.ptr<tensor<64x128xbf16>>, tensor<128x128xf32>, tensor<128xf32>, tensor<128xf32>, tensor<1x64xi32>)  : i32 {
      %8:3 = tt.call @"torch._inductor.runtime.compile_tasks.c75kq5wxnpekebh5gvgkjr6rffk6ub47rqvknmtvenmyhq2jxbt2.forward_block_mn__Pbf16_Pbf16_Pbf16_Pfp32_Pi32_Pi32_Pi32_Pi32_Pi64_Pu1_Pbf16_i32_i32_i32_i32_i32_bf16S128_128S_Pbf16S128_64S_Pbf16S64_128S_i32_i32_fp32S128_128S_fp32S128S_fp32S128S_i32_i32_i32S128_1S_i32S1_64S_i32_i32__(19,)cconstexpr_None__(20,)cconstexpr_None__(32,)cconstexpr_bf16__(33,)cconstexpr_1_d_44269504__(34,)cconstexpr_False__(35,)cconstexpr_True_"(%arg0, %arg1, %arg2, %arg3, %arg4, %arg5, %arg6, %arg7, %arg8, %arg9, %arg10, %arg11, %arg12, %arg13, %arg14, %arg15, %arg16, %arg33, %arg34, %arg19, %arg20, %arg35, %arg36, %arg37, %arg24, %arg25, %arg26, %arg38, %arg28, %arg32) : (!tt.ptr<bf16>, !tt.ptr<bf16>, !tt.ptr<bf16>, !tt.ptr<f32>, !tt.ptr<i32>, !tt.ptr<i32>, !tt.ptr<i32>, !tt.ptr<i32>, !tt.ptr<i64>, !tt.ptr<i1>, !tt.ptr<bf16>, i32, i32, i32, i32, i32, tensor<128x128xbf16>, !tt.ptr<tensor<128x64xbf16>>, !tt.ptr<tensor<64x128xbf16>>, i32, i32, tensor<128x128xf32>, tensor<128xf32>, tensor<128xf32>, i32, i32, tensor<128x1xi32>, tensor<1x64xi32>, i32, i32) -> (tensor<128x128xf32>, tensor<128xf32>, tensor<128xf32>) loc(#loc142)
      %9 = tt.call @"torch._inductor.runtime.compile_tasks.c75kq5wxnpekebh5gvgkjr6rffk6ub47rqvknmtvenmyhq2jxbt2.get_offset_for_next_block__i32_Pi32_i32__(3,)cconstexpr_128__(4,)cconstexpr_2__(5,)cconstexpr_64__(6,)cconstexpr_False_"(%arg32, %arg29, %arg30) : (i32, !tt.ptr<i32>, i32) -> i32 loc(#loc143)
      %10 = tt.splat %9 : i32 -> tensor<1x64xi32> loc(#loc144)
      %11 = arith.addi %arg38, %10 : tensor<1x64xi32> loc(#loc144)
      %c0_i32_0 = arith.constant 0 : i32 loc(#loc145)
      %12 = tt.advance %arg33, [%c0_i32_0, %9] : <tensor<128x64xbf16>> loc(#loc145)
      %c0_i32_1 = arith.constant 0 : i32 loc(#loc146)
      %13 = tt.advance %arg34, [%9, %c0_i32_1] : <tensor<64x128xbf16>> loc(#loc146)
      scf.yield %12, %13, %8#0, %8#1, %8#2, %11 : !tt.ptr<tensor<128x64xbf16>>, !tt.ptr<tensor<64x128xbf16>>, tensor<128x128xf32>, tensor<128xf32>, tensor<128xf32>, tensor<1x64xi32> loc(#loc147)
    } loc(#loc141)
    tt.return %4#2, %4#3, %4#4 : tensor<128x128xf32>, tensor<128xf32>, tensor<128xf32> loc(#loc148)
  ^bb1:  // no predecessors
    %5 = ub.poison : tensor<128x128xf32> loc(#loc149)
    %6 = ub.poison : tensor<128xf32> loc(#loc149)
    %7 = ub.poison : tensor<128xf32> loc(#loc149)
    tt.return %5, %6, %7 : tensor<128x128xf32>, tensor<128xf32>, tensor<128xf32> loc(#loc149)
  } loc(#loc140)
  tt.func private @"torch._inductor.runtime.compile_tasks.c75kq5wxnpekebh5gvgkjr6rffk6ub47rqvknmtvenmyhq2jxbt2.forward_block_mn__Pbf16_Pbf16_Pbf16_Pfp32_Pi32_Pi32_Pi32_Pi32_Pi64_Pu1_Pbf16_i32_i32_i32_i32_i32_bf16S128_128S_Pbf16S128_64S_Pbf16S64_128S_i32_i32_fp32S128_128S_fp32S128S_fp32S128S_i32_i32_i32S128_1S_i32S1_64S_i32_i32__(19,)cconstexpr_None__(20,)cconstexpr_None__(32,)cconstexpr_bf16__(33,)cconstexpr_1_d_44269504__(34,)cconstexpr_False__(35,)cconstexpr_True_"(%arg0: !tt.ptr<bf16> loc("/tmp/torchinductor_jovyan/75/c75kq5wxnpekebh5gvgkjr6rffk6ub47rqvknmtvenmyhq2jxbt2.py":386:0), %arg1: !tt.ptr<bf16> loc("/tmp/torchinductor_jovyan/75/c75kq5wxnpekebh5gvgkjr6rffk6ub47rqvknmtvenmyhq2jxbt2.py":386:0), %arg2: !tt.ptr<bf16> loc("/tmp/torchinductor_jovyan/75/c75kq5wxnpekebh5gvgkjr6rffk6ub47rqvknmtvenmyhq2jxbt2.py":386:0), %arg3: !tt.ptr<f32> loc("/tmp/torchinductor_jovyan/75/c75kq5wxnpekebh5gvgkjr6rffk6ub47rqvknmtvenmyhq2jxbt2.py":386:0), %arg4: !tt.ptr<i32> loc("/tmp/torchinductor_jovyan/75/c75kq5wxnpekebh5gvgkjr6rffk6ub47rqvknmtvenmyhq2jxbt2.py":386:0), %arg5: !tt.ptr<i32> loc("/tmp/torchinductor_jovyan/75/c75kq5wxnpekebh5gvgkjr6rffk6ub47rqvknmtvenmyhq2jxbt2.py":386:0), %arg6: !tt.ptr<i32> loc("/tmp/torchinductor_jovyan/75/c75kq5wxnpekebh5gvgkjr6rffk6ub47rqvknmtvenmyhq2jxbt2.py":386:0), %arg7: !tt.ptr<i32> loc("/tmp/torchinductor_jovyan/75/c75kq5wxnpekebh5gvgkjr6rffk6ub47rqvknmtvenmyhq2jxbt2.py":386:0), %arg8: !tt.ptr<i64> loc("/tmp/torchinductor_jovyan/75/c75kq5wxnpekebh5gvgkjr6rffk6ub47rqvknmtvenmyhq2jxbt2.py":386:0), %arg9: !tt.ptr<i1> loc("/tmp/torchinductor_jovyan/75/c75kq5wxnpekebh5gvgkjr6rffk6ub47rqvknmtvenmyhq2jxbt2.py":386:0), %arg10: !tt.ptr<bf16> loc("/tmp/torchinductor_jovyan/75/c75kq5wxnpekebh5gvgkjr6rffk6ub47rqvknmtvenmyhq2jxbt2.py":386:0), %arg11: i32 loc("/tmp/torchinductor_jovyan/75/c75kq5wxnpekebh5gvgkjr6rffk6ub47rqvknmtvenmyhq2jxbt2.py":386:0), %arg12: i32 loc("/tmp/torchinductor_jovyan/75/c75kq5wxnpekebh5gvgkjr6rffk6ub47rqvknmtvenmyhq2jxbt2.py":386:0), %arg13: i32 loc("/tmp/torchinductor_jovyan/75/c75kq5wxnpekebh5gvgkjr6rffk6ub47rqvknmtvenmyhq2jxbt2.py":386:0), %arg14: i32 loc("/tmp/torchinductor_jovyan/75/c75kq5wxnpekebh5gvgkjr6rffk6ub47rqvknmtvenmyhq2jxbt2.py":386:0), %arg15: i32 loc("/tmp/torchinductor_jovyan/75/c75kq5wxnpekebh5gvgkjr6rffk6ub47rqvknmtvenmyhq2jxbt2.py":386:0), %arg16: tensor<128x128xbf16> loc("/tmp/torchinductor_jovyan/75/c75kq5wxnpekebh5gvgkjr6rffk6ub47rqvknmtvenmyhq2jxbt2.py":386:0), %arg17: !tt.ptr<tensor<128x64xbf16>> loc("/tmp/torchinductor_jovyan/75/c75kq5wxnpekebh5gvgkjr6rffk6ub47rqvknmtvenmyhq2jxbt2.py":386:0), %arg18: !tt.ptr<tensor<64x128xbf16>> loc("/tmp/torchinductor_jovyan/75/c75kq5wxnpekebh5gvgkjr6rffk6ub47rqvknmtvenmyhq2jxbt2.py":386:0), %arg19: i32 loc("/tmp/torchinductor_jovyan/75/c75kq5wxnpekebh5gvgkjr6rffk6ub47rqvknmtvenmyhq2jxbt2.py":386:0), %arg20: i32 loc("/tmp/torchinductor_jovyan/75/c75kq5wxnpekebh5gvgkjr6rffk6ub47rqvknmtvenmyhq2jxbt2.py":386:0), %arg21: tensor<128x128xf32> loc("/tmp/torchinductor_jovyan/75/c75kq5wxnpekebh5gvgkjr6rffk6ub47rqvknmtvenmyhq2jxbt2.py":386:0), %arg22: tensor<128xf32> loc("/tmp/torchinductor_jovyan/75/c75kq5wxnpekebh5gvgkjr6rffk6ub47rqvknmtvenmyhq2jxbt2.py":386:0), %arg23: tensor<128xf32> loc("/tmp/torchinductor_jovyan/75/c75kq5wxnpekebh5gvgkjr6rffk6ub47rqvknmtvenmyhq2jxbt2.py":386:0), %arg24: i32 loc("/tmp/torchinductor_jovyan/75/c75kq5wxnpekebh5gvgkjr6rffk6ub47rqvknmtvenmyhq2jxbt2.py":386:0), %arg25: i32 loc("/tmp/torchinductor_jovyan/75/c75kq5wxnpekebh5gvgkjr6rffk6ub47rqvknmtvenmyhq2jxbt2.py":386:0), %arg26: tensor<128x1xi32> loc("/tmp/torchinductor_jovyan/75/c75kq5wxnpekebh5gvgkjr6rffk6ub47rqvknmtvenmyhq2jxbt2.py":386:0), %arg27: tensor<1x64xi32> loc("/tmp/torchinductor_jovyan/75/c75kq5wxnpekebh5gvgkjr6rffk6ub47rqvknmtvenmyhq2jxbt2.py":386:0), %arg28: i32 loc("/tmp/torchinductor_jovyan/75/c75kq5wxnpekebh5gvgkjr6rffk6ub47rqvknmtvenmyhq2jxbt2.py":386:0), %arg29: i32 loc("/tmp/torchinductor_jovyan/75/c75kq5wxnpekebh5gvgkjr6rffk6ub47rqvknmtvenmyhq2jxbt2.py":386:0)) -> (tensor<128x128xf32>, tensor<128xf32>, tensor<128xf32>) attributes {noinline = false} {
    %0 = tt.call @"torch._inductor.runtime.compile_tasks.c75kq5wxnpekebh5gvgkjr6rffk6ub47rqvknmtvenmyhq2jxbt2.load_checked_block__Pbf16S128_64S__(1,)cconstexpr_True__(2,)cconstexpr_False_"(%arg17) : (!tt.ptr<tensor<128x64xbf16>>) -> tensor<128x64xbf16> loc(#loc151)
    %cst = arith.constant 0.000000e+00 : f32 loc(#loc152)
    %cst_0 = arith.constant dense<0.000000e+00> : tensor<128x64xf32> loc(#loc152)
    %1 = tt.dot %arg16, %0, %cst_0 : tensor<128x128xbf16> * tensor<128x64xbf16> -> tensor<128x64xf32> loc(#loc152)
    %cst_1 = arith.constant 0.0883883461 : f32 loc(#loc153)
    %cst_2 = arith.constant 0.0883883461 : f32 loc(#loc153)
    %cst_3 = arith.constant dense<0.0883883461> : tensor<128x64xf32> loc(#loc153)
    %2 = arith.mulf %1, %cst_3 : tensor<128x64xf32> loc(#loc153)
    %3 = tt.call @torch._inductor.runtime.compile_tasks.c75kq5wxnpekebh5gvgkjr6rffk6ub47rqvknmtvenmyhq2jxbt2.get_bounded_indices__i32S128_1S_i32__(%arg26, %arg19) : (tensor<128x1xi32>, i32) -> tensor<128x1xi32> loc(#loc154)
    %4 = tt.call @torch._inductor.runtime.compile_tasks.c75kq5wxnpekebh5gvgkjr6rffk6ub47rqvknmtvenmyhq2jxbt2.get_bounded_indices__i32S1_64S_i32__(%arg27, %arg20) : (tensor<1x64xi32>, i32) -> tensor<1x64xi32> loc(#loc155)
    %5 = tt.splat %arg20 : i32 -> tensor<1x64xi32> loc(#loc156)
    %6 = arith.cmpi slt, %arg27, %5 : tensor<1x64xi32> loc(#loc156)
    %cst_4 = arith.constant 0xFF800000 : f32 loc(#loc157)
    %cst_5 = arith.constant 0xFF800000 : f32 loc(#loc157)
    %cst_6 = arith.constant dense<0xFF800000> : tensor<128x64xf32> loc(#loc157)
    %7 = tt.broadcast %6 : tensor<1x64xi1> -> tensor<128x64xi1> loc(#loc157)
    %8 = arith.select %7, %2, %cst_6 : tensor<128x64xi1>, tensor<128x64xf32> loc(#loc157)
    %true = arith.constant true loc(#loc158)
    %cst_7 = arith.constant dense<true> : tensor<1xi1> loc(#loc158)
    %9 = tt.splat %arg15 : i32 -> tensor<1x64xi32> loc(#loc159)
    %10 = arith.addi %4, %9 : tensor<1x64xi32> loc(#loc159)
    %11 = arith.extsi %10 : tensor<1x64xi32> to tensor<1x64xi64> loc(#loc160)
    %12 = arith.extsi %3 : tensor<128x1xi32> to tensor<128x1xi64> loc(#loc161)
    %c0_i32 = arith.constant 0 : i32 loc(#loc162)
    %13 = tt.addptr %arg8, %c0_i32 : !tt.ptr<i64>, i32 loc(#loc162)
    %14 = tt.load %13 : !tt.ptr<i64> loc(#loc163)
    %15 = tt.splat %14 : i64 -> tensor<128x1xi64> loc(#loc164)
    %16 = arith.addi %12, %15 : tensor<128x1xi64> loc(#loc164)
    %17 = tt.broadcast %11 : tensor<1x64xi64> -> tensor<128x64xi64> loc(#loc165)
    %18 = tt.broadcast %16 : tensor<128x1xi64> -> tensor<128x64xi64> loc(#loc165)
    %19 = arith.cmpi sle, %17, %18 : tensor<128x64xi64> loc(#loc165)
    %20 = tt.expand_dims %cst_7 {axis = 0 : i32} : tensor<1xi1> -> tensor<1x1xi1> loc(#loc166)
    %21 = tt.broadcast %20 : tensor<1x1xi1> -> tensor<128x64xi1> loc(#loc166)
    %22 = arith.andi %21, %19 : tensor<128x64xi1> loc(#loc166)
    %23 = tt.splat %arg9 : !tt.ptr<i1> -> tensor<1x64x!tt.ptr<i1>> loc(#loc167)
    %24 = tt.addptr %23, %10 : tensor<1x64x!tt.ptr<i1>>, tensor<1x64xi32> loc(#loc167)
    %25 = tt.bitcast %24 : tensor<1x64x!tt.ptr<i1>> -> tensor<1x64x!tt.ptr<i8>> loc(#loc168)
    %26 = tt.load %25 : tensor<1x64x!tt.ptr<i8>> loc(#loc168)
    %c0_i8 = arith.constant 0 : i8 loc(#loc168)
    %cst_8 = arith.constant dense<0> : tensor<1x64xi8> loc(#loc168)
    %27 = arith.cmpi ne, %26, %cst_8 : tensor<1x64xi8> loc(#loc168)
    %28 = tt.broadcast %27 : tensor<1x64xi1> -> tensor<128x64xi1> loc(#loc169)
    %29 = arith.andi %22, %28 : tensor<128x64xi1> loc(#loc169)
    %30 = tt.splat %arg20 : i32 -> tensor<1x64xi32> loc(#loc170)
    %31 = arith.cmpi slt, %arg27, %30 : tensor<1x64xi32> loc(#loc170)
    %false = arith.constant false loc(#loc171)
    %false_9 = arith.constant false loc(#loc171)
    %cst_10 = arith.constant dense<false> : tensor<128x64xi1> loc(#loc171)
    %32 = tt.broadcast %31 : tensor<1x64xi1> -> tensor<128x64xi1> loc(#loc171)
    %33 = arith.select %32, %29, %cst_10 : tensor<128x64xi1>, tensor<128x64xi1> loc(#loc171)
    %cst_11 = arith.constant 0xFF800000 : f32 loc(#loc172)
    %cst_12 = arith.constant 0xFF800000 : f32 loc(#loc172)
    %cst_13 = arith.constant dense<0xFF800000> : tensor<128x64xf32> loc(#loc172)
    %34 = arith.select %33, %8, %cst_13 : tensor<128x64xi1>, tensor<128x64xf32> loc(#loc172)
    %cst_14 = arith.constant 1.44269502 : f32 loc(#loc173)
    %cst_15 = arith.constant 1.44269502 : f32 loc(#loc173)
    %cst_16 = arith.constant dense<1.44269502> : tensor<128x64xf32> loc(#loc173)
    %35 = arith.mulf %34, %cst_16 : tensor<128x64xf32> loc(#loc173)
    %36 = tt.call @"triton.language.standard.max__fp32S128_64S__(1,)cconstexpr_1__(2,)cconstexpr_False__(3,)cconstexpr_True__(4,)cconstexpr_False_"(%35) : (tensor<128x64xf32>) -> tensor<128xf32> loc(#loc174)
    %37 = arith.maxnumf %arg23, %36 : tensor<128xf32> loc(#loc175)
    %cst_17 = arith.constant 0xFF800000 : f32 loc(#loc176)
    %cst_18 = arith.constant dense<0xFF800000> : tensor<128xf32> loc(#loc176)
    %38 = arith.cmpf oeq, %37, %cst_18 : tensor<128xf32> loc(#loc176)
    %c0_i32_19 = arith.constant 0 : i32 loc(#loc177)
    %cst_20 = arith.constant 0.000000e+00 : f32 loc(#loc177)
    %cst_21 = arith.constant dense<0.000000e+00> : tensor<128xf32> loc(#loc177)
    %39 = arith.select %38, %cst_21, %37 : tensor<128xi1>, tensor<128xf32> loc(#loc177)
    %40 = arith.subf %arg23, %39 : tensor<128xf32> loc(#loc178)
    %41 = math.exp2 %40 : tensor<128xf32> loc(#loc179)
    %42 = tt.expand_dims %39 {axis = 1 : i32} : tensor<128xf32> -> tensor<128x1xf32> loc(#loc180)
    %43 = tt.broadcast %42 : tensor<128x1xf32> -> tensor<128x64xf32> loc(#loc181)
    %44 = arith.subf %35, %43 : tensor<128x64xf32> loc(#loc181)
    %45 = math.exp2 %44 : tensor<128x64xf32> loc(#loc182)
    %46 = arith.mulf %arg22, %41 : tensor<128xf32> loc(#loc183)
    %47 = tt.call @"triton.language.standard.sum__fp32S128_64S__(1,)cconstexpr_1__(2,)cconstexpr_False__(3,)cNone"(%45) : (tensor<128x64xf32>) -> tensor<128xf32> loc(#loc184)
    %48 = arith.addf %46, %47 : tensor<128xf32> loc(#loc185)
    %49 = tt.expand_dims %41 {axis = 1 : i32} : tensor<128xf32> -> tensor<128x1xf32> loc(#loc186)
    %50 = tt.broadcast %49 : tensor<128x1xf32> -> tensor<128x128xf32> loc(#loc187)
    %51 = arith.mulf %arg21, %50 : tensor<128x128xf32> loc(#loc187)
    %52 = tt.call @"torch._inductor.runtime.compile_tasks.c75kq5wxnpekebh5gvgkjr6rffk6ub47rqvknmtvenmyhq2jxbt2.load_checked_block__Pbf16S64_128S__(1,)cconstexpr_False__(2,)cconstexpr_True_"(%arg18) : (!tt.ptr<tensor<64x128xbf16>>) -> tensor<64x128xbf16> loc(#loc188)
    %53 = arith.truncf %45 : tensor<128x64xf32> to tensor<128x64xbf16> loc(#loc189)
    %cst_22 = arith.constant 0.000000e+00 : f32 loc(#loc190)
    %54 = tt.dot %53, %52, %51 : tensor<128x64xbf16> * tensor<64x128xbf16> -> tensor<128x128xf32> loc(#loc190)
    tt.return %54, %48, %37 : tensor<128x128xf32>, tensor<128xf32>, tensor<128xf32> loc(#loc191)
  ^bb1:  // no predecessors
    %55 = ub.poison : tensor<128x128xf32> loc(#loc192)
    %56 = ub.poison : tensor<128xf32> loc(#loc192)
    %57 = ub.poison : tensor<128xf32> loc(#loc192)
    tt.return %55, %56, %57 : tensor<128x128xf32>, tensor<128xf32>, tensor<128xf32> loc(#loc192)
  } loc(#loc150)
  tt.func private @"torch._inductor.runtime.compile_tasks.c75kq5wxnpekebh5gvgkjr6rffk6ub47rqvknmtvenmyhq2jxbt2.load_checked_block__Pbf16S128_64S__(1,)cconstexpr_True__(2,)cconstexpr_False_"(%arg0: !tt.ptr<tensor<128x64xbf16>> loc("/tmp/torchinductor_jovyan/75/c75kq5wxnpekebh5gvgkjr6rffk6ub47rqvknmtvenmyhq2jxbt2.py":502:0)) -> tensor<128x64xbf16> attributes {noinline = false} {
    %0 = tt.load %arg0 {boundaryCheck = array<i32: 1>, padding = 1 : i32} : !tt.ptr<tensor<128x64xbf16>> loc(#loc193)
    tt.return %0 : tensor<128x64xbf16> loc(#loc194)
  ^bb1:  // no predecessors
    %1 = ub.poison : tensor<128x64xbf16> loc(#loc133)
    tt.return %1 : tensor<128x64xbf16> loc(#loc133)
  } loc(#loc130)
  tt.func private @torch._inductor.runtime.compile_tasks.c75kq5wxnpekebh5gvgkjr6rffk6ub47rqvknmtvenmyhq2jxbt2.get_bounded_indices__i32S128_1S_i32__(%arg0: tensor<128x1xi32> loc("/tmp/torchinductor_jovyan/75/c75kq5wxnpekebh5gvgkjr6rffk6ub47rqvknmtvenmyhq2jxbt2.py":513:0), %arg1: i32 loc("/tmp/torchinductor_jovyan/75/c75kq5wxnpekebh5gvgkjr6rffk6ub47rqvknmtvenmyhq2jxbt2.py":513:0)) -> tensor<128x1xi32> attributes {noinline = false} {
    %0 = tt.splat %arg1 : i32 -> tensor<128x1xi32> loc(#loc196)
    %1 = arith.remsi %arg0, %0 : tensor<128x1xi32> loc(#loc196)
    tt.return %1 : tensor<128x1xi32> loc(#loc197)
  ^bb1:  // no predecessors
    %2 = ub.poison : tensor<128x1xi32> loc(#loc198)
    tt.return %2 : tensor<128x1xi32> loc(#loc198)
  } loc(#loc195)
  tt.func private @torch._inductor.runtime.compile_tasks.c75kq5wxnpekebh5gvgkjr6rffk6ub47rqvknmtvenmyhq2jxbt2.get_bounded_indices__i32S1_64S_i32__(%arg0: tensor<1x64xi32> loc("/tmp/torchinductor_jovyan/75/c75kq5wxnpekebh5gvgkjr6rffk6ub47rqvknmtvenmyhq2jxbt2.py":513:0), %arg1: i32 loc("/tmp/torchinductor_jovyan/75/c75kq5wxnpekebh5gvgkjr6rffk6ub47rqvknmtvenmyhq2jxbt2.py":513:0)) -> tensor<1x64xi32> attributes {noinline = false} {
    %0 = tt.splat %arg1 : i32 -> tensor<1x64xi32> loc(#loc196)
    %1 = arith.remsi %arg0, %0 : tensor<1x64xi32> loc(#loc196)
    tt.return %1 : tensor<1x64xi32> loc(#loc197)
  ^bb1:  // no predecessors
    %2 = ub.poison : tensor<1x64xi32> loc(#loc198)
    tt.return %2 : tensor<1x64xi32> loc(#loc198)
  } loc(#loc195)
  tt.func private @"triton.language.standard.max__fp32S128_64S__(1,)cconstexpr_1__(2,)cconstexpr_False__(3,)cconstexpr_True__(4,)cconstexpr_False_"(%arg0: tensor<128x64xf32> loc("/home/jovyan/intel-xpu-backend-for-triton/python/triton/language/standard.py":174:0)) -> tensor<128xf32> attributes {noinline = false} {
    %0 = "tt.reduce"(%arg0) <{axis = 1 : i32}> ({
    ^bb0(%arg1: f32 loc(unknown), %arg2: f32 loc(unknown)):
      %2 = tt.call @triton.language.standard._elementwise_max__fp32_fp32__(%arg1, %arg2) : (f32, f32) -> f32 loc(#loc200)
      tt.reduce.return %2 : f32 loc(#loc200)
    }) : (tensor<128x64xf32>) -> tensor<128xf32> loc(#loc200)
    tt.return %0 : tensor<128xf32> loc(#loc202)
  ^bb1:  // no predecessors
    %1 = ub.poison : tensor<128xf32> loc(#loc203)
    tt.return %1 : tensor<128xf32> loc(#loc203)
  } loc(#loc199)
  tt.func private @triton.language.standard._elementwise_max__fp32_fp32__(%arg0: f32 loc("/home/jovyan/intel-xpu-backend-for-triton/python/triton/language/standard.py":166:0), %arg1: f32 loc("/home/jovyan/intel-xpu-backend-for-triton/python/triton/language/standard.py":166:0)) -> f32 attributes {noinline = false} {
    %0 = arith.maxnumf %arg0, %arg1 : f32 loc(#loc205)
    tt.return %0 : f32 loc(#loc206)
  ^bb1:  // no predecessors
    %1 = ub.poison : f32 loc(#loc207)
    tt.return %1 : f32 loc(#loc207)
  } loc(#loc204)
  tt.func private @"triton.language.standard.sum__fp32S128_64S__(1,)cconstexpr_1__(2,)cconstexpr_False__(3,)cNone"(%arg0: tensor<128x64xf32> loc("/home/jovyan/intel-xpu-backend-for-triton/python/triton/language/standard.py":284:0)) -> tensor<128xf32> attributes {noinline = false} {
    %0 = "tt.reduce"(%arg0) <{axis = 1 : i32}> ({
    ^bb0(%arg1: f32 loc(unknown), %arg2: f32 loc(unknown)):
      %2 = tt.call @triton.language.standard._sum_combine__fp32_fp32__(%arg1, %arg2) : (f32, f32) -> f32 loc(#loc209)
      tt.reduce.return %2 : f32 loc(#loc209)
    }) : (tensor<128x64xf32>) -> tensor<128xf32> loc(#loc209)
    tt.return %0 : tensor<128xf32> loc(#loc210)
  ^bb1:  // no predecessors
    %1 = ub.poison : tensor<128xf32> loc(#loc211)
    tt.return %1 : tensor<128xf32> loc(#loc211)
  } loc(#loc208)
  tt.func private @triton.language.standard._sum_combine__fp32_fp32__(%arg0: f32 loc("/home/jovyan/intel-xpu-backend-for-triton/python/triton/language/standard.py":259:0), %arg1: f32 loc("/home/jovyan/intel-xpu-backend-for-triton/python/triton/language/standard.py":259:0)) -> f32 attributes {noinline = false} {
    %0 = arith.addf %arg0, %arg1 : f32 loc(#loc213)
    tt.return %0 : f32 loc(#loc214)
  ^bb1:  // no predecessors
    %1 = ub.poison : f32 loc(#loc215)
    tt.return %1 : f32 loc(#loc215)
  } loc(#loc212)
  tt.func private @"torch._inductor.runtime.compile_tasks.c75kq5wxnpekebh5gvgkjr6rffk6ub47rqvknmtvenmyhq2jxbt2.load_checked_block__Pbf16S64_128S__(1,)cconstexpr_False__(2,)cconstexpr_True_"(%arg0: !tt.ptr<tensor<64x128xbf16>> loc("/tmp/torchinductor_jovyan/75/c75kq5wxnpekebh5gvgkjr6rffk6ub47rqvknmtvenmyhq2jxbt2.py":502:0)) -> tensor<64x128xbf16> attributes {noinline = false} {
    %0 = tt.load %arg0 {boundaryCheck = array<i32: 0>, padding = 1 : i32} : !tt.ptr<tensor<64x128xbf16>> loc(#loc131)
    tt.return %0 : tensor<64x128xbf16> loc(#loc132)
  ^bb1:  // no predecessors
    %1 = ub.poison : tensor<64x128xbf16> loc(#loc133)
    tt.return %1 : tensor<64x128xbf16> loc(#loc133)
  } loc(#loc130)
  tt.func private @"torch._inductor.runtime.compile_tasks.c75kq5wxnpekebh5gvgkjr6rffk6ub47rqvknmtvenmyhq2jxbt2.get_offset_for_next_block__i32_Pi32_i32__(3,)cconstexpr_128__(4,)cconstexpr_2__(5,)cconstexpr_64__(6,)cconstexpr_False_"(%arg0: i32 loc("/tmp/torchinductor_jovyan/75/c75kq5wxnpekebh5gvgkjr6rffk6ub47rqvknmtvenmyhq2jxbt2.py":370:0), %arg1: !tt.ptr<i32> loc("/tmp/torchinductor_jovyan/75/c75kq5wxnpekebh5gvgkjr6rffk6ub47rqvknmtvenmyhq2jxbt2.py":370:0), %arg2: i32 loc("/tmp/torchinductor_jovyan/75/c75kq5wxnpekebh5gvgkjr6rffk6ub47rqvknmtvenmyhq2jxbt2.py":370:0)) -> i32 attributes {noinline = false} {
    %c2_i32 = arith.constant 2 : i32 loc(#loc217)
    %c2_i32_0 = arith.constant 2 : i32 loc(#loc217)
    %0 = arith.divsi %arg0, %c2_i32_0 : i32 loc(#loc217)
    %1 = tt.addptr %arg1, %0 : !tt.ptr<i32>, i32 loc(#loc218)
    %2 = tt.load %1 evictionPolicy = evict_last : !tt.ptr<i32> loc(#loc219)
    %c1_i32 = arith.constant 1 : i32 loc(#loc220)
    %c1_i32_1 = arith.constant 1 : i32 loc(#loc220)
    %3 = arith.addi %0, %c1_i32_1 : i32 loc(#loc220)
    %4 = arith.cmpi slt, %3, %arg2 : i32 loc(#loc221)
    %5 = tt.addptr %arg1, %0 : !tt.ptr<i32>, i32 loc(#loc222)
    %c1_i32_2 = arith.constant 1 : i32 loc(#loc223)
    %6 = tt.addptr %5, %c1_i32_2 : !tt.ptr<i32>, i32 loc(#loc223)
    %7 = tt.load %6, %4 evictionPolicy = evict_last : !tt.ptr<i32> loc(#loc224)
    %c1_i32_3 = arith.constant 1 : i32 loc(#loc225)
    %c1_i32_4 = arith.constant 1 : i32 loc(#loc225)
    %8 = arith.addi %arg0, %c1_i32_4 : i32 loc(#loc225)
    %c2_i32_5 = arith.constant 2 : i32 loc(#loc226)
    %c2_i32_6 = arith.constant 2 : i32 loc(#loc226)
    %9 = arith.remsi %8, %c2_i32_6 : i32 loc(#loc226)
    %c0_i32 = arith.constant 0 : i32 loc(#loc227)
    %10 = arith.cmpi eq, %9, %c0_i32 : i32 loc(#loc227)
    %11 = arith.subi %7, %2 : i32 loc(#loc228)
    %c128_i32 = arith.constant 128 : i32 loc(#loc229)
    %c128_i32_7 = arith.constant 128 : i32 loc(#loc229)
    %12 = arith.muli %11, %c128_i32_7 : i32 loc(#loc229)
    %c64_i32 = arith.constant 64 : i32 loc(#loc230)
    %c64_i32_8 = arith.constant 64 : i32 loc(#loc230)
    %13 = arith.subi %12, %c64_i32_8 : i32 loc(#loc230)
    %14 = arith.extui %10 : i1 to i32 loc(#loc231)
    %15 = arith.muli %13, %14 : i32 loc(#loc231)
    %c1_i32_9 = arith.constant 1 : i32 loc(#loc232)
    %c1_i32_10 = arith.constant 1 : i32 loc(#loc232)
    %16 = arith.extui %10 : i1 to i32 loc(#loc232)
    %17 = arith.subi %c1_i32_10, %16 : i32 loc(#loc232)
    %c64_i32_11 = arith.constant 64 : i32 loc(#loc233)
    %c64_i32_12 = arith.constant 64 : i32 loc(#loc233)
    %18 = arith.muli %17, %c64_i32_12 : i32 loc(#loc233)
    %19 = arith.addi %15, %18 : i32 loc(#loc234)
    tt.return %19 : i32 loc(#loc235)
  ^bb1:  // no predecessors
    %20 = ub.poison : i32 loc(#loc236)
    tt.return %20 : i32 loc(#loc236)
  } loc(#loc216)
  tt.func private @"torch._inductor.runtime.compile_tasks.c75kq5wxnpekebh5gvgkjr6rffk6ub47rqvknmtvenmyhq2jxbt2.forward_inner__Pbf16_Pbf16_Pbf16_Pfp32_Pi32_Pi32_Pi32_Pi32_Pi64_Pu1_Pbf16_i32_i32_i32_i32_i32_bf16S128_128S_Pbf16S128_64S_Pbf16S64_128S_i32_i32_fp32S128_128S_fp32S128S_fp32S128S_i32_i32_i32S128_1S_i32S1_64S_i32_Pi32_i32_i32__(19,)cNone_(20,)cNone_(33,)cconstexpr_0__(35,)cconstexpr_bf16__(36,)cconstexpr_True_"(%arg0: !tt.ptr<bf16> loc("/tmp/torchinductor_jovyan/75/c75kq5wxnpekebh5gvgkjr6rffk6ub47rqvknmtvenmyhq2jxbt2.py":270:0), %arg1: !tt.ptr<bf16> loc("/tmp/torchinductor_jovyan/75/c75kq5wxnpekebh5gvgkjr6rffk6ub47rqvknmtvenmyhq2jxbt2.py":270:0), %arg2: !tt.ptr<bf16> loc("/tmp/torchinductor_jovyan/75/c75kq5wxnpekebh5gvgkjr6rffk6ub47rqvknmtvenmyhq2jxbt2.py":270:0), %arg3: !tt.ptr<f32> loc("/tmp/torchinductor_jovyan/75/c75kq5wxnpekebh5gvgkjr6rffk6ub47rqvknmtvenmyhq2jxbt2.py":270:0), %arg4: !tt.ptr<i32> loc("/tmp/torchinductor_jovyan/75/c75kq5wxnpekebh5gvgkjr6rffk6ub47rqvknmtvenmyhq2jxbt2.py":270:0), %arg5: !tt.ptr<i32> loc("/tmp/torchinductor_jovyan/75/c75kq5wxnpekebh5gvgkjr6rffk6ub47rqvknmtvenmyhq2jxbt2.py":270:0), %arg6: !tt.ptr<i32> loc("/tmp/torchinductor_jovyan/75/c75kq5wxnpekebh5gvgkjr6rffk6ub47rqvknmtvenmyhq2jxbt2.py":270:0), %arg7: !tt.ptr<i32> loc("/tmp/torchinductor_jovyan/75/c75kq5wxnpekebh5gvgkjr6rffk6ub47rqvknmtvenmyhq2jxbt2.py":270:0), %arg8: !tt.ptr<i64> loc("/tmp/torchinductor_jovyan/75/c75kq5wxnpekebh5gvgkjr6rffk6ub47rqvknmtvenmyhq2jxbt2.py":270:0), %arg9: !tt.ptr<i1> loc("/tmp/torchinductor_jovyan/75/c75kq5wxnpekebh5gvgkjr6rffk6ub47rqvknmtvenmyhq2jxbt2.py":270:0), %arg10: !tt.ptr<bf16> loc("/tmp/torchinductor_jovyan/75/c75kq5wxnpekebh5gvgkjr6rffk6ub47rqvknmtvenmyhq2jxbt2.py":270:0), %arg11: i32 loc("/tmp/torchinductor_jovyan/75/c75kq5wxnpekebh5gvgkjr6rffk6ub47rqvknmtvenmyhq2jxbt2.py":270:0), %arg12: i32 loc("/tmp/torchinductor_jovyan/75/c75kq5wxnpekebh5gvgkjr6rffk6ub47rqvknmtvenmyhq2jxbt2.py":270:0), %arg13: i32 loc("/tmp/torchinductor_jovyan/75/c75kq5wxnpekebh5gvgkjr6rffk6ub47rqvknmtvenmyhq2jxbt2.py":270:0), %arg14: i32 loc("/tmp/torchinductor_jovyan/75/c75kq5wxnpekebh5gvgkjr6rffk6ub47rqvknmtvenmyhq2jxbt2.py":270:0), %arg15: i32 loc("/tmp/torchinductor_jovyan/75/c75kq5wxnpekebh5gvgkjr6rffk6ub47rqvknmtvenmyhq2jxbt2.py":270:0), %arg16: tensor<128x128xbf16> loc("/tmp/torchinductor_jovyan/75/c75kq5wxnpekebh5gvgkjr6rffk6ub47rqvknmtvenmyhq2jxbt2.py":270:0), %arg17: !tt.ptr<tensor<128x64xbf16>> loc("/tmp/torchinductor_jovyan/75/c75kq5wxnpekebh5gvgkjr6rffk6ub47rqvknmtvenmyhq2jxbt2.py":270:0), %arg18: !tt.ptr<tensor<64x128xbf16>> loc("/tmp/torchinductor_jovyan/75/c75kq5wxnpekebh5gvgkjr6rffk6ub47rqvknmtvenmyhq2jxbt2.py":270:0), %arg19: i32 loc("/tmp/torchinductor_jovyan/75/c75kq5wxnpekebh5gvgkjr6rffk6ub47rqvknmtvenmyhq2jxbt2.py":270:0), %arg20: i32 loc("/tmp/torchinductor_jovyan/75/c75kq5wxnpekebh5gvgkjr6rffk6ub47rqvknmtvenmyhq2jxbt2.py":270:0), %arg21: tensor<128x128xf32> loc("/tmp/torchinductor_jovyan/75/c75kq5wxnpekebh5gvgkjr6rffk6ub47rqvknmtvenmyhq2jxbt2.py":270:0), %arg22: tensor<128xf32> loc("/tmp/torchinductor_jovyan/75/c75kq5wxnpekebh5gvgkjr6rffk6ub47rqvknmtvenmyhq2jxbt2.py":270:0), %arg23: tensor<128xf32> loc("/tmp/torchinductor_jovyan/75/c75kq5wxnpekebh5gvgkjr6rffk6ub47rqvknmtvenmyhq2jxbt2.py":270:0), %arg24: i32 loc("/tmp/torchinductor_jovyan/75/c75kq5wxnpekebh5gvgkjr6rffk6ub47rqvknmtvenmyhq2jxbt2.py":270:0), %arg25: i32 loc("/tmp/torchinductor_jovyan/75/c75kq5wxnpekebh5gvgkjr6rffk6ub47rqvknmtvenmyhq2jxbt2.py":270:0), %arg26: tensor<128x1xi32> loc("/tmp/torchinductor_jovyan/75/c75kq5wxnpekebh5gvgkjr6rffk6ub47rqvknmtvenmyhq2jxbt2.py":270:0), %arg27: tensor<1x64xi32> loc("/tmp/torchinductor_jovyan/75/c75kq5wxnpekebh5gvgkjr6rffk6ub47rqvknmtvenmyhq2jxbt2.py":270:0), %arg28: i32 loc("/tmp/torchinductor_jovyan/75/c75kq5wxnpekebh5gvgkjr6rffk6ub47rqvknmtvenmyhq2jxbt2.py":270:0), %arg29: !tt.ptr<i32> loc("/tmp/torchinductor_jovyan/75/c75kq5wxnpekebh5gvgkjr6rffk6ub47rqvknmtvenmyhq2jxbt2.py":270:0), %arg30: i32 loc("/tmp/torchinductor_jovyan/75/c75kq5wxnpekebh5gvgkjr6rffk6ub47rqvknmtvenmyhq2jxbt2.py":270:0), %arg31: i32 loc("/tmp/torchinductor_jovyan/75/c75kq5wxnpekebh5gvgkjr6rffk6ub47rqvknmtvenmyhq2jxbt2.py":270:0)) -> (tensor<128x128xf32>, tensor<128xf32>, tensor<128xf32>) attributes {noinline = false} {
    %c0_i32 = arith.constant 0 : i32 loc(#loc141)
    %c1_i32 = arith.constant 1 : i32 loc(#loc141)
    %0 = arith.bitcast %c0_i32 : i32 to i32 loc(#loc141)
    %1 = arith.bitcast %arg31 : i32 to i32 loc(#loc141)
    %2 = arith.bitcast %c1_i32 : i32 to i32 loc(#loc141)
    %3 = ub.poison : i32 loc(#loc141)
    %4:6 = scf.for %arg32 = %0 to %1 step %2 iter_args(%arg33 = %arg17, %arg34 = %arg18, %arg35 = %arg21, %arg36 = %arg22, %arg37 = %arg23, %arg38 = %arg27) -> (!tt.ptr<tensor<128x64xbf16>>, !tt.ptr<tensor<64x128xbf16>>, tensor<128x128xf32>, tensor<128xf32>, tensor<128xf32>, tensor<1x64xi32>)  : i32 {
      %8:3 = tt.call @"torch._inductor.runtime.compile_tasks.c75kq5wxnpekebh5gvgkjr6rffk6ub47rqvknmtvenmyhq2jxbt2.forward_block_mn__Pbf16_Pbf16_Pbf16_Pfp32_Pi32_Pi32_Pi32_Pi32_Pi64_Pu1_Pbf16_i32_i32_i32_i32_i32_bf16S128_128S_Pbf16S128_64S_Pbf16S64_128S_i32_i32_fp32S128_128S_fp32S128S_fp32S128S_i32_i32_i32S128_1S_i32S1_64S_i32_i32__(19,)cconstexpr_None__(20,)cconstexpr_None__(32,)cconstexpr_bf16__(33,)cconstexpr_1_d_44269504__(34,)cconstexpr_True__(35,)cconstexpr_True_"(%arg0, %arg1, %arg2, %arg3, %arg4, %arg5, %arg6, %arg7, %arg8, %arg9, %arg10, %arg11, %arg12, %arg13, %arg14, %arg15, %arg16, %arg33, %arg34, %arg19, %arg20, %arg35, %arg36, %arg37, %arg24, %arg25, %arg26, %arg38, %arg28, %arg32) : (!tt.ptr<bf16>, !tt.ptr<bf16>, !tt.ptr<bf16>, !tt.ptr<f32>, !tt.ptr<i32>, !tt.ptr<i32>, !tt.ptr<i32>, !tt.ptr<i32>, !tt.ptr<i64>, !tt.ptr<i1>, !tt.ptr<bf16>, i32, i32, i32, i32, i32, tensor<128x128xbf16>, !tt.ptr<tensor<128x64xbf16>>, !tt.ptr<tensor<64x128xbf16>>, i32, i32, tensor<128x128xf32>, tensor<128xf32>, tensor<128xf32>, i32, i32, tensor<128x1xi32>, tensor<1x64xi32>, i32, i32) -> (tensor<128x128xf32>, tensor<128xf32>, tensor<128xf32>) loc(#loc142)
      %9 = tt.call @"torch._inductor.runtime.compile_tasks.c75kq5wxnpekebh5gvgkjr6rffk6ub47rqvknmtvenmyhq2jxbt2.get_offset_for_next_block__i32_Pi32_i32__(3,)cconstexpr_128__(4,)cconstexpr_2__(5,)cconstexpr_64__(6,)cconstexpr_False_"(%arg32, %arg29, %arg30) : (i32, !tt.ptr<i32>, i32) -> i32 loc(#loc143)
      %10 = tt.splat %9 : i32 -> tensor<1x64xi32> loc(#loc144)
      %11 = arith.addi %arg38, %10 : tensor<1x64xi32> loc(#loc144)
      %c0_i32_0 = arith.constant 0 : i32 loc(#loc145)
      %12 = tt.advance %arg33, [%c0_i32_0, %9] : <tensor<128x64xbf16>> loc(#loc145)
      %c0_i32_1 = arith.constant 0 : i32 loc(#loc146)
      %13 = tt.advance %arg34, [%9, %c0_i32_1] : <tensor<64x128xbf16>> loc(#loc146)
      scf.yield %12, %13, %8#0, %8#1, %8#2, %11 : !tt.ptr<tensor<128x64xbf16>>, !tt.ptr<tensor<64x128xbf16>>, tensor<128x128xf32>, tensor<128xf32>, tensor<128xf32>, tensor<1x64xi32> loc(#loc147)
    } loc(#loc141)
    tt.return %4#2, %4#3, %4#4 : tensor<128x128xf32>, tensor<128xf32>, tensor<128xf32> loc(#loc148)
  ^bb1:  // no predecessors
    %5 = ub.poison : tensor<128x128xf32> loc(#loc149)
    %6 = ub.poison : tensor<128xf32> loc(#loc149)
    %7 = ub.poison : tensor<128xf32> loc(#loc149)
    tt.return %5, %6, %7 : tensor<128x128xf32>, tensor<128xf32>, tensor<128xf32> loc(#loc149)
  } loc(#loc140)
  tt.func private @"torch._inductor.runtime.compile_tasks.c75kq5wxnpekebh5gvgkjr6rffk6ub47rqvknmtvenmyhq2jxbt2.forward_block_mn__Pbf16_Pbf16_Pbf16_Pfp32_Pi32_Pi32_Pi32_Pi32_Pi64_Pu1_Pbf16_i32_i32_i32_i32_i32_bf16S128_128S_Pbf16S128_64S_Pbf16S64_128S_i32_i32_fp32S128_128S_fp32S128S_fp32S128S_i32_i32_i32S128_1S_i32S1_64S_i32_i32__(19,)cconstexpr_None__(20,)cconstexpr_None__(32,)cconstexpr_bf16__(33,)cconstexpr_1_d_44269504__(34,)cconstexpr_True__(35,)cconstexpr_True_"(%arg0: !tt.ptr<bf16> loc("/tmp/torchinductor_jovyan/75/c75kq5wxnpekebh5gvgkjr6rffk6ub47rqvknmtvenmyhq2jxbt2.py":386:0), %arg1: !tt.ptr<bf16> loc("/tmp/torchinductor_jovyan/75/c75kq5wxnpekebh5gvgkjr6rffk6ub47rqvknmtvenmyhq2jxbt2.py":386:0), %arg2: !tt.ptr<bf16> loc("/tmp/torchinductor_jovyan/75/c75kq5wxnpekebh5gvgkjr6rffk6ub47rqvknmtvenmyhq2jxbt2.py":386:0), %arg3: !tt.ptr<f32> loc("/tmp/torchinductor_jovyan/75/c75kq5wxnpekebh5gvgkjr6rffk6ub47rqvknmtvenmyhq2jxbt2.py":386:0), %arg4: !tt.ptr<i32> loc("/tmp/torchinductor_jovyan/75/c75kq5wxnpekebh5gvgkjr6rffk6ub47rqvknmtvenmyhq2jxbt2.py":386:0), %arg5: !tt.ptr<i32> loc("/tmp/torchinductor_jovyan/75/c75kq5wxnpekebh5gvgkjr6rffk6ub47rqvknmtvenmyhq2jxbt2.py":386:0), %arg6: !tt.ptr<i32> loc("/tmp/torchinductor_jovyan/75/c75kq5wxnpekebh5gvgkjr6rffk6ub47rqvknmtvenmyhq2jxbt2.py":386:0), %arg7: !tt.ptr<i32> loc("/tmp/torchinductor_jovyan/75/c75kq5wxnpekebh5gvgkjr6rffk6ub47rqvknmtvenmyhq2jxbt2.py":386:0), %arg8: !tt.ptr<i64> loc("/tmp/torchinductor_jovyan/75/c75kq5wxnpekebh5gvgkjr6rffk6ub47rqvknmtvenmyhq2jxbt2.py":386:0), %arg9: !tt.ptr<i1> loc("/tmp/torchinductor_jovyan/75/c75kq5wxnpekebh5gvgkjr6rffk6ub47rqvknmtvenmyhq2jxbt2.py":386:0), %arg10: !tt.ptr<bf16> loc("/tmp/torchinductor_jovyan/75/c75kq5wxnpekebh5gvgkjr6rffk6ub47rqvknmtvenmyhq2jxbt2.py":386:0), %arg11: i32 loc("/tmp/torchinductor_jovyan/75/c75kq5wxnpekebh5gvgkjr6rffk6ub47rqvknmtvenmyhq2jxbt2.py":386:0), %arg12: i32 loc("/tmp/torchinductor_jovyan/75/c75kq5wxnpekebh5gvgkjr6rffk6ub47rqvknmtvenmyhq2jxbt2.py":386:0), %arg13: i32 loc("/tmp/torchinductor_jovyan/75/c75kq5wxnpekebh5gvgkjr6rffk6ub47rqvknmtvenmyhq2jxbt2.py":386:0), %arg14: i32 loc("/tmp/torchinductor_jovyan/75/c75kq5wxnpekebh5gvgkjr6rffk6ub47rqvknmtvenmyhq2jxbt2.py":386:0), %arg15: i32 loc("/tmp/torchinductor_jovyan/75/c75kq5wxnpekebh5gvgkjr6rffk6ub47rqvknmtvenmyhq2jxbt2.py":386:0), %arg16: tensor<128x128xbf16> loc("/tmp/torchinductor_jovyan/75/c75kq5wxnpekebh5gvgkjr6rffk6ub47rqvknmtvenmyhq2jxbt2.py":386:0), %arg17: !tt.ptr<tensor<128x64xbf16>> loc("/tmp/torchinductor_jovyan/75/c75kq5wxnpekebh5gvgkjr6rffk6ub47rqvknmtvenmyhq2jxbt2.py":386:0), %arg18: !tt.ptr<tensor<64x128xbf16>> loc("/tmp/torchinductor_jovyan/75/c75kq5wxnpekebh5gvgkjr6rffk6ub47rqvknmtvenmyhq2jxbt2.py":386:0), %arg19: i32 loc("/tmp/torchinductor_jovyan/75/c75kq5wxnpekebh5gvgkjr6rffk6ub47rqvknmtvenmyhq2jxbt2.py":386:0), %arg20: i32 loc("/tmp/torchinductor_jovyan/75/c75kq5wxnpekebh5gvgkjr6rffk6ub47rqvknmtvenmyhq2jxbt2.py":386:0), %arg21: tensor<128x128xf32> loc("/tmp/torchinductor_jovyan/75/c75kq5wxnpekebh5gvgkjr6rffk6ub47rqvknmtvenmyhq2jxbt2.py":386:0), %arg22: tensor<128xf32> loc("/tmp/torchinductor_jovyan/75/c75kq5wxnpekebh5gvgkjr6rffk6ub47rqvknmtvenmyhq2jxbt2.py":386:0), %arg23: tensor<128xf32> loc("/tmp/torchinductor_jovyan/75/c75kq5wxnpekebh5gvgkjr6rffk6ub47rqvknmtvenmyhq2jxbt2.py":386:0), %arg24: i32 loc("/tmp/torchinductor_jovyan/75/c75kq5wxnpekebh5gvgkjr6rffk6ub47rqvknmtvenmyhq2jxbt2.py":386:0), %arg25: i32 loc("/tmp/torchinductor_jovyan/75/c75kq5wxnpekebh5gvgkjr6rffk6ub47rqvknmtvenmyhq2jxbt2.py":386:0), %arg26: tensor<128x1xi32> loc("/tmp/torchinductor_jovyan/75/c75kq5wxnpekebh5gvgkjr6rffk6ub47rqvknmtvenmyhq2jxbt2.py":386:0), %arg27: tensor<1x64xi32> loc("/tmp/torchinductor_jovyan/75/c75kq5wxnpekebh5gvgkjr6rffk6ub47rqvknmtvenmyhq2jxbt2.py":386:0), %arg28: i32 loc("/tmp/torchinductor_jovyan/75/c75kq5wxnpekebh5gvgkjr6rffk6ub47rqvknmtvenmyhq2jxbt2.py":386:0), %arg29: i32 loc("/tmp/torchinductor_jovyan/75/c75kq5wxnpekebh5gvgkjr6rffk6ub47rqvknmtvenmyhq2jxbt2.py":386:0)) -> (tensor<128x128xf32>, tensor<128xf32>, tensor<128xf32>) attributes {noinline = false} {
    %0 = tt.call @"torch._inductor.runtime.compile_tasks.c75kq5wxnpekebh5gvgkjr6rffk6ub47rqvknmtvenmyhq2jxbt2.load_checked_block__Pbf16S128_64S__(1,)cconstexpr_True__(2,)cconstexpr_False_"(%arg17) : (!tt.ptr<tensor<128x64xbf16>>) -> tensor<128x64xbf16> loc(#loc151)
    %cst = arith.constant 0.000000e+00 : f32 loc(#loc152)
    %cst_0 = arith.constant dense<0.000000e+00> : tensor<128x64xf32> loc(#loc152)
    %1 = tt.dot %arg16, %0, %cst_0 : tensor<128x128xbf16> * tensor<128x64xbf16> -> tensor<128x64xf32> loc(#loc152)
    %cst_1 = arith.constant 0.0883883461 : f32 loc(#loc153)
    %cst_2 = arith.constant 0.0883883461 : f32 loc(#loc153)
    %cst_3 = arith.constant dense<0.0883883461> : tensor<128x64xf32> loc(#loc153)
    %2 = arith.mulf %1, %cst_3 : tensor<128x64xf32> loc(#loc153)
    %3 = tt.call @torch._inductor.runtime.compile_tasks.c75kq5wxnpekebh5gvgkjr6rffk6ub47rqvknmtvenmyhq2jxbt2.get_bounded_indices__i32S128_1S_i32__(%arg26, %arg19) : (tensor<128x1xi32>, i32) -> tensor<128x1xi32> loc(#loc154)
    %4 = tt.call @torch._inductor.runtime.compile_tasks.c75kq5wxnpekebh5gvgkjr6rffk6ub47rqvknmtvenmyhq2jxbt2.get_bounded_indices__i32S1_64S_i32__(%arg27, %arg20) : (tensor<1x64xi32>, i32) -> tensor<1x64xi32> loc(#loc155)
    %5 = tt.splat %arg20 : i32 -> tensor<1x64xi32> loc(#loc156)
    %6 = arith.cmpi slt, %arg27, %5 : tensor<1x64xi32> loc(#loc156)
    %cst_4 = arith.constant 0xFF800000 : f32 loc(#loc157)
    %cst_5 = arith.constant 0xFF800000 : f32 loc(#loc157)
    %cst_6 = arith.constant dense<0xFF800000> : tensor<128x64xf32> loc(#loc157)
    %7 = tt.broadcast %6 : tensor<1x64xi1> -> tensor<128x64xi1> loc(#loc157)
    %8 = arith.select %7, %2, %cst_6 : tensor<128x64xi1>, tensor<128x64xf32> loc(#loc157)
    %cst_7 = arith.constant 1.44269502 : f32 loc(#loc173)
    %cst_8 = arith.constant 1.44269502 : f32 loc(#loc173)
    %cst_9 = arith.constant dense<1.44269502> : tensor<128x64xf32> loc(#loc173)
    %9 = arith.mulf %8, %cst_9 : tensor<128x64xf32> loc(#loc173)
    %10 = tt.call @"triton.language.standard.max__fp32S128_64S__(1,)cconstexpr_1__(2,)cconstexpr_False__(3,)cconstexpr_True__(4,)cconstexpr_False_"(%9) : (tensor<128x64xf32>) -> tensor<128xf32> loc(#loc174)
    %11 = arith.maxnumf %arg23, %10 : tensor<128xf32> loc(#loc175)
    %cst_10 = arith.constant 0xFF800000 : f32 loc(#loc176)
    %cst_11 = arith.constant dense<0xFF800000> : tensor<128xf32> loc(#loc176)
    %12 = arith.cmpf oeq, %11, %cst_11 : tensor<128xf32> loc(#loc176)
    %c0_i32 = arith.constant 0 : i32 loc(#loc177)
    %cst_12 = arith.constant 0.000000e+00 : f32 loc(#loc177)
    %cst_13 = arith.constant dense<0.000000e+00> : tensor<128xf32> loc(#loc177)
    %13 = arith.select %12, %cst_13, %11 : tensor<128xi1>, tensor<128xf32> loc(#loc177)
    %14 = arith.subf %arg23, %13 : tensor<128xf32> loc(#loc178)
    %15 = math.exp2 %14 : tensor<128xf32> loc(#loc179)
    %16 = tt.expand_dims %13 {axis = 1 : i32} : tensor<128xf32> -> tensor<128x1xf32> loc(#loc180)
    %17 = tt.broadcast %16 : tensor<128x1xf32> -> tensor<128x64xf32> loc(#loc181)
    %18 = arith.subf %9, %17 : tensor<128x64xf32> loc(#loc181)
    %19 = math.exp2 %18 : tensor<128x64xf32> loc(#loc182)
    %20 = arith.mulf %arg22, %15 : tensor<128xf32> loc(#loc183)
    %21 = tt.call @"triton.language.standard.sum__fp32S128_64S__(1,)cconstexpr_1__(2,)cconstexpr_False__(3,)cNone"(%19) : (tensor<128x64xf32>) -> tensor<128xf32> loc(#loc184)
    %22 = arith.addf %20, %21 : tensor<128xf32> loc(#loc185)
    %23 = tt.expand_dims %15 {axis = 1 : i32} : tensor<128xf32> -> tensor<128x1xf32> loc(#loc186)
    %24 = tt.broadcast %23 : tensor<128x1xf32> -> tensor<128x128xf32> loc(#loc187)
    %25 = arith.mulf %arg21, %24 : tensor<128x128xf32> loc(#loc187)
    %26 = tt.call @"torch._inductor.runtime.compile_tasks.c75kq5wxnpekebh5gvgkjr6rffk6ub47rqvknmtvenmyhq2jxbt2.load_checked_block__Pbf16S64_128S__(1,)cconstexpr_False__(2,)cconstexpr_True_"(%arg18) : (!tt.ptr<tensor<64x128xbf16>>) -> tensor<64x128xbf16> loc(#loc188)
    %27 = arith.truncf %19 : tensor<128x64xf32> to tensor<128x64xbf16> loc(#loc189)
    %cst_14 = arith.constant 0.000000e+00 : f32 loc(#loc190)
    %28 = tt.dot %27, %26, %25 : tensor<128x64xbf16> * tensor<64x128xbf16> -> tensor<128x128xf32> loc(#loc190)
    tt.return %28, %22, %11 : tensor<128x128xf32>, tensor<128xf32>, tensor<128xf32> loc(#loc191)
  ^bb1:  // no predecessors
    %29 = ub.poison : tensor<128x128xf32> loc(#loc192)
    %30 = ub.poison : tensor<128xf32> loc(#loc192)
    %31 = ub.poison : tensor<128xf32> loc(#loc192)
    tt.return %29, %30, %31 : tensor<128x128xf32>, tensor<128xf32>, tensor<128xf32> loc(#loc192)
  } loc(#loc150)
} loc(#loc)
#loc1 = loc("/tmp/torchinductor_jovyan/75/c75kq5wxnpekebh5gvgkjr6rffk6ub47rqvknmtvenmyhq2jxbt2.py":82:54)
#loc2 = loc("/tmp/torchinductor_jovyan/75/c75kq5wxnpekebh5gvgkjr6rffk6ub47rqvknmtvenmyhq2jxbt2.py":82:49)
#loc3 = loc("/tmp/torchinductor_jovyan/75/c75kq5wxnpekebh5gvgkjr6rffk6ub47rqvknmtvenmyhq2jxbt2.py":83:70)
#loc4 = loc("/tmp/torchinductor_jovyan/75/c75kq5wxnpekebh5gvgkjr6rffk6ub47rqvknmtvenmyhq2jxbt2.py":83:62)
#loc5 = loc("/tmp/torchinductor_jovyan/75/c75kq5wxnpekebh5gvgkjr6rffk6ub47rqvknmtvenmyhq2jxbt2.py":83:96)
#loc6 = loc("/tmp/torchinductor_jovyan/75/c75kq5wxnpekebh5gvgkjr6rffk6ub47rqvknmtvenmyhq2jxbt2.py":83:87)
#loc7 = loc("/tmp/torchinductor_jovyan/75/c75kq5wxnpekebh5gvgkjr6rffk6ub47rqvknmtvenmyhq2jxbt2.py":83:78)
#loc8 = loc("/tmp/torchinductor_jovyan/75/c75kq5wxnpekebh5gvgkjr6rffk6ub47rqvknmtvenmyhq2jxbt2.py":83:55)
#loc9 = loc("/tmp/torchinductor_jovyan/75/c75kq5wxnpekebh5gvgkjr6rffk6ub47rqvknmtvenmyhq2jxbt2.py":83:49)
#loc10 = loc("/tmp/torchinductor_jovyan/75/c75kq5wxnpekebh5gvgkjr6rffk6ub47rqvknmtvenmyhq2jxbt2.py":84:54)
#loc11 = loc("/tmp/torchinductor_jovyan/75/c75kq5wxnpekebh5gvgkjr6rffk6ub47rqvknmtvenmyhq2jxbt2.py":84:49)
#loc12 = loc("/tmp/torchinductor_jovyan/75/c75kq5wxnpekebh5gvgkjr6rffk6ub47rqvknmtvenmyhq2jxbt2.py":86:9)
#loc13 = loc("/tmp/torchinductor_jovyan/75/c75kq5wxnpekebh5gvgkjr6rffk6ub47rqvknmtvenmyhq2jxbt2.py":87:9)
#loc14 = loc("/tmp/torchinductor_jovyan/75/c75kq5wxnpekebh5gvgkjr6rffk6ub47rqvknmtvenmyhq2jxbt2.py":89:10)
#loc15 = loc("/tmp/torchinductor_jovyan/75/c75kq5wxnpekebh5gvgkjr6rffk6ub47rqvknmtvenmyhq2jxbt2.py":94:28)
#loc16 = loc("/tmp/torchinductor_jovyan/75/c75kq5wxnpekebh5gvgkjr6rffk6ub47rqvknmtvenmyhq2jxbt2.py":95:27)
#loc17 = loc("/tmp/torchinductor_jovyan/75/c75kq5wxnpekebh5gvgkjr6rffk6ub47rqvknmtvenmyhq2jxbt2.py":96:27)
#loc18 = loc("/tmp/torchinductor_jovyan/75/c75kq5wxnpekebh5gvgkjr6rffk6ub47rqvknmtvenmyhq2jxbt2.py":107:23)
#loc19 = loc("/tmp/torchinductor_jovyan/75/c75kq5wxnpekebh5gvgkjr6rffk6ub47rqvknmtvenmyhq2jxbt2.py":108:24)
#loc20 = loc("/tmp/torchinductor_jovyan/75/c75kq5wxnpekebh5gvgkjr6rffk6ub47rqvknmtvenmyhq2jxbt2.py":109:21)
#loc21 = loc("/tmp/torchinductor_jovyan/75/c75kq5wxnpekebh5gvgkjr6rffk6ub47rqvknmtvenmyhq2jxbt2.py":111:24)
#loc22 = loc("/tmp/torchinductor_jovyan/75/c75kq5wxnpekebh5gvgkjr6rffk6ub47rqvknmtvenmyhq2jxbt2.py":111:45)
#loc23 = loc("/tmp/torchinductor_jovyan/75/c75kq5wxnpekebh5gvgkjr6rffk6ub47rqvknmtvenmyhq2jxbt2.py":111:36)
#loc24 = loc("/tmp/torchinductor_jovyan/75/c75kq5wxnpekebh5gvgkjr6rffk6ub47rqvknmtvenmyhq2jxbt2.py":112:25)
#loc25 = loc("/tmp/torchinductor_jovyan/75/c75kq5wxnpekebh5gvgkjr6rffk6ub47rqvknmtvenmyhq2jxbt2.py":112:47)
#loc26 = loc("/tmp/torchinductor_jovyan/75/c75kq5wxnpekebh5gvgkjr6rffk6ub47rqvknmtvenmyhq2jxbt2.py":112:37)
#loc27 = loc("/tmp/torchinductor_jovyan/75/c75kq5wxnpekebh5gvgkjr6rffk6ub47rqvknmtvenmyhq2jxbt2.py":113:25)
#loc28 = loc("/tmp/torchinductor_jovyan/75/c75kq5wxnpekebh5gvgkjr6rffk6ub47rqvknmtvenmyhq2jxbt2.py":113:47)
#loc29 = loc("/tmp/torchinductor_jovyan/75/c75kq5wxnpekebh5gvgkjr6rffk6ub47rqvknmtvenmyhq2jxbt2.py":113:37)
#loc30 = loc("/tmp/torchinductor_jovyan/75/c75kq5wxnpekebh5gvgkjr6rffk6ub47rqvknmtvenmyhq2jxbt2.py":115:12)
#loc31 = loc("/tmp/torchinductor_jovyan/75/c75kq5wxnpekebh5gvgkjr6rffk6ub47rqvknmtvenmyhq2jxbt2.py":116:12)
#loc32 = loc("/tmp/torchinductor_jovyan/75/c75kq5wxnpekebh5gvgkjr6rffk6ub47rqvknmtvenmyhq2jxbt2.py":117:12)
#loc33 = loc("/tmp/torchinductor_jovyan/75/c75kq5wxnpekebh5gvgkjr6rffk6ub47rqvknmtvenmyhq2jxbt2.py":119:15)
#loc34 = loc("/tmp/torchinductor_jovyan/75/c75kq5wxnpekebh5gvgkjr6rffk6ub47rqvknmtvenmyhq2jxbt2.py":120:16)
#loc35 = loc("/tmp/torchinductor_jovyan/75/c75kq5wxnpekebh5gvgkjr6rffk6ub47rqvknmtvenmyhq2jxbt2.py":122:28)
#loc36 = loc("/tmp/torchinductor_jovyan/75/c75kq5wxnpekebh5gvgkjr6rffk6ub47rqvknmtvenmyhq2jxbt2.py":123:29)
#loc37 = loc("/tmp/torchinductor_jovyan/75/c75kq5wxnpekebh5gvgkjr6rffk6ub47rqvknmtvenmyhq2jxbt2.py":129:26)
#loc38 = loc("/tmp/torchinductor_jovyan/75/c75kq5wxnpekebh5gvgkjr6rffk6ub47rqvknmtvenmyhq2jxbt2.py":133:19)
#loc39 = loc("/tmp/torchinductor_jovyan/75/c75kq5wxnpekebh5gvgkjr6rffk6ub47rqvknmtvenmyhq2jxbt2.py":133:50)
#loc40 = loc("/tmp/torchinductor_jovyan/75/c75kq5wxnpekebh5gvgkjr6rffk6ub47rqvknmtvenmyhq2jxbt2.py":134:19)
#loc41 = loc("/tmp/torchinductor_jovyan/75/c75kq5wxnpekebh5gvgkjr6rffk6ub47rqvknmtvenmyhq2jxbt2.py":135:19)
#loc42 = loc("/tmp/torchinductor_jovyan/75/c75kq5wxnpekebh5gvgkjr6rffk6ub47rqvknmtvenmyhq2jxbt2.py":137:23)
#loc43 = loc("/tmp/torchinductor_jovyan/75/c75kq5wxnpekebh5gvgkjr6rffk6ub47rqvknmtvenmyhq2jxbt2.py":137:46)
#loc44 = loc("/tmp/torchinductor_jovyan/75/c75kq5wxnpekebh5gvgkjr6rffk6ub47rqvknmtvenmyhq2jxbt2.py":137:33)
#loc45 = loc("/tmp/torchinductor_jovyan/75/c75kq5wxnpekebh5gvgkjr6rffk6ub47rqvknmtvenmyhq2jxbt2.py":140:38)
#loc46 = loc("/tmp/torchinductor_jovyan/75/c75kq5wxnpekebh5gvgkjr6rffk6ub47rqvknmtvenmyhq2jxbt2.py":140:50)
#loc47 = loc("/tmp/torchinductor_jovyan/75/c75kq5wxnpekebh5gvgkjr6rffk6ub47rqvknmtvenmyhq2jxbt2.py":141:51)
#loc48 = loc("/tmp/torchinductor_jovyan/75/c75kq5wxnpekebh5gvgkjr6rffk6ub47rqvknmtvenmyhq2jxbt2.py":141:85)
#loc49 = loc("/tmp/torchinductor_jovyan/75/c75kq5wxnpekebh5gvgkjr6rffk6ub47rqvknmtvenmyhq2jxbt2.py":141:74)
#loc50 = loc("/tmp/torchinductor_jovyan/75/c75kq5wxnpekebh5gvgkjr6rffk6ub47rqvknmtvenmyhq2jxbt2.py":142:46)
#loc51 = loc("/tmp/torchinductor_jovyan/75/c75kq5wxnpekebh5gvgkjr6rffk6ub47rqvknmtvenmyhq2jxbt2.py":142:76)
#loc52 = loc("/tmp/torchinductor_jovyan/75/c75kq5wxnpekebh5gvgkjr6rffk6ub47rqvknmtvenmyhq2jxbt2.py":142:97)
#loc53 = loc("/tmp/torchinductor_jovyan/75/c75kq5wxnpekebh5gvgkjr6rffk6ub47rqvknmtvenmyhq2jxbt2.py":142:64)
#loc54 = loc("/tmp/torchinductor_jovyan/75/c75kq5wxnpekebh5gvgkjr6rffk6ub47rqvknmtvenmyhq2jxbt2.py":152:31)
#loc55 = loc("/tmp/torchinductor_jovyan/75/c75kq5wxnpekebh5gvgkjr6rffk6ub47rqvknmtvenmyhq2jxbt2.py":154:12)
#loc56 = loc("/tmp/torchinductor_jovyan/75/c75kq5wxnpekebh5gvgkjr6rffk6ub47rqvknmtvenmyhq2jxbt2.py":156:58)
#loc57 = loc("/tmp/torchinductor_jovyan/75/c75kq5wxnpekebh5gvgkjr6rffk6ub47rqvknmtvenmyhq2jxbt2.py":161:26)
#loc58 = loc("/tmp/torchinductor_jovyan/75/c75kq5wxnpekebh5gvgkjr6rffk6ub47rqvknmtvenmyhq2jxbt2.py":162:23)
#loc59 = loc("/tmp/torchinductor_jovyan/75/c75kq5wxnpekebh5gvgkjr6rffk6ub47rqvknmtvenmyhq2jxbt2.py":162:37)
#loc60 = loc("/tmp/torchinductor_jovyan/75/c75kq5wxnpekebh5gvgkjr6rffk6ub47rqvknmtvenmyhq2jxbt2.py":163:42)
#loc61 = loc("/tmp/torchinductor_jovyan/75/c75kq5wxnpekebh5gvgkjr6rffk6ub47rqvknmtvenmyhq2jxbt2.py":163:28)
#loc62 = loc("/tmp/torchinductor_jovyan/75/c75kq5wxnpekebh5gvgkjr6rffk6ub47rqvknmtvenmyhq2jxbt2.py":164:45)
#loc63 = loc("/tmp/torchinductor_jovyan/75/c75kq5wxnpekebh5gvgkjr6rffk6ub47rqvknmtvenmyhq2jxbt2.py":164:92)
#loc64 = loc("/tmp/torchinductor_jovyan/75/c75kq5wxnpekebh5gvgkjr6rffk6ub47rqvknmtvenmyhq2jxbt2.py":164:102)
#loc65 = loc("/tmp/torchinductor_jovyan/75/c75kq5wxnpekebh5gvgkjr6rffk6ub47rqvknmtvenmyhq2jxbt2.py":164:65)
#loc66 = loc("/tmp/torchinductor_jovyan/75/c75kq5wxnpekebh5gvgkjr6rffk6ub47rqvknmtvenmyhq2jxbt2.py":174:12)
#loc67 = loc("/tmp/torchinductor_jovyan/75/c75kq5wxnpekebh5gvgkjr6rffk6ub47rqvknmtvenmyhq2jxbt2.py":183:12)
#loc68 = loc("/tmp/torchinductor_jovyan/75/c75kq5wxnpekebh5gvgkjr6rffk6ub47rqvknmtvenmyhq2jxbt2.py":186:37)
#loc69 = loc("/tmp/torchinductor_jovyan/75/c75kq5wxnpekebh5gvgkjr6rffk6ub47rqvknmtvenmyhq2jxbt2.py":186:24)
#loc70 = loc("/tmp/torchinductor_jovyan/75/c75kq5wxnpekebh5gvgkjr6rffk6ub47rqvknmtvenmyhq2jxbt2.py":194:31)
#loc71 = loc("/tmp/torchinductor_jovyan/75/c75kq5wxnpekebh5gvgkjr6rffk6ub47rqvknmtvenmyhq2jxbt2.py":194:48)
#loc72 = loc("/tmp/torchinductor_jovyan/75/c75kq5wxnpekebh5gvgkjr6rffk6ub47rqvknmtvenmyhq2jxbt2.py":198:8)
#loc73 = loc("/tmp/torchinductor_jovyan/75/c75kq5wxnpekebh5gvgkjr6rffk6ub47rqvknmtvenmyhq2jxbt2.py":207:35)
#loc74 = loc("/tmp/torchinductor_jovyan/75/c75kq5wxnpekebh5gvgkjr6rffk6ub47rqvknmtvenmyhq2jxbt2.py":208:27)
#loc75 = loc("/tmp/torchinductor_jovyan/75/c75kq5wxnpekebh5gvgkjr6rffk6ub47rqvknmtvenmyhq2jxbt2.py":208:41)
#loc76 = loc("/tmp/torchinductor_jovyan/75/c75kq5wxnpekebh5gvgkjr6rffk6ub47rqvknmtvenmyhq2jxbt2.py":209:51)
#loc77 = loc("/tmp/torchinductor_jovyan/75/c75kq5wxnpekebh5gvgkjr6rffk6ub47rqvknmtvenmyhq2jxbt2.py":209:32)
#loc78 = loc("/tmp/torchinductor_jovyan/75/c75kq5wxnpekebh5gvgkjr6rffk6ub47rqvknmtvenmyhq2jxbt2.py":210:49)
#loc79 = loc("/tmp/torchinductor_jovyan/75/c75kq5wxnpekebh5gvgkjr6rffk6ub47rqvknmtvenmyhq2jxbt2.py":210:96)
#loc80 = loc("/tmp/torchinductor_jovyan/75/c75kq5wxnpekebh5gvgkjr6rffk6ub47rqvknmtvenmyhq2jxbt2.py":210:106)
#loc81 = loc("/tmp/torchinductor_jovyan/75/c75kq5wxnpekebh5gvgkjr6rffk6ub47rqvknmtvenmyhq2jxbt2.py":210:69)
#loc82 = loc("/tmp/torchinductor_jovyan/75/c75kq5wxnpekebh5gvgkjr6rffk6ub47rqvknmtvenmyhq2jxbt2.py":218:16)
#loc83 = loc("/tmp/torchinductor_jovyan/75/c75kq5wxnpekebh5gvgkjr6rffk6ub47rqvknmtvenmyhq2jxbt2.py":226:16)
#loc84 = loc("/tmp/torchinductor_jovyan/75/c75kq5wxnpekebh5gvgkjr6rffk6ub47rqvknmtvenmyhq2jxbt2.py":228:41)
#loc85 = loc("/tmp/torchinductor_jovyan/75/c75kq5wxnpekebh5gvgkjr6rffk6ub47rqvknmtvenmyhq2jxbt2.py":228:28)
#loc86 = loc("/tmp/torchinductor_jovyan/75/c75kq5wxnpekebh5gvgkjr6rffk6ub47rqvknmtvenmyhq2jxbt2.py":235:35)
#loc87 = loc("/tmp/torchinductor_jovyan/75/c75kq5wxnpekebh5gvgkjr6rffk6ub47rqvknmtvenmyhq2jxbt2.py":235:52)
#loc88 = loc("/tmp/torchinductor_jovyan/75/c75kq5wxnpekebh5gvgkjr6rffk6ub47rqvknmtvenmyhq2jxbt2.py":239:12)
#loc89 = loc("/tmp/torchinductor_jovyan/75/c75kq5wxnpekebh5gvgkjr6rffk6ub47rqvknmtvenmyhq2jxbt2.py":247:26)
#loc90 = loc("/tmp/torchinductor_jovyan/75/c75kq5wxnpekebh5gvgkjr6rffk6ub47rqvknmtvenmyhq2jxbt2.py":247:34)
#loc91 = loc("/tmp/torchinductor_jovyan/75/c75kq5wxnpekebh5gvgkjr6rffk6ub47rqvknmtvenmyhq2jxbt2.py":249:20)
#loc92 = loc("/tmp/torchinductor_jovyan/75/c75kq5wxnpekebh5gvgkjr6rffk6ub47rqvknmtvenmyhq2jxbt2.py":249:16)
#loc93 = loc("/tmp/torchinductor_jovyan/75/c75kq5wxnpekebh5gvgkjr6rffk6ub47rqvknmtvenmyhq2jxbt2.py":250:27)
#loc94 = loc("/tmp/torchinductor_jovyan/75/c75kq5wxnpekebh5gvgkjr6rffk6ub47rqvknmtvenmyhq2jxbt2.py":251:27)
#loc95 = loc("/tmp/torchinductor_jovyan/75/c75kq5wxnpekebh5gvgkjr6rffk6ub47rqvknmtvenmyhq2jxbt2.py":252:19)
#loc96 = loc("/tmp/torchinductor_jovyan/75/c75kq5wxnpekebh5gvgkjr6rffk6ub47rqvknmtvenmyhq2jxbt2.py":253:25)
#loc97 = loc("/tmp/torchinductor_jovyan/75/c75kq5wxnpekebh5gvgkjr6rffk6ub47rqvknmtvenmyhq2jxbt2.py":253:45)
#loc98 = loc("/tmp/torchinductor_jovyan/75/c75kq5wxnpekebh5gvgkjr6rffk6ub47rqvknmtvenmyhq2jxbt2.py":255:20)
#loc99 = loc("/tmp/torchinductor_jovyan/75/c75kq5wxnpekebh5gvgkjr6rffk6ub47rqvknmtvenmyhq2jxbt2.py":255:38)
#loc100 = loc("/tmp/torchinductor_jovyan/75/c75kq5wxnpekebh5gvgkjr6rffk6ub47rqvknmtvenmyhq2jxbt2.py":255:30)
#loc101 = loc("/tmp/torchinductor_jovyan/75/c75kq5wxnpekebh5gvgkjr6rffk6ub47rqvknmtvenmyhq2jxbt2.py":257:25)
#loc102 = loc("/tmp/torchinductor_jovyan/75/c75kq5wxnpekebh5gvgkjr6rffk6ub47rqvknmtvenmyhq2jxbt2.py":257:21)
#loc103 = loc("/tmp/torchinductor_jovyan/75/c75kq5wxnpekebh5gvgkjr6rffk6ub47rqvknmtvenmyhq2jxbt2.py":257:37)
#loc104 = loc("/tmp/torchinductor_jovyan/75/c75kq5wxnpekebh5gvgkjr6rffk6ub47rqvknmtvenmyhq2jxbt2.py":257:44)
#loc105 = loc("/tmp/torchinductor_jovyan/75/c75kq5wxnpekebh5gvgkjr6rffk6ub47rqvknmtvenmyhq2jxbt2.py":257:33)
#loc106 = loc("/tmp/torchinductor_jovyan/75/c75kq5wxnpekebh5gvgkjr6rffk6ub47rqvknmtvenmyhq2jxbt2.py":257:55)
#loc107 = loc("/tmp/torchinductor_jovyan/75/c75kq5wxnpekebh5gvgkjr6rffk6ub47rqvknmtvenmyhq2jxbt2.py":257:62)
#loc108 = loc("/tmp/torchinductor_jovyan/75/c75kq5wxnpekebh5gvgkjr6rffk6ub47rqvknmtvenmyhq2jxbt2.py":257:50)
#loc109 = loc("/tmp/torchinductor_jovyan/75/c75kq5wxnpekebh5gvgkjr6rffk6ub47rqvknmtvenmyhq2jxbt2.py":258:53)
#loc110 = loc("/tmp/torchinductor_jovyan/75/c75kq5wxnpekebh5gvgkjr6rffk6ub47rqvknmtvenmyhq2jxbt2.py":258:49)
#loc111 = loc("/tmp/torchinductor_jovyan/75/c75kq5wxnpekebh5gvgkjr6rffk6ub47rqvknmtvenmyhq2jxbt2.py":258:65)
#loc112 = loc("/tmp/torchinductor_jovyan/75/c75kq5wxnpekebh5gvgkjr6rffk6ub47rqvknmtvenmyhq2jxbt2.py":258:72)
#loc113 = loc("/tmp/torchinductor_jovyan/75/c75kq5wxnpekebh5gvgkjr6rffk6ub47rqvknmtvenmyhq2jxbt2.py":258:61)
#loc114 = loc("/tmp/torchinductor_jovyan/75/c75kq5wxnpekebh5gvgkjr6rffk6ub47rqvknmtvenmyhq2jxbt2.py":258:25)
#loc115 = loc("/tmp/torchinductor_jovyan/75/c75kq5wxnpekebh5gvgkjr6rffk6ub47rqvknmtvenmyhq2jxbt2.py":258:95)
#loc116 = loc("/tmp/torchinductor_jovyan/75/c75kq5wxnpekebh5gvgkjr6rffk6ub47rqvknmtvenmyhq2jxbt2.py":261:26)
#loc117 = loc("/tmp/torchinductor_jovyan/75/c75kq5wxnpekebh5gvgkjr6rffk6ub47rqvknmtvenmyhq2jxbt2.py":261:31)
#loc118 = loc("/tmp/torchinductor_jovyan/75/c75kq5wxnpekebh5gvgkjr6rffk6ub47rqvknmtvenmyhq2jxbt2.py":262:32)
#loc119 = loc("/tmp/torchinductor_jovyan/75/c75kq5wxnpekebh5gvgkjr6rffk6ub47rqvknmtvenmyhq2jxbt2.py":262:23)
#loc120 = loc("/tmp/torchinductor_jovyan/75/c75kq5wxnpekebh5gvgkjr6rffk6ub47rqvknmtvenmyhq2jxbt2.py":262:40)
#loc121 = loc("/tmp/torchinductor_jovyan/75/c75kq5wxnpekebh5gvgkjr6rffk6ub47rqvknmtvenmyhq2jxbt2.py":263:33)
#loc122 = loc("/tmp/torchinductor_jovyan/75/c75kq5wxnpekebh5gvgkjr6rffk6ub47rqvknmtvenmyhq2jxbt2.py":263:20)
#loc123 = loc("/tmp/torchinductor_jovyan/75/c75kq5wxnpekebh5gvgkjr6rffk6ub47rqvknmtvenmyhq2jxbt2.py":267:48)
#loc124 = loc("/tmp/torchinductor_jovyan/75/c75kq5wxnpekebh5gvgkjr6rffk6ub47rqvknmtvenmyhq2jxbt2.py":267:29)
#loc125 = loc("/tmp/torchinductor_jovyan/75/c75kq5wxnpekebh5gvgkjr6rffk6ub47rqvknmtvenmyhq2jxbt2.py":260:4)
#loc126 = loc("/home/jovyan/intel-xpu-backend-for-triton/python/triton/language/standard.py":117:0)
#loc127 = loc("/home/jovyan/intel-xpu-backend-for-triton/python/triton/language/standard.py":126:31)
#loc128 = loc("/home/jovyan/intel-xpu-backend-for-triton/python/triton/language/standard.py":126:11)
#loc129 = loc("/home/jovyan/intel-xpu-backend-for-triton/python/triton/language/standard.py":126:4)
#loc131 = loc("/tmp/torchinductor_jovyan/75/c75kq5wxnpekebh5gvgkjr6rffk6ub47rqvknmtvenmyhq2jxbt2.py":508:21)
#loc132 = loc("/tmp/torchinductor_jovyan/75/c75kq5wxnpekebh5gvgkjr6rffk6ub47rqvknmtvenmyhq2jxbt2.py":508:13)
#loc133 = loc("/tmp/torchinductor_jovyan/75/c75kq5wxnpekebh5gvgkjr6rffk6ub47rqvknmtvenmyhq2jxbt2.py":503:2)
#loc135 = loc("/home/jovyan/intel-xpu-backend-for-triton/python/triton/language/standard.py":40:16)
#loc136 = loc("/home/jovyan/intel-xpu-backend-for-triton/python/triton/language/standard.py":40:22)
#loc137 = loc("/home/jovyan/intel-xpu-backend-for-triton/python/triton/language/standard.py":40:28)
#loc138 = loc("/home/jovyan/intel-xpu-backend-for-triton/python/triton/language/standard.py":40:11)
#loc139 = loc("/home/jovyan/intel-xpu-backend-for-triton/python/triton/language/standard.py":40:4)
#loc141 = loc("/tmp/torchinductor_jovyan/75/c75kq5wxnpekebh5gvgkjr6rffk6ub47rqvknmtvenmyhq2jxbt2.py":318:40)
#loc142 = loc("/tmp/torchinductor_jovyan/75/c75kq5wxnpekebh5gvgkjr6rffk6ub47rqvknmtvenmyhq2jxbt2.py":350:16)
#loc143 = loc("/tmp/torchinductor_jovyan/75/c75kq5wxnpekebh5gvgkjr6rffk6ub47rqvknmtvenmyhq2jxbt2.py":357:63)
#loc144 = loc("/tmp/torchinductor_jovyan/75/c75kq5wxnpekebh5gvgkjr6rffk6ub47rqvknmtvenmyhq2jxbt2.py":360:26)
#loc145 = loc("/tmp/torchinductor_jovyan/75/c75kq5wxnpekebh5gvgkjr6rffk6ub47rqvknmtvenmyhq2jxbt2.py":362:50)
#loc146 = loc("/tmp/torchinductor_jovyan/75/c75kq5wxnpekebh5gvgkjr6rffk6ub47rqvknmtvenmyhq2jxbt2.py":363:50)
#loc147 = loc("/tmp/torchinductor_jovyan/75/c75kq5wxnpekebh5gvgkjr6rffk6ub47rqvknmtvenmyhq2jxbt2.py":361:8)
#loc148 = loc("/tmp/torchinductor_jovyan/75/c75kq5wxnpekebh5gvgkjr6rffk6ub47rqvknmtvenmyhq2jxbt2.py":366:11)
#loc149 = loc("/tmp/torchinductor_jovyan/75/c75kq5wxnpekebh5gvgkjr6rffk6ub47rqvknmtvenmyhq2jxbt2.py":366:4)
#loc151 = loc("/tmp/torchinductor_jovyan/75/c75kq5wxnpekebh5gvgkjr6rffk6ub47rqvknmtvenmyhq2jxbt2.py":425:55)
#loc152 = loc("/tmp/torchinductor_jovyan/75/c75kq5wxnpekebh5gvgkjr6rffk6ub47rqvknmtvenmyhq2jxbt2.py":430:19)
#loc153 = loc("/tmp/torchinductor_jovyan/75/c75kq5wxnpekebh5gvgkjr6rffk6ub47rqvknmtvenmyhq2jxbt2.py":432:14)
#loc154 = loc("/tmp/torchinductor_jovyan/75/c75kq5wxnpekebh5gvgkjr6rffk6ub47rqvknmtvenmyhq2jxbt2.py":437:36)
#loc155 = loc("/tmp/torchinductor_jovyan/75/c75kq5wxnpekebh5gvgkjr6rffk6ub47rqvknmtvenmyhq2jxbt2.py":438:36)
#loc156 = loc("/tmp/torchinductor_jovyan/75/c75kq5wxnpekebh5gvgkjr6rffk6ub47rqvknmtvenmyhq2jxbt2.py":446:44)
#loc157 = loc("/tmp/torchinductor_jovyan/75/c75kq5wxnpekebh5gvgkjr6rffk6ub47rqvknmtvenmyhq2jxbt2.py":446:69)
#loc158 = loc("/tmp/torchinductor_jovyan/75/c75kq5wxnpekebh5gvgkjr6rffk6ub47rqvknmtvenmyhq2jxbt2.py":449:34)
#loc159 = loc("/tmp/torchinductor_jovyan/75/c75kq5wxnpekebh5gvgkjr6rffk6ub47rqvknmtvenmyhq2jxbt2.py":452:22)
#loc160 = loc("/tmp/torchinductor_jovyan/75/c75kq5wxnpekebh5gvgkjr6rffk6ub47rqvknmtvenmyhq2jxbt2.py":453:23)
#loc161 = loc("/tmp/torchinductor_jovyan/75/c75kq5wxnpekebh5gvgkjr6rffk6ub47rqvknmtvenmyhq2jxbt2.py":455:23)
#loc162 = loc("/tmp/torchinductor_jovyan/75/c75kq5wxnpekebh5gvgkjr6rffk6ub47rqvknmtvenmyhq2jxbt2.py":456:33)
#loc163 = loc("/tmp/torchinductor_jovyan/75/c75kq5wxnpekebh5gvgkjr6rffk6ub47rqvknmtvenmyhq2jxbt2.py":456:23)
#loc164 = loc("/tmp/torchinductor_jovyan/75/c75kq5wxnpekebh5gvgkjr6rffk6ub47rqvknmtvenmyhq2jxbt2.py":457:22)
#loc165 = loc("/tmp/torchinductor_jovyan/75/c75kq5wxnpekebh5gvgkjr6rffk6ub47rqvknmtvenmyhq2jxbt2.py":458:24)
#loc166 = loc("/tmp/torchinductor_jovyan/75/c75kq5wxnpekebh5gvgkjr6rffk6ub47rqvknmtvenmyhq2jxbt2.py":459:23)
#loc167 = loc("/tmp/torchinductor_jovyan/75/c75kq5wxnpekebh5gvgkjr6rffk6ub47rqvknmtvenmyhq2jxbt2.py":461:34)
#loc168 = loc("/tmp/torchinductor_jovyan/75/c75kq5wxnpekebh5gvgkjr6rffk6ub47rqvknmtvenmyhq2jxbt2.py":461:24)
#loc169 = loc("/tmp/torchinductor_jovyan/75/c75kq5wxnpekebh5gvgkjr6rffk6ub47rqvknmtvenmyhq2jxbt2.py":462:24)
#loc170 = loc("/tmp/torchinductor_jovyan/75/c75kq5wxnpekebh5gvgkjr6rffk6ub47rqvknmtvenmyhq2jxbt2.py":467:48)
#loc171 = loc("/tmp/torchinductor_jovyan/75/c75kq5wxnpekebh5gvgkjr6rffk6ub47rqvknmtvenmyhq2jxbt2.py":467:73)
#loc172 = loc("/tmp/torchinductor_jovyan/75/c75kq5wxnpekebh5gvgkjr6rffk6ub47rqvknmtvenmyhq2jxbt2.py":469:69)
#loc173 = loc("/tmp/torchinductor_jovyan/75/c75kq5wxnpekebh5gvgkjr6rffk6ub47rqvknmtvenmyhq2jxbt2.py":472:27)
#loc174 = loc("/tmp/torchinductor_jovyan/75/c75kq5wxnpekebh5gvgkjr6rffk6ub47rqvknmtvenmyhq2jxbt2.py":476:51)
#loc175 = loc("/tmp/torchinductor_jovyan/75/c75kq5wxnpekebh5gvgkjr6rffk6ub47rqvknmtvenmyhq2jxbt2.py":476:27)
#loc176 = loc("/tmp/torchinductor_jovyan/75/c75kq5wxnpekebh5gvgkjr6rffk6ub47rqvknmtvenmyhq2jxbt2.py":478:35)
#loc177 = loc("/tmp/torchinductor_jovyan/75/c75kq5wxnpekebh5gvgkjr6rffk6ub47rqvknmtvenmyhq2jxbt2.py":479:51)
#loc178 = loc("/tmp/torchinductor_jovyan/75/c75kq5wxnpekebh5gvgkjr6rffk6ub47rqvknmtvenmyhq2jxbt2.py":483:31)
#loc179 = loc("/tmp/torchinductor_jovyan/75/c75kq5wxnpekebh5gvgkjr6rffk6ub47rqvknmtvenmyhq2jxbt2.py":483:25)
#loc180 = loc("/tmp/torchinductor_jovyan/75/c75kq5wxnpekebh5gvgkjr6rffk6ub47rqvknmtvenmyhq2jxbt2.py":484:51)
#loc181 = loc("/tmp/torchinductor_jovyan/75/c75kq5wxnpekebh5gvgkjr6rffk6ub47rqvknmtvenmyhq2jxbt2.py":484:39)
#loc182 = loc("/tmp/torchinductor_jovyan/75/c75kq5wxnpekebh5gvgkjr6rffk6ub47rqvknmtvenmyhq2jxbt2.py":484:21)
#loc183 = loc("/tmp/torchinductor_jovyan/75/c75kq5wxnpekebh5gvgkjr6rffk6ub47rqvknmtvenmyhq2jxbt2.py":489:16)
#loc184 = loc("/tmp/torchinductor_jovyan/75/c75kq5wxnpekebh5gvgkjr6rffk6ub47rqvknmtvenmyhq2jxbt2.py":489:34)
#loc185 = loc("/tmp/torchinductor_jovyan/75/c75kq5wxnpekebh5gvgkjr6rffk6ub47rqvknmtvenmyhq2jxbt2.py":489:24)
#loc186 = loc("/tmp/torchinductor_jovyan/75/c75kq5wxnpekebh5gvgkjr6rffk6ub47rqvknmtvenmyhq2jxbt2.py":491:22)
#loc187 = loc("/tmp/torchinductor_jovyan/75/c75kq5wxnpekebh5gvgkjr6rffk6ub47rqvknmtvenmyhq2jxbt2.py":491:16)
#loc188 = loc("/tmp/torchinductor_jovyan/75/c75kq5wxnpekebh5gvgkjr6rffk6ub47rqvknmtvenmyhq2jxbt2.py":492:54)
#loc189 = loc("/tmp/torchinductor_jovyan/75/c75kq5wxnpekebh5gvgkjr6rffk6ub47rqvknmtvenmyhq2jxbt2.py":493:22)
#loc190 = loc("/tmp/torchinductor_jovyan/75/c75kq5wxnpekebh5gvgkjr6rffk6ub47rqvknmtvenmyhq2jxbt2.py":493:44)
#loc191 = loc("/tmp/torchinductor_jovyan/75/c75kq5wxnpekebh5gvgkjr6rffk6ub47rqvknmtvenmyhq2jxbt2.py":498:11)
#loc192 = loc("/tmp/torchinductor_jovyan/75/c75kq5wxnpekebh5gvgkjr6rffk6ub47rqvknmtvenmyhq2jxbt2.py":498:4)
#loc193 = loc("/tmp/torchinductor_jovyan/75/c75kq5wxnpekebh5gvgkjr6rffk6ub47rqvknmtvenmyhq2jxbt2.py":506:19)
#loc194 = loc("/tmp/torchinductor_jovyan/75/c75kq5wxnpekebh5gvgkjr6rffk6ub47rqvknmtvenmyhq2jxbt2.py":506:11)
#loc196 = loc("/tmp/torchinductor_jovyan/75/c75kq5wxnpekebh5gvgkjr6rffk6ub47rqvknmtvenmyhq2jxbt2.py":514:21)
#loc197 = loc("/tmp/torchinductor_jovyan/75/c75kq5wxnpekebh5gvgkjr6rffk6ub47rqvknmtvenmyhq2jxbt2.py":514:11)
#loc198 = loc("/tmp/torchinductor_jovyan/75/c75kq5wxnpekebh5gvgkjr6rffk6ub47rqvknmtvenmyhq2jxbt2.py":514:4)
#loc200 = loc("/home/jovyan/intel-xpu-backend-for-triton/python/triton/language/standard.py":188:40)
#loc202 = loc("/home/jovyan/intel-xpu-backend-for-triton/python/triton/language/standard.py":188:15)
#loc203 = loc("/home/jovyan/intel-xpu-backend-for-triton/python/triton/language/standard.py":176:4)
#loc205 = loc("/home/jovyan/intel-xpu-backend-for-triton/python/triton/language/standard.py":167:27)
#loc206 = loc("/home/jovyan/intel-xpu-backend-for-triton/python/triton/language/standard.py":167:11)
#loc207 = loc("/home/jovyan/intel-xpu-backend-for-triton/python/triton/language/standard.py":167:4)
#loc209 = loc("/home/jovyan/intel-xpu-backend-for-triton/python/triton/language/standard.py":290:36)
#loc210 = loc("/home/jovyan/intel-xpu-backend-for-triton/python/triton/language/standard.py":290:11)
#loc211 = loc("/home/jovyan/intel-xpu-backend-for-triton/python/triton/language/standard.py":290:4)
#loc213 = loc("/home/jovyan/intel-xpu-backend-for-triton/python/triton/language/standard.py":260:15)
#loc214 = loc("/home/jovyan/intel-xpu-backend-for-triton/python/triton/language/standard.py":260:11)
#loc215 = loc("/home/jovyan/intel-xpu-backend-for-triton/python/triton/language/standard.py":260:4)
#loc217 = loc("/tmp/torchinductor_jovyan/75/c75kq5wxnpekebh5gvgkjr6rffk6ub47rqvknmtvenmyhq2jxbt2.py":377:33)
#loc218 = loc("/tmp/torchinductor_jovyan/75/c75kq5wxnpekebh5gvgkjr6rffk6ub47rqvknmtvenmyhq2jxbt2.py":378:38)
#loc219 = loc("/tmp/torchinductor_jovyan/75/c75kq5wxnpekebh5gvgkjr6rffk6ub47rqvknmtvenmyhq2jxbt2.py":378:24)
#loc220 = loc("/tmp/torchinductor_jovyan/75/c75kq5wxnpekebh5gvgkjr6rffk6ub47rqvknmtvenmyhq2jxbt2.py":379:109)
#loc221 = loc("/tmp/torchinductor_jovyan/75/c75kq5wxnpekebh5gvgkjr6rffk6ub47rqvknmtvenmyhq2jxbt2.py":379:113)
#loc222 = loc("/tmp/torchinductor_jovyan/75/c75kq5wxnpekebh5gvgkjr6rffk6ub47rqvknmtvenmyhq2jxbt2.py":379:39)
#loc223 = loc("/tmp/torchinductor_jovyan/75/c75kq5wxnpekebh5gvgkjr6rffk6ub47rqvknmtvenmyhq2jxbt2.py":379:55)
#loc224 = loc("/tmp/torchinductor_jovyan/75/c75kq5wxnpekebh5gvgkjr6rffk6ub47rqvknmtvenmyhq2jxbt2.py":379:25)
#loc225 = loc("/tmp/torchinductor_jovyan/75/c75kq5wxnpekebh5gvgkjr6rffk6ub47rqvknmtvenmyhq2jxbt2.py":380:30)
#loc226 = loc("/tmp/torchinductor_jovyan/75/c75kq5wxnpekebh5gvgkjr6rffk6ub47rqvknmtvenmyhq2jxbt2.py":380:35)
#loc227 = loc("/tmp/torchinductor_jovyan/75/c75kq5wxnpekebh5gvgkjr6rffk6ub47rqvknmtvenmyhq2jxbt2.py":380:60)
#loc228 = loc("/tmp/torchinductor_jovyan/75/c75kq5wxnpekebh5gvgkjr6rffk6ub47rqvknmtvenmyhq2jxbt2.py":381:34)
#loc229 = loc("/tmp/torchinductor_jovyan/75/c75kq5wxnpekebh5gvgkjr6rffk6ub47rqvknmtvenmyhq2jxbt2.py":381:48)
#loc230 = loc("/tmp/torchinductor_jovyan/75/c75kq5wxnpekebh5gvgkjr6rffk6ub47rqvknmtvenmyhq2jxbt2.py":381:63)
#loc231 = loc("/tmp/torchinductor_jovyan/75/c75kq5wxnpekebh5gvgkjr6rffk6ub47rqvknmtvenmyhq2jxbt2.py":382:29)
#loc232 = loc("/tmp/torchinductor_jovyan/75/c75kq5wxnpekebh5gvgkjr6rffk6ub47rqvknmtvenmyhq2jxbt2.py":382:47)
#loc233 = loc("/tmp/torchinductor_jovyan/75/c75kq5wxnpekebh5gvgkjr6rffk6ub47rqvknmtvenmyhq2jxbt2.py":382:61)
#loc234 = loc("/tmp/torchinductor_jovyan/75/c75kq5wxnpekebh5gvgkjr6rffk6ub47rqvknmtvenmyhq2jxbt2.py":382:42)
#loc235 = loc("/tmp/torchinductor_jovyan/75/c75kq5wxnpekebh5gvgkjr6rffk6ub47rqvknmtvenmyhq2jxbt2.py":383:11)
#loc236 = loc("/tmp/torchinductor_jovyan/75/c75kq5wxnpekebh5gvgkjr6rffk6ub47rqvknmtvenmyhq2jxbt2.py":383:4)
